Assets/Models/aasdsa.model (torch, 76542 bytes, 6 tensors)

layer1.weight f4 [128, 6]
000000 d7 f5 ae 3e d8 ef 0a be c6 a8 cb 3e 46 ba 57 be
       0.34171936 -0.13568056 0.397772 -0.21067151
000010 ed bf f6 bd 8f c5 99 3d 2c 88 a1 bd 25 aa b7 3e
       -0.12048326 0.075083844 -0.07887301 0.35871997
000020 73 a5 92 3e 89 20 89 3d ec e7 9c 3d 60 ad c0 3e
       0.28641853 0.06695659 0.07661423 0.37632275
000030 b8 c5 57 3e fe f1 af be c8 ed 9f 3e c0 88 bd be
       0.21071517 -0.34364313 0.312361 -0.37018394
000040 c1 2d 7d be c0 36 fd bd e9 cb a2 be e7 a6 bf be
       -0.24724485 -0.12363958 -0.31796196 -0.37432024
000050 38 fb d1 3d 92 d2 ae be c3 ac c7 be f6 c2 7b be
       0.10252994 -0.34145027 -0.38998994 -0.2458609
000060 9c e7 48 3e 50 d7 39 be 18 f1 54 be 0b 64 9b be
       0.19619602 -0.18148541 -0.20795095 -0.30349764
000070 80 82 b3 3c 53 29 95 be e8 95 ee 3d 78 c7 92 bc
       0.021912813 -0.2913309 0.11649686 -0.01791738
000080 d8 a2 af bd 0c 99 1c be 78 65 d4 3d 42 e3 83 be
       -0.08575982 -0.15292758 0.10370916 -0.2575932
000090 ac 61 be bc 70 ec 05 be 07 61 a3 be 80 8e 95 be
       -0.023239933 -0.13078475 -0.31909963 -0.2921028
0000a0 cc 1b 64 3d 74 66 a5 3e 30 74 9e 3e 18 ad a7 3d
       0.05569057 0.32304728 0.3094802 0.08187312
0000b0 2f 4d a4 3e 92 b1 e5 3d 96 7a 1a bd e6 59 a9 3e
       0.32090136 0.112155095 -0.037714563 0.330764
0000c0 b4 12 7a 3e 88 80 f6 3d 04 5f 61 3b 34 31 e0 bc
       0.24421197 0.12036234 0.003438891 -0.027367212
0000d0 e8 f4 91 be 8c 2b a9 3e 3c d5 97 be bc ff be 3e
       -0.2850716 0.33041036 -0.29654872 0.37304485
0000e0 9f 05 ea bc f6 f6 b9 be 12 c1 cc bd 28 2b 9d 3e
       -0.028567133 -0.3632123 -0.09997763 0.30696988
0000f0 1b 0a 39 bc d9 35 01 3e e2 be 38 3e 35 0d 38 bd
       -0.011293913 0.12618198 0.18041566 -0.04493447
000100 95 96 fd 3c 42 68 e4 bd 67 4b cf be d8 0b 9c bc
       0.030955592 -0.11152698 -0.40487215 -0.019048616
000110 3e 4e 4b be 42 bd b6 be 11 b1 c1 be b4 38 fc 3d
       -0.19854066 -0.35691267 -0.37830403 0.12315503
000120 36 02 dd 3e b2 08 65 be 75 03 53 3e 01 2b a3 3e
       0.4316575 -0.22366598 0.20606788 0.31868747
000130 17 d7 ac be a1 bb 6b 3e e7 ab 63 be fc 84 0d be
       -0.3375785 0.23020793 -0.22233544 -0.13820261
000140 a0 67 8f be 36 2e a7 be 7c 5e 85 3e 1c 3b a7 be
       -0.28008747 -0.32652444 0.26048648 -0.32662284
000150 33 58 d0 be de 39 81 3e 1b 5c 2f 3e 03 87 8e 3e
       -0.4069229 0.25239462 0.17124979 0.2783738
000160 61 c7 a9 be 2c a2 08 3c 0b 0f f4 3e 22 5a 97 3e
       -0.33159927 0.008339446 0.47667727 0.29560953
000170 ef d0 27 bc cf 0f 8e 3e 4a 7e 09 3e bc 85 87 bc
       -0.010242685 0.27746436 0.13427082 -0.016543262
000180 34 7a 8e be b6 c2 35 3e 30 e0 96 3e 08 28 72 bc
       -0.2782761 0.17750058 0.29467916 -0.014780052
000190 6d ca 53 3e f3 f3 d7 bd 9e 86 54 be 33 91 99 3e
       0.20682688 -0.105445765 -0.20754477 0.2999359
0001a0 a5 30 a8 be 79 e4 d0 3e f9 ae dc 3e fe ef 60 bd
       -0.32849613 0.4079931 0.43102244 -0.054916374
0001b0 f5 4d 5e bd eb 17 9f be 23 fb b7 3e 72 f0 cd 3d
       -0.054273564 -0.31072935 0.3593379 0.10055627
0001c0 37 45 93 3e aa 8c 83 3d 0a 5e a9 3e 74 06 83 be
       0.28763744 0.06423314 0.3307956 -0.2559086
0001d0 10 ed 31 3d e0 30 f5 bc be a9 b9 be 8c 9d 97 bd
       0.04343897 -0.029930532 -0.36262316 -0.074030966
0001e0 8b 0b cf be 02 12 cc be 04 82 84 bd a4 c4 6e 3e
       -0.40438494 -0.3985749 -0.06470111 0.233172
0001f0 08 dd 87 be 40 a1 9b bd 52 87 85 be eb ab d6 3d
       -0.2653582 -0.07599115 -0.26079804 0.104820095
000200 c5 dd b5 3e 67 af 4c 3e 07 3b ad be 70 c2 c0 3d
       0.3552076 0.19988786 -0.33834097 0.09412086
000210 60 6c 2e 3e 0c 6a 3d 3e 96 c7 91 3e c4 8d 53 be
       0.1703353 0.18497485 0.28472584 -0.20659548
000220 69 e8 3c be 3c ca 1e be dd 32 aa bd b9 9e da 3e
       -0.18448032 -0.15506834 -0.08310483 0.4269922
000230 7b a0 00 3e a1 7b 29 be 32 a6 56 be 7e f6 70 3e
       0.12561218 -0.16551067 -0.20961836 0.2353153
000240 99 c0 06 3e a8 20 81 be 0b 7a bf 3e d1 5e b3 3c
       0.13159408 -0.25220227 0.373978 0.021895798
000250 3a 44 28 3d 3a 85 94 3e 09 2a ad 3e 00 fa 97 3e
       0.04108069 0.29007894 0.33821133 0.29682922
000260 32 32 88 3e 39 92 b4 3d 02 88 bf 3e 1e 3e 94 3e
       0.26600796 0.08816952 0.37408453 0.28953642
000270 fe ca 5b be 44 de 71 3e 9b fd 3b be 0c 07 46 bc
       -0.21464154 0.23619944 -0.18358462 -0.012086641
000280 dc ee 8d bd 48 f7 b7 3d 86 e5 d7 bd f6 c3 57 3e
       -0.069303244 0.08982712 -0.10541825 0.21070847
000290 0f c1 24 3e 41 85 c8 3c 69 c9 a3 be 5f 63 a1 3e
       0.16089271 0.024477603 -0.319896 0.31521127
0002a0 be 76 80 3e a2 e9 94 3e ec 35 8b 3e 8f 13 a5 3e
       0.25090593 0.29084498 0.27189577 0.32241485
0002b0 84 30 9b 3e 82 6b d5 3e 15 8f b8 be b4 51 63 3e
       0.30310452 0.41683584 -0.36046663 0.22199136
0002c0 f5 73 08 3e 9d c3 ce 3c 42 96 ea bd 3d f7 47 3d
       0.13325484 0.02523976 -0.11454441 0.04881977
0002d0 71 cd f9 3e fc ed a2 be 26 6b bc 3e 67 90 8f 3e
       0.48789552 -0.31822193 0.36800498 0.28039858
0002e0 65 24 cc 3d ba 1b 82 3e 42 75 85 be bb f4 3e be
       0.09967879 0.2541178 -0.26066023 -0.18648045
0002f0 1a dc 8e be 70 2b 8a be 00 be 0e 3e 1a e1 38 be
       -0.279023 -0.26986265 0.13939667 -0.1805462
000300 2f 0b 34 3e d9 0e d7 3e 35 1e 19 be 05 71 6d 3e
       0.17582391 0.42003515 -0.1495293 0.23187645
000310 9b 6d c3 3e e5 c8 bf bd 40 9b f3 3d 36 1b ad 3e
       0.3816956 -0.093644895 0.11894846 0.33809823
000320 0c b9 80 be 87 cd c8 be 3c c0 f9 3d 50 9a 6b 3e
       -0.2514118 -0.39219305 0.12194869 0.23008084
000330 54 2d bd 3d 64 51 2c 3e 9e b3 1e be 88 4f 89 3d
       0.09237161 0.16827923 -0.15498206 0.067046225
000340 50 a6 b7 3b d4 7d 25 bc 2b a6 a7 3e a2 79 23 bc
       0.005604543 -0.010100801 0.32743964 -0.00997773
000350 c9 6a 28 be 6a 9e 42 3e b2 fd b5 3e d8 78 c2 3e
       -0.16446985 0.19005743 0.35545117 0.3798282
000360 70 96 0a 3e cd ee d3 3d 98 18 37 3d 19 f9 04 bc
       0.1353395 0.10348282 0.04470119 -0.00811603
000370 96 e2 c4 bc 28 c3 68 3e 2d 6a b7 be 51 69 05 3e
       -0.024033826 0.22730696 -0.35823193 0.13028456
000380 50 e4 e8 bd bb 93 bb be d0 0e 41 3e ae 21 b9 bd
       -0.11371672 -0.36636147 0.18853307 -0.09039627
000390 24 f9 c5 be 5e 23 41 be 34 63 cb bd 83 31 bd be
       -0.38666642 -0.18861148 -0.09931031 -0.36951837
0003a0 ec bb a0 3d bc 5f 9c bd b8 11 7a be 1d 3f 9b be
       0.07848343 -0.076354474 -0.24420822 -0.3032159
0003b0 02 d8 c5 be 86 15 1a 3e 37 ef b0 3e 24 41 95 bc
       -0.38641363 0.15047273 0.34557506 -0.018219538
0003c0 bc 2c f2 3e 81 5a 55 3e 36 d2 0e 3c 7c 10 84 be
       0.47299755 0.20835306 0.00871711 -0.25793827
0003d0 fb 9c c3 3e ab f9 ca be 8c b4 5e 3e e4 df 31 3e
       0.38205704 -0.39643607 0.2174856 0.17370564
0003e0 80 ff 86 be 8e 55 a9 be bc fa e1 bd eb e9 51 be
       -0.26366806 -0.33073086 -0.11034152 -0.20499389
0003f0 4c ce 03 3e f6 cc 66 be 5c f6 bc be 0a d1 aa be
       0.12871665 -0.22539124 -0.36906707 -0.3336261

layer1.bias f4 [128]
000000 28 ec ce 3e d8 a6 37 3d a2 c9 01 be 10 04 9f bd
       0.40414548 0.04483685 -0.12674573 -0.07764447
000010 54 37 b5 3e d8 c3 c2 be 62 3e 2c be 7e 41 83 3e
       0.35393775 -0.38040042 -0.16820672 0.25635904
000020 cf 4c c8 be 4a 2a a2 3c 1b 8e 38 3e b8 26 92 3c
       -0.391211 0.019795556 0.18022959 0.017840728
000030 f8 20 e2 bc 80 0a a6 bd ea c9 cc be 77 88 87 bd
       -0.027603611 -0.081074715 -0.39997798 -0.066178255
000040 4b 8d a0 3e b7 a9 d5 3e 06 1e 9d be 68 5d 4a 3e
       0.31357798 0.41731045 -0.3068697 0.19762194
000050 5c 4f 74 be 2b a0 b3 bc cf 99 9c be 6f 31 c1 3e
       -0.23858398 -0.02192696 -0.30586097 0.37733027
000060 34 4e 75 be 8b 76 cf bd 23 05 cc be 30 17 4f 3e
       -0.23955613 -0.10130032 -0.3984767 0.20223689
000070 ce 59 9b 3e e6 13 96 bd 9d 4b 77 3e 80 16 f0 bc
       0.30341953 -0.07328014 0.24149938 -0.029307604
000080 73 c1 5f 3e 5c b2 67 be e1 d3 8f be 84 6d af be
       0.21851139 -0.22626632 -0.28091338 -0.3426324
000090 42 be 9a 3e f1 7a 99 3e f7 3f 96 be df 5a 79 3e
       0.3022328 0.2997661 -0.29345676 0.24351071
0000a0 89 fd c0 3e 95 b8 a4 be f4 12 01 bd 71 75 a5 be
       0.37693432 -0.32172075 -0.031512216 -0.32316163
0000b0 f7 94 8f be 87 79 87 be 7c 4d a4 bd e7 a4 8b 3c
       -0.2804334 -0.26459906 -0.080225915 0.017046405
0000c0 94 dd 18 bd 10 42 58 be 1e 19 5c 3e ee c0 85 be
       -0.03732069 -0.21118951 0.21493956 -0.26123756
0000d0 94 f6 96 be 40 34 ed 3c 56 35 9f be 38 91 b9 3e
       -0.29485 0.028955579 -0.3109538 0.36243606
0000e0 7c 82 fa 3b 6e a1 44 be 74 9b 3e 3e 95 f7 b5 be
       0.0076449495 -0.19202206 0.18613988 -0.35540453
0000f0 50 ad c0 3e 07 ed bc be cd 0c c1 3d 54 07 04 be
       0.37632227 -0.36899588 0.0942627 -0.1289342
000100 b0 f8 91 3e 91 46 7f bd 16 12 84 3e 03 59 05 be
       0.28510046 -0.062323157 0.25795048 -0.13022237
000110 a3 8d 72 be 2a 77 b8 3c 9b 6e 4a be b5 5b e1 3c
       -0.23686843 0.02251776 -0.19768755 0.02750955
000120 5a 40 5c 3e da 0c c9 3e 53 e7 b0 be 2a 27 a1 be
       0.21508923 0.39267617 -0.34551486 -0.31475192
000130 b8 7c 2b 3d a4 d1 bc 3e fd b8 51 be 9c a5 55 3e
       0.041866988 0.36878693 -0.20480724 0.20863956
000140 fd a0 20 be 29 67 bb 3d e2 1b 8b 3e ff 7c 32 3e
       -0.15686412 0.091505356 0.2716971 0.17430495
000150 56 60 9d 3e 4b 7d 27 be 42 5c 95 3d 50 d3 81 be
       0.3073756 -0.16356389 0.072929874 -0.2535653
000160 e9 69 04 be 5d 3f 65 3e 0d b7 bd 3e 76 60 b4 be
       -0.12931027 0.22387452 0.3705372 -0.35229844
000170 99 8f 86 3e 08 61 89 be c9 00 a4 3e 6d 16 b5 be
       0.2628143 -0.2683184 0.3203185 -0.35368672
000180 2e 1e 32 3e 8a 8c 35 be 33 90 ce be a0 e2 b5 be
       0.17394325 -0.17729393 -0.4034439 -0.35524464
000190 38 45 19 bd 06 ca 9d 3e 27 62 b5 3e a7 be 64 3e
       -0.037419528 0.30818194 0.35426447 0.22338353
0001a0 15 a9 08 3e 18 a5 55 bd ba e0 0a 3e f2 7c 50 be
       0.1334575 -0.0521594 0.13562289 -0.20360163
0001b0 40 9b 6e 3b 72 64 46 3e 70 d8 1b be 0c 0f 9f be
       0.0036408454 0.19374254 -0.15219283 -0.31066167
0001c0 f5 3a 4e be ab 6f 64 3c c4 69 3b 3e 7f 48 c1 be
       -0.20139678 0.013942639 0.18302065 -0.37750623
0001d0 20 24 be 3e f7 31 6d 3e 98 36 37 be 56 4e 85 be
       0.37136936 0.23163591 -0.1789192 -0.26036328
0001e0 5f 47 cb be 56 2e 6f bd 48 52 80 be c3 b1 4c 3e
       -0.3970289 -0.0583938 -0.25062776 0.19989686
0001f0 07 98 92 be d8 e5 7a 3e 04 bc a5 be 5f 57 ac be
       -0.28631613 0.24501741 -0.32370007 -0.3366041

layer2.weight f4 [128, 128]
000000 8d f7 99 bd 4a 25 92 bd 47 61 b4 3d 1f ca af 3d
       -0.0751792 -0.071360186 0.08807617 0.085834734
000010 d8 14 93 bd e0 76 77 bc 4c 34 55 bd aa 48 38 3d
       -0.0718171 -0.015104026 -0.052051827 0.044991173
000020 d8 82 95 bc f0 28 f6 bc 3b 8a 00 bd 48 0a 10 bd
       -0.018250868 -0.030048817 -0.031381827 -0.035166055
000030 cc d6 fe 3b ba 78 0d bd b2 e7 47 3d 90 fc 0f bc
       0.0077770706 -0.034538962 0.048804946 -0.008788243
000040 40 ff 89 bd 89 72 7e bd af 1c 11 bd a4 b3 49 bc
       -0.06738138 -0.062120948 -0.035427745 -0.012310896
000050 fe e9 68 3d 92 d0 ae bd 85 41 82 3d 09 3a 50 bd
       0.056863777 -0.085358754 0.06360153 -0.050836597
000060 0c 0b ed bc bc 5a 80 bd dc bf b3 bd 1a 1a 42 bd
       -0.028935932 -0.06267306 -0.08776829 -0.047388174
000070 e4 4b 8a bc 66 ac 61 3d 20 a4 92 bc 89 94 b3 3d
       -0.01688189 0.055096053 -0.017900527 0.08768565
000080 f4 04 a8 bb c4 9a 27 bc a0 51 ec bb 05 6b 80 3d
       -0.0051275436 -0.01022977 -0.007211879 0.06270412
000090 61 37 b3 3d 3e 67 0c 3d 29 4b b4 bd 56 c2 60 3d
       0.08750797 0.034278147 -0.08803398 0.054872833
0000a0 05 13 9c bd 5c 79 0c 3d 8a 26 85 bd 23 59 a4 3d
       -0.07620815 0.034295425 -0.06501491 0.08024814
0000b0 22 f3 5d 3d 50 8a 99 bd 10 83 31 bb 40 e5 ed 3c
       0.054186948 -0.07497084 -0.0027086176 0.029039979
0000c0 bc 09 be 3c 04 40 8b 3c 00 f4 52 bc 1c 0e 83 bb
       0.023198001 0.016998298 -0.012875557 -0.0039994847
0000d0 fd 60 91 3d ea 1e 73 bd 63 4a 95 bd 76 9d 3a 3d
       0.07098577 -0.059355654 -0.07289579 0.045560323
0000e0 c2 7f 79 3d 84 1e 82 bc 83 0a 1e 3d 95 1a ae 3d
       0.060912855 -0.015883692 0.038584244 0.08501164
0000f0 1d 07 9a 3d 78 4d db 3c d0 de 9b bd 48 68 d4 37
       0.07520888 0.026770338 -0.076108575 2.532093e-05
000100 71 03 da bc 58 a8 36 bc 8a 3e 77 3d 8b c5 7e bd
       -0.02661297 -0.011148535 0.060362376 -0.06220011
000110 82 6f 6e 3d b4 d8 88 bc 6e 89 32 3d 55 21 92 3d
       0.05821181 -0.016704895 0.043588094 0.07135264
000120 d4 e8 51 bd a0 25 16 3c 94 30 e5 3c 62 79 2c 3d
       -0.051247433 0.009164244 0.027977265 0.042107947
000130 96 38 57 3d c4 c6 51 bd c5 8a 81 3d c8 5e 9c bc
       0.0525442 -0.05121495 0.06325296 -0.019088164
000140 1c 70 0d 3c 54 b4 5d 3c 47 cc 41 bd 4c d7 91 bd
       0.008632686 0.013531763 -0.047313955 -0.07121143
000150 65 3d 82 bd 97 ac 8c bd 03 9c 94 3d 08 70 d0 bc
       -0.06359366 -0.068688564 0.072563194 -0.025444046
000160 a4 ba f7 3c 41 b6 9e 3d cd 56 a6 3d 46 ca 90 bd
       0.030240364 0.07749606 0.08122025 -0.070698306
000170 38 c5 13 bb be 14 52 3d bc 10 9b bd c8 f8 70 3c
       -0.0022547971 0.051289313 -0.07571551 0.014707752
000180 9d 77 93 bd 3a 5e 59 3d 98 2c 15 3b ad 3e a8 3d
       -0.07200549 0.053068377 0.0022762176 0.082150795
000190 d5 57 42 bd dc 2d 45 3c 00 1e b7 bb 5b 23 9f 3d
       -0.047447044 0.0120348595 -0.005588293 0.077704154
0001a0 91 4c 83 3d cf 80 a7 bd 9b 35 4e bd 84 85 df ba
       0.06411088 -0.08178865 -0.05034409 -0.001705334
0001b0 d8 5e 51 3c d3 0a 2f bd c7 ab 5b bd e2 1e 4b bd
       0.01277896 -0.042734932 -0.053630617 -0.04959
0001c0 5d c2 ac 3d 55 9e 8b 3d 3e c2 9e bd 28 4d 7e bd
       0.08435509 0.06817309 -0.077518925 -0.0620853
0001d0 93 3e b4 bd aa c3 10 3d 07 cc a2 bd f0 ec 84 3c
       -0.088009976 0.03534285 -0.079490714 0.016226262
0001e0 dc 59 b9 bc d8 82 38 3c b9 39 8c bd ee 28 86 bd
       -0.022625856 0.011261664 -0.06846947 -0.065507755
0001f0 65 b3 4b bd 89 4f 82 bd f0 e5 72 bd 1a 0a 67 3d
       -0.04973163 -0.063628264 -0.059301317 0.056406118
000200 81 51 bd bc 30 d4 de bc b3 c3 29 bd 21 52 5b bd
       -0.023110153 -0.027200788 -0.0414464 -0.05354512
000210 24 ab a7 bd 8e 36 85 bd 0b ab 28 bd 74 2c 43 3c
       -0.08186939 -0.06504546 -0.041178744 0.011912454
000220 ab b4 a9 bd 10 fc 88 bd 15 a3 8c 3d ea bf 58 bd
       -0.08286413 -0.06688702 0.06867043 -0.0529174
000230 5e c9 a1 3d 85 1d 9c bd ad a4 3a bd 62 f9 a9 3d
       0.07899736 -0.07622818 -0.045567203 0.08299519
000240 1b 47 91 bd 27 ac a7 bc dc 34 4d bd 42 ec 19 3d
       -0.070936404 -0.02046783 -0.05009924 0.03757883
000250 94 7e 91 3c 5b 42 8c bd c8 ce 56 3b ad c0 99 3d
       0.017760552 -0.06848594 0.003277706 0.07507453
000260 7e 97 11 bd ee ec 50 3d 26 2a 8f bd 1c 25 b4 bd
       -0.035544865 0.051007204 -0.06990461 -0.087961406
000270 17 0c 43 bc bc ca b5 bd 1e 93 b6 3d b8 70 92 bc
       -0.011904738 -0.08876559 0.08914779 -0.017876014
000280 c3 ba 72 3d ad ca 85 3d 6d f8 ad bd 50 fa ae bc
       0.05926014 0.06532798 -0.08494649 -0.021359593
000290 af de 96 3d 22 7a cc 3c 45 ed 8c 3d 06 64 df bd
       0.07366692 0.024960581 0.06881193 -0.1090775
0002a0 9d 21 59 bd cc d4 05 3c 89 aa 8f bd 7b e5 22 bd
       -0.05301057 0.0081684105 -0.07014949 -0.03976963
0002b0 3a 95 76 3d 43 d0 74 3c 48 7d 83 3c 65 6a 96 bd
       0.060200907 0.014942232 0.01605095 -0.07344512
0002c0 fc 6a 5e 3d 00 65 2b 3d 84 f0 a6 bd 43 12 82 bd
       0.054301247 0.041844368 -0.081513435 -0.063511394
0002d0 ec e8 3f bc 70 66 87 bc 71 ca 60 bd 73 b8 7a 3c
       -0.011713248 -0.016528338 -0.054880563 0.015302765
0002e0 13 53 7d bd 2a b3 52 3d 5e 07 5e 3d 3d c7 90 bd
       -0.061846804 0.051440395 0.054206245 -0.07069252
0002f0 ee c8 60 3d c5 57 dc bc 1a bc ee bb ba 79 50 3c
       0.05487912 -0.02689732 -0.007285607 0.012724334
000300 45 4f 32 3d 25 2d 80 3d 5c c1 04 bd 80 7c 78 bd
       0.04353263 0.06258611 -0.032410964 -0.060665607
000310 4a e6 3d 3d 25 4d b3 3d 61 8e ef 3c f6 75 0b 3c
       0.0463622 0.087549485 0.029242696 0.008512011
000320 d9 49 e9 bc fd 15 81 3d 7c d9 bf 3c 78 7c 84 3c
       -0.028477596 0.06303022 0.023419134 0.016172633
000330 e8 40 cf 3c 72 7f 82 bd 1a 63 f8 3a 80 5e ac bd
       0.025299504 -0.063719645 0.0018950433 -0.08416462
000340 48 0a a3 ba 7f 62 88 bc c6 4e af 3d 94 52 13 3c
       -0.0012438977 -0.01664853 0.08559947 0.008991856
000350 2d f9 b1 bc 6e 55 16 3d 1c ce 46 bd ec 19 b3 bc
       -0.021725262 0.036702566 -0.048536405 -0.021862946
000360 19 28 06 bc 25 6f 6a 3c 51 93 c4 bd 42 58 4e 3d
       -0.008188271 0.0143087255 -0.09598411 0.050377138
000370 7d 61 ac 3d f2 0e 24 3d 1b 03 95 3d c8 25 b0 3c
       0.08417032 0.040053315 0.07275983 0.02150239
000380 11 b8 81 3d 00 fd 11 bc 81 7a b9 3d d4 cd 87 3c
       0.06333936 -0.008910418 0.09056569 0.016577639
000390 aa cf 2d 3d 85 68 f9 bc 66 26 72 bd dc 5e c0 3c
       0.042434372 -0.030445347 -0.05911865 0.023482732
0003a0 96 f2 4b 3d cd 22 a4 bd 2a aa 31 39 32 6d a1 3d
       0.049791895 -0.0801445 0.00016943426 0.078821555
0003b0 53 d5 9b bd 70 fb 3c 3b 23 3f cb 3d b8 c4 cc bc
       -0.07609048 0.0028836392 0.09924152 -0.024996147
0003c0 0a de 09 bc 4c 99 6d 3d 90 35 79 bd ba 3e 71 3d
       -0.008414755 0.058007523 -0.060842097 0.05889771
0003d0 5d c7 71 bd 8b 6a 27 3d d8 ef 57 3c 11 19 a8 bb
       -0.05902802 0.04087309 0.013179742 -0.0051299413
0003e0 c4 4b 65 bc f3 0d c6 bc c8 92 9a 3b e9 93 89 bd
       -0.013995115 -0.024176573 0.0047172047 -0.06717665
0003f0 17 bc 5d 3c 97 4f 9d 3d 24 0f 09 3c 0c 47 46 bd
       0.013533614 0.07681196 0.008365426 -0.0484076

layer2.bias f4 [128]
000000 e3 ad 9d 3d f6 e9 7a 3c df c4 1f 3d bc f6 79 bd
       0.07699182 0.01531457 0.03900611 -0.06102632
000010 05 54 68 bd 91 f1 17 bd 2f a4 0e bd 7b ec 4e bd
       -0.056720752 -0.03709561 -0.034824546 -0.050518494
000020 23 f9 f8 3b 3b 94 a2 3d 71 84 17 3d 74 e7 0b bc
       0.007598059 0.07938429 0.03699154 -0.008539069
000030 01 3c e1 3b 3d a8 d7 3d 0b f4 c8 bb b8 74 9c 3b
       0.006873608 0.10530136 -0.006132608 0.004774656
000040 f1 02 95 3d e0 ac c7 3c a8 8c d0 bb 5c c5 0b 3d
       0.07275952 0.024374425 -0.006364424 0.034123763
000050 d2 92 a6 3d a9 01 a4 3d e7 8e 1a bd 7a 79 a5 3c
       0.081334725 0.08008129 -0.03773394 0.020199526
000060 f4 f0 c8 bc 87 64 62 bd dc ad 14 3d 5f 8e a7 3c
       -0.024528958 -0.05527165 0.036298618 0.02045363
000070 99 bf 26 bc 59 fd ba bb 2c f7 2d bd 1f 94 52 3d
       -0.010177516 -0.005706471 -0.04247205 0.05141079
000080 8f b1 8e bd 48 46 44 3c c5 83 89 3d 66 9f 5d bd
       -0.0696746 0.011979647 0.06714586 -0.054107092
000090 09 37 82 bd f5 a0 f2 3b a9 ed 87 bd 9e ec 6f 3c
       -0.063581534 0.0074044415 -0.06637127 0.014643816
0000a0 d8 3a 9c bb 6a 7b 73 3c eb 8c 66 3d c4 f2 84 3d
       -0.004767757 0.014860967 0.056286734 0.06491616
0000b0 44 70 c2 bc 16 04 67 3d 26 d8 a0 bd 67 5e 29 bd
       -0.023735173 0.05640038 -0.07853727 -0.041349795
0000c0 7d c1 6c bd 92 39 23 3d ed 45 a9 bd b3 68 5c bd
       -0.057801712 0.039849825 -0.082652904 -0.053810786
0000d0 b2 70 0f bd be 14 bb 3d 70 3a 14 bd b9 43 94 3d
       -0.035019584 0.09134816 -0.036188543 0.072394796
0000e0 46 54 2f 3d d2 05 5a bd 3a ae 3b 3d 5f 85 df 3c
       0.04280498 -0.053228207 0.045820452 0.027285276
0000f0 ef b5 b0 bd d6 79 35 3d 68 f9 4d bc e8 e1 10 3d
       -0.08628451 0.044305645 -0.01257167 0.03537169
000100 3d fa a4 3d 55 2f 39 bd 46 5e 62 bd 24 9d a9 bd
       0.08055542 -0.045211155 -0.055265687 -0.08281925
000110 2c ea 14 3d 01 4b 14 3d 21 fe 36 bd c4 b1 0a bd
       0.036356136 0.03620434 -0.04467595 -0.033860937
000120 d2 94 a9 3b 33 cc ab bc 15 ed 80 3d 8a 61 f2 3c
       0.0051752115 -0.020971393 0.0629522 0.029587526
000130 68 2a 94 bd f0 56 1d 3c 3d 0e be 3d 91 86 c8 3d
       -0.07234651 0.009603247 0.092800595 0.097912915
000140 22 6e c3 3d b5 b3 aa bd 7b ae 55 3d 7d d9 ad 3d
       0.095424905 -0.08335058 0.05216835 0.08488748
000150 88 2e 5c 3b 87 67 19 bd 7a 5e 5b 3d 8d c8 8e bd
       0.003359707 -0.037452247 0.053556897 -0.06971846
000160 6d e8 8f 3d 50 e4 2f 3c 00 61 84 bb 61 c9 8e 3d
       0.070267536 0.010735586 -0.0040398836 0.06972004
000170 a4 49 85 3c 45 b8 a4 3d f1 ec 86 bd 3d f1 be 3d
       0.016270466 0.08042959 -0.06588162 0.09323356
000180 4a 9f 35 3d 83 b8 ae bd bc f7 b7 bd c1 a5 14 3d
       0.044341363 -0.085312866 -0.089827985 0.036290888
000190 65 6b a0 3d f3 15 27 bd 08 e2 4b bb f0 cc 16 3c
       0.07832984 -0.040792417 -0.0031110067 0.009204134
0001a0 e0 4a 96 3d 3a 3b da bc f6 8f 9b 3d 7a 1c 19 3d
       0.073385 -0.02663957 0.07595818 0.037380673
0001b0 c1 f3 99 3d a5 e6 a9 3d 8a 69 65 3d 5c 8c bd bc
       0.075171955 0.08295945 0.056008853 -0.023138218
0001c0 5f ec 9c 3d 3b 30 28 3d 7b a6 83 bc a5 7b 46 bd
       0.07662272 0.04106162 -0.016070595 -0.04845776
0001d0 32 ea 5a bd cf fd a2 bd 47 84 97 3d 49 c0 95 bd
       -0.053446002 -0.079585664 0.07398277 -0.07312066
0001e0 57 0e ab 3d 58 ee 10 bd 24 d7 e3 3c 74 7f cc bc
       0.083523445 -0.035383552 0.027812548 -0.024963118
0001f0 43 2a 06 3d a8 72 7a bd 24 86 6f 3d b0 84 96 bd
       0.032755148 -0.0611445 0.058477536 -0.07349527

layer3.weight f4 [9, 128]
000000 8f 5b 90 3d a6 e5 69 3b 40 f8 df bc 48 df cb ba
       0.070487134 0.003568986 -0.027340055 -0.0015554214
000010 cb c2 5e bd b0 ed 32 bd 4a c7 8d bd f0 a8 84 bd
       -0.054384988 -0.043683708 -0.06922777 -0.06477535
000020 c3 b2 99 3b 52 35 3c 3d 1f 39 80 bb e8 f8 8d bc
       0.0046904995 0.045949288 -0.0039130594 -0.017330602
000030 e4 fb e8 b9 28 64 c2 3d 14 f4 34 bc 1d 5f 87 3d
       -0.0004443816 0.094917595 -0.011044521 0.06609938
000040 aa eb 6d 3d b4 f9 ab 3c 02 e5 02 3d 98 d6 5d 3d
       0.058086075 0.020993091 0.03195668 0.05415973
000050 56 e9 c2 3d 79 26 8e 3d 6e 29 8a bd 47 da 40 3c
       0.095171615 0.06940932 -0.06746183 0.011770791
000060 6c 1f a3 3c d0 91 19 bc 3e 8f 55 3d 02 b4 64 bb
       0.019912444 -0.009373143 0.05213856 -0.0034897332
000070 f5 1e a9 3d e9 0c 68 bd 88 4e 93 bd 76 43 4e 3d
       0.08257858 -0.056652937 -0.07192713 0.050357305
000080 26 b0 9a 3c 14 60 c0 3c 98 fd 84 bd 88 89 cc 3c
       0.018882822 0.023483314 -0.06493682 0.024967924
000090 82 6d 2c 3d 27 68 25 3d 78 24 ad bb b7 59 34 bd
       0.042096622 0.04038253 -0.0052838884 -0.04403087
0000a0 a0 e7 55 3c c1 b3 44 3d 2a c8 01 3e 6c 67 86 3d
       0.013055712 0.04802299 0.12674013 0.06562695
0000b0 6d 14 9f bd e7 c3 cf bc 35 fe 36 bd b5 85 9d 3d
       -0.07767568 -0.025361968 -0.044676024 0.07691518
0000c0 ca 1f bc 3d 82 22 40 3d 11 fc 97 bc 52 42 b0 bc
       0.09185751 0.04690791 -0.018552812 -0.021515999
0000d0 48 ef 76 bc 07 aa f1 3d c1 17 a6 bd 31 16 80 3c
       -0.0150716975 0.11800008 -0.081099994 0.015635582
0000e0 90 52 a6 bc 45 00 33 3d 0f 4a 91 bd de 49 6e bd
       -0.02030304 0.04370143 -0.07094204 -0.058175914
0000f0 cb fa 6a bd 18 7f 2e 3c 43 2b 91 bd 80 d6 1f bd
       -0.05736808 0.010650419 -0.0708833 -0.039022923
000100 91 2d 3e bd 93 2c a7 3d 95 39 67 bc 34 64 6a bd
       -0.046430174 0.08162799 -0.01411285 -0.057224467
000110 0a ca 53 3d 77 e6 f7 3b f0 44 8f bc d2 22 56 3d
       0.05170635 0.0075653153 -0.017488927 0.0522793
000120 7f 67 bc 3d c9 af 3b bd d5 68 26 3c 80 f7 0a bd
       0.09199428 -0.04582194 0.01015683 -0.03392744
000130 3b ff 67 bd c8 fd 9f bd 81 12 93 3d ec 16 f7 3c
       -0.05663989 -0.07812077 0.07181264 0.030162297
000140 82 ee d3 3c dc 49 dc bc 14 63 03 3e 8f 99 5d bd
       0.025870565 -0.026890688 0.12830764 -0.054101523
000150 18 fe ec bb e1 35 4a bb 00 0e ad 3d de 5b 86 3d
       -0.007232439 -0.0030854868 0.08449936 0.06560491
000160 66 c9 90 3c e4 7c 98 bd db 67 2e 3c 24 4b 85 3d
       0.01767416 -0.07445696 0.010644878 0.065084726
000170 5d fa 17 bd a3 ec 13 3d d8 79 b1 bc 43 dd 61 bd
       -0.037104 0.036114346 -0.021664545 -0.055142652
000180 0b 34 7a bd fd b5 83 3d 7d 05 16 3d 52 f6 26 3d
       -0.06108479 0.06431196 0.036626328 0.040762253
000190 a6 bf ff 3c 24 55 a1 3b 70 c4 b9 3c 28 c9 f4 3c
       0.031219315 0.0049234796 0.022676677 0.029881075
0001a0 86 85 54 bd f3 48 81 b8 11 3c 7a 3d 4e b7 38 3d
       -0.05188515 -6.164787e-05 0.06109244 0.045096688
0001b0 33 71 9f 3d cc 32 38 3d 3e fd 32 3d f1 ef de 3d
       0.07785263 0.04497032 0.04369854 0.10885609
0001c0 5f 82 0d 3d f0 60 a8 3d 2a d4 ab 3d 25 fb 72 3d
       0.03454816 0.08221614 0.083900765 0.05932154
0001d0 4c c9 ca bc 1e 07 b9 bd 5e b6 7c 3d dc 64 cf 3c
       -0.024754189 -0.090345606 0.061697356 0.025316648
0001e0 66 2f fb bc 40 ff 93 bc 20 06 88 bd f2 14 77 3d
       -0.03066225 -0.018066049 -0.06641793 0.06032271
0001f0 34 31 89 bb c4 5f b2 3c 7d 5c 15 3d 30 14 49 bd
       -0.0041867737 0.02177418 0.036465157 -0.049091518
000200 f2 bd 86 bd ec 51 0a bd a7 59 8d bd b8 37 77 bc
       -0.06579198 -0.033769533 -0.069018655 -0.015088968
000210 12 32 a1 3d f6 32 26 3d ef 4e 7d bc 87 72 71 bd
       0.07870878 0.040575944 -0.015460714 -0.058947112
000220 b7 da 6d 3d 9a 7a d1 3d a2 3c 74 bd 74 7e 55 bd
       0.05806991 0.102284625 -0.059628136 -0.05212255
000230 81 48 a4 3d be 0e 3f bc c2 c0 a4 3c a6 6d 4f bd
       0.080216415 -0.01166123 0.020111445 -0.05064168
000240 ee 99 b7 3c 91 32 93 3d 3a 18 3d 3d 01 32 4b bd
       0.022412267 0.07187379 0.046165682 -0.049608234
000250 00 0c 69 3d af 2c ab bb 54 63 b5 3c 99 03 af 3d
       0.05689621 -0.0052238326 0.02214209 0.08545608
000260 fd 97 b2 3d 89 b8 83 3d 18 b2 0c 3d 8d 86 92 bd
       0.08720396 0.06431682 0.03434953 -0.0715457
000270 a3 0d 90 3c 8f e1 5e bd 6b d8 7f bd 6d b8 31 3d
       0.017584627 -0.05441433 -0.06246225 0.043388773
000280 23 58 90 3d 78 40 c8 3c 8d a2 8f 3d 44 cd a7 bb
       0.07048061 0.024444804 0.07013426 -0.005120905
000290 2d 09 9e 3d 7d 50 88 3d 77 32 bb bc 27 97 a5 3d
       0.07716594 0.06655977 -0.022851212 0.08085471
0002a0 11 52 58 bd 27 e3 d3 3d 36 72 04 3e be 33 b5 3d
       -0.05281264 0.1034606 0.12934193 0.0884776
0002b0 fd 86 1c bd 87 30 8e bc f4 f3 ca 3c 37 81 08 3d
       -0.038214672 -0.017357124 0.024774529 0.033326354
0002c0 4b 25 61 bc b2 51 71 3d 48 da eb bc 3a 1b 32 3d
       -0.0137418015 0.0589158 -0.028790608 0.043482997
0002d0 a8 14 93 bd 8d a0 22 bd f0 17 0b bd fc a0 91 bb
       -0.07181674 -0.039703894 -0.033958375 -0.0044442397
0002e0 50 a8 43 bd 9b b1 73 3d ce 47 d0 3b 4e b4 b7 3c
       -0.047767937 0.05949555 0.006356216 0.022424843
0002f0 2c 69 fa 3b 35 63 93 bd b8 f7 a6 3c d1 92 72 bd
       0.007641932 -0.071966566 0.020381793 -0.059222046
000300 39 25 6e 3d c8 25 67 bd 4d 0e 92 3d 4a 0d 53 3d
       0.058140967 -0.056432515 0.07131634 0.051526345
000310 d2 d7 82 bd 6a 76 fb 3d 6e 7e 6c 3d c1 ad 5d bd
       -0.06388821 0.12278445 0.05773776 -0.054120783
000320 d8 f6 25 3d 0e ec 9b 3d bb e4 e6 3b 34 69 be 3d
       0.04051861 0.07613383 0.0070463098 0.0929741
000330 38 40 2c 3d ce 6b 5b 3d ed f8 71 3d c5 b1 93 3d
       0.04205343 0.053569607 0.059075285 0.07211641
000340 d6 5b fa 3d 32 bb f3 bc de 18 a6 3c bb 5e 6f bc
       0.122245476 -0.029752348 0.02027553 -0.014609988
000350 af 72 86 bd 17 db 6e bd e8 f5 bb bb cc 9b aa bc
       -0.06564843 -0.05831441 -0.0057361014 -0.020826243
000360 9d 72 12 bd 5b 3a 01 bd 4a 0e 90 bc c8 ac d7 3d
       -0.035753835 -0.031549793 -0.017584939 0.10531002
000370 f5 1e 3e bd 44 be 67 bd 05 6e 18 bd b4 93 ca 3c
       -0.04641624 -0.056577936 -0.037214298 0.024728633
000380 10 88 84 bd fe 54 29 3d 32 7b 1c bd 0d 5a 9d bb
       -0.06471264 0.04134082 -0.038203426 -0.0048019947
000390 d4 ee a5 bb 80 73 8a bd 62 f8 86 bd f9 73 99 3d
       -0.005063871 -0.06760311 -0.06590344 0.07492823
0003a0 ac f9 7d 3b 9d b7 7c 3d 29 80 b3 bc 8e d3 4c 3d
       0.0038753552 0.061698545 -0.021911697 0.05000644
0003b0 9f ca 8c bd 90 a5 8b 3d 35 71 88 bd eb 8a a0 3d
       -0.068745844 0.06818688 -0.066622175 0.078389965
0003c0 06 e6 fa bc 32 4b 83 3d b4 95 34 3c 52 75 81 3d
       -0.030627262 0.06410827 0.01102202 0.06321205
0003d0 27 50 5f bd 64 b7 a7 bd 9c 5c 6e bd ee 14 7f bd
       -0.0545198 -0.08189276 -0.058193788 -0.06227582
0003e0 8c 35 c1 bc 34 52 0b 3d d8 bc 7f bd 16 67 7c 3d
       -0.023585103 0.034013942 -0.062435955 0.061621748
0003f0 e0 7f cf bc e7 34 60 bd 3b 5c 00 3d fc 91 43 bd
       -0.02532953 -0.05473795 0.031337958 -0.047746643

layer3.bias f4 [9]
000000 72 95 78 3d 31 21 fa 3c 4b 5b 2a bd 6b f7 d8 bc
       0.060689397 0.030533405 -0.04159097 -0.026485166
000010 48 4f a8 3d e8 e8 44 bd a9 cb 02 bc 0e 89 d9 3b
       0.08218247 -0.04807368 -0.007983127 0.0066386526
000020 d8 dc 11 bd
       -0.035611004
