Assets/Models/asdsa.model (torch, 76532 bytes, 6 tensors)

layer1.weight f4 [128, 6]
0.2073462 -0.36542213 0.109334856 -0.2559715 -0.068347186 0.26951092 0.3293842 0.091990985
0.39652056 -0.074564405 0.2185227 0.31370068 0.37506568 0.0031196987 -0.32825473 -0.3819806
0.2851095 0.40822145 -0.18098615 -0.30082878 0.3396892 -0.019150361 0.082389936 0.3616324
0.2537331 0.3682715 -0.033748046 -0.23889649 0.33987647 0.3303305 -0.12628078 -0.19969483
-0.28018057 0.15299219 -0.08842546 -0.25267854 -0.23978476 -0.31323075 -0.17873643 0.39880782
-0.2153096 0.29195017 0.08103302 -0.20587619 0.11932338 0.017725002 0.16104506 0.41567612
0.30752417 0.110380165 -0.18081985 0.13234948 -0.26861036 0.106262825 0.0328564 -0.01628593
0.2724305 0.3240073 -0.052453063 -0.20466842 -0.07910502 -0.19040407 -0.020879619 -0.13167068
-0.23440544 0.0970771 0.038451754 0.3023878 0.085057504 -0.07579592 0.23724084 0.0689839
-0.12271509 0.24642415 0.43190333 0.29986537 0.009683342 -0.23288114 -0.20485756 0.18019971
0.2906508 0.2240449 -0.1568043 0.09192091 -0.034339204 -0.38786146 0.08503604 -0.072923005
0.0575971 -0.32320789 0.15875344 -0.05761649 -0.11497696 0.3019613 0.19124527 -0.21912423
-0.18882523 0.27687213 -0.0033174446 -0.352768 -0.29270345 -0.32330355 -0.24213354 0.17630555
-0.119807884 -0.03574943 0.0077681188 -0.40400577 0.27679986 -0.03303249 -0.14241168 0.04741995
-0.28567716 0.26625335 0.3350566 0.12808532 0.1356762 -0.19768651 -0.06709871 -0.31147924
0.0026608822 0.04475869 0.40677053 0.08048561 0.042604916 -0.3213732 0.1271566 -0.15519184
0.06911062 0.06397523 -0.020994902 0.3593524 -0.21847755 0.07547294 0.014097849 -0.24902748
0.3631602 0.14257026 -0.002552343 0.20276316 0.29462382 -0.41164872 -0.31533423 -0.043694973
0.14273173 -0.3752718 -0.199599 0.0687345 -0.20886378 -0.39348665 0.02704781 0.2720616
0.23095213 0.14154084 -0.20965305 0.37868622 0.24690664 -0.10363537 -0.2090115 0.19864786
-0.38519767 0.39029205 0.062122807 -0.23491898 -0.28568462 0.066486895 0.24911743 0.17444855
0.11123809 -0.40712678 -0.043224633 -0.08311516 0.34976262 -0.27629805 0.25969896 0.28672192
0.43291253 -0.13969415 0.0081432415 -0.05229877 -0.3909358 -0.18637012 0.2967115 -0.36253697
0.0076229814 -0.1872125 -0.3227381 -0.09638509 0.023595529 0.34224463 0.1291485 -0.32977527
0.33648717 0.3925743 -0.24657927 -0.2895283 -0.07893312 -0.37507796 -0.37319112 0.21410882
-0.23184896 0.13087972 0.18242867 0.1875743 0.3990985 0.4059653 -0.23834424 0.11530707
-0.10113642 -0.09105587 -0.21882965 -0.24511771 -0.018764958 0.2738871 -0.042485595 -0.141361
-0.23087977 0.0918946 0.047301456 0.17718893 0.067466676 -0.2528798 -0.34156835 -0.09612468
-0.2449412 0.14508992 -0.23027985 0.17678809 -0.18445274 0.1338467 -0.20389737 -0.38953784
0.24064922 -0.4018277 -0.07534817 -0.3746651 -0.15970196 0.06259146 -0.21948217 -0.13807517
-0.14182039 -0.04597358 -0.033188697 0.34981084 -0.028356593 -0.24372058 0.060310487 0.40383038
0.2344153 -0.18865788 0.019674912 -0.004487913 0.33998218 0.20959654 -0.33154336 -0.035911407
00000000: 9052 543e 9c18 bbbe f4ea df3d b20e 83be
00000010: 9cf9 8bbd 56fd 893e 0ca5 a83e c565 bc3d
00000020: be04 cb3e 39b5 98bd 6ac4 5f3e 609d a03e
00000030: 9c08 c03e dc73 4c3b 0111 a8be f692 c3be
00000040: dff9 913e 6702 d13e 6f54 39be 3b06 9abe
00000050: beeb ad3e 38e1 9cbc 0ebc a83d e227 b93e
00000060: 4ee9 813e 158e bc3e 643b 0abd 48a1 74be
00000070: 4a04 ae3e 1421 a93e c04f 01be cd7c 4cbe
00000080: d473 8fbe fca9 1c3e 6818 b5bd 155f 81be
00000090: 238a 75be c85f a0be af06 37be 8a30 cc3e
000000a0: 1f7a 5cbe 7e7a 953e a4f4 a53d 35d1 52be
000000b0: d15f f43d 0634 913c ffe8 243e 80d3 d43e
000000c0: cf73 9d3e ff0e e23d d728 39be 9f86 073e
000000d0: 4c87 89be 53a0 d93d 6f94 063d 126a 85bc
000000e0: 037c 8b3e 49e4 a53e 06d9 56bd 9994 51be
000000f0: d001 a2bd 49f9 42be bc0b abbc aed4 06be
00000100: fb07 70be 5cd0 c63d 967f 1d3d 93d2 9a3e
00000110: a132 ae3d e43a 9bbd 43ef 723e 6e47 8d3d
00000120: 0d52 fbbd 9d56 7c3e 6f22 dd3e f487 993e
00000130: e1a6 1e3c 6578 6ebe 2ec6 51be 4686 383e
00000140: 2fd0 943e 076c 653e 4e91 20be 0841 bc3d
00000150: 44a7 0cbd c795 c6be 6027 ae3d a858 95bd
00000160: f0ea 6b3d 817b a5be 4390 223e 45ff 6bbd
00000170: 0a79 ebbd ac9a 9a3e cdd5 433e 1a62 60be
00000180: 675b 41be 2fc2 8d3e 7c69 59bb 029e b4be
00000190: 3add 95be 0b88 a5be dbf1 77be 7189 343e
000001a0: d65d f5bd ff6d 12bd b48b fe3b d8d9 cebe
000001b0: b6b8 8d3e 144d 07bd 5ed4 11be 6c3b 423d
000001c0: 4744 92be 5c52 883e 8a8c ab3e cc28 033e
000001d0: b4ee 0a3e 556e 4abe 0c6b 89bd 357a 9fbe
000001e0: 3262 2e3b e354 373d 3a44 d03e a4d5 a43d
000001f0: 7e82 2e3d 078b a4be 5735 023e 9cea 1ebe
00000200: de89 8d3d 7205 833d 80fd abbc 0afd b73e
00000210: 94b8 5fbe 8f91 9a3d aafa 663c 0f01 7fbe
00000220: 22f0 b93e f0fd 113e 3645 27bb 25a1 4f3e
00000230: efd8 963e 9fc3 d2be 7d73 a1be 80f9 32bd
00000240: 4428 123e a023 c0be ae63 4cbe acc4 8c3d
00000250: 63e0 55be 1577 c9be 5e93 dd3c a84b 8b3e
00000260: b77e 6c3e 15f0 103e 4aaf 56be 29e3 c13e
00000270: 18d5 7c3e c83e d4bd 1c07 56be 586a 4b3e
00000280: a138 c5be 5cd4 c73e 7c74 7e3d 9a8e 70be
00000290: 4145 92be 482a 883d a418 7f3e a4a2 323e
000002a0: ccd0 e33d ec72 d0be 500c 31bd 4838 aabd
000002b0: 1614 b33e f076 8dbe 43f7 843e 37cd 923e
000002c0: b6a6 dd3e fc0b 0fbe 3b6b 053c 3c37 56bd
000002d0: bd28 c8be cfd7 3ebe 92ea 973e 729e b9be
000002e0: 34ca f93b a2b4 3fbe ee3d a5be 8c65 c5bd
000002f0: 694b c13c b03a af3e 813f 043e 4ed8 a8be
00000300: 0c48 ac3e 80ff c83e 477f 7cbe 0e3d 94be
00000310: b0a7 a1bd 380a c0be e812 bfbe 583f 5b3e
00000320: d069 6dbe 5505 063e 95ce 3a3e 7a13 403e
00000330: a356 cc3e afda cf3e 8310 74be 1d26 ec3d
00000340: 9d20 cfbd 807b babd e114 60be 2300 7bbe
00000350: f8b8 99bc ee3a 8c3e 6005 2ebd f0c0 10be
00000360: bf6b 6cbe 3c33 bc3d 2cbf 413d 0471 353e
00000370: f82b 8a3d 7679 81be 0ce2 aebe 04dd c4bd
00000380: ded1 7abe 7492 143e 7bce 6bbe f007 353e
00000390: 2ee1 3cbe 1c0f 093e 79ca 50be 8171 c7be
000003a0: c06c 763e 5cbc cdbe 2450 9abd 1bd4 bfbe
000003b0: e988 23be f42f 803d efbf 60be 9463 0dbe
000003c0: 5d39 11be cb4e 3cbd dff0 07bd 681a b33e
000003d0: 164c e8bc e391 79be 2108 773d dbc2 ce3e
000003e0: 900a 703e 882f 41be 482d a13c 580f 93bb
000003f0: 2512 ae3e 7aa0 563e 0dc0 a9be d717 13bd

layer1.bias f4 [128]
0.18592292 -0.047493413 0.39076158 -0.031852722 0.2429784 -0.31563696 -0.35619283 -0.04768433
-0.02132128 0.102908 -0.20839669 -0.04782335 -0.3507402 0.13823245 -0.102953404 -0.07170901
0.07966731 0.06479397 -0.06834155 -0.18706119 0.41880727 0.37104923 0.15228727 -0.06900211
0.050352305 0.054759372 -0.29962477 -0.12665498 0.03734061 0.41652328 0.028530508 0.3561001
-0.38748533 0.09167213 -0.032284435 -0.35211438 -0.33235866 -0.06563038 -0.28961033 -0.401141
0.13351414 -0.21645705 0.012329041 0.07756474 0.35271043 0.13921474 -0.2124128 0.21144046
-0.26426834 0.005813705 -0.07415369 -0.29644012 0.09288413 0.41622624 0.12449679 0.4137007
-0.26530623 -0.26065454 0.08036691 0.2831651 -0.25150543 0.28629562 0.08325309 -0.17338248
0.24223024 0.38049784 -0.085040726 -0.06710505 0.26826608 0.35223728 0.09196851 0.25481617
0.32457215 -0.19163698 -0.076936975 0.018246539 -0.36463216 0.23087406 -0.2526431 0.025299618
0.34009013 0.20649359 0.30599475 0.3959909 0.015061168 0.10972642 0.18825704 0.025802657
-0.18752012 -0.26432535 0.3204699 0.42385766 0.15867016 0.103725135 0.007448412 0.120161995
0.24499866 -0.3124519 0.23595728 0.13583794 -0.3933385 0.28156126 0.2205069 -0.20620358
0.16448331 -0.102185056 -0.1627292 -0.39792722 -0.042438556 -0.33105558 0.27297944 0.06332424
-0.22391312 0.029830396 0.19596308 0.28697202 0.35227373 0.18440165 -0.34996718 0.35643584
0.3313531 0.3017875 0.35434735 0.42383197 0.30955103 0.23993254 0.23089205 0.20274013
00000000: 9462 3e3e 7488 42bd e711 c83e 0078 02bd
00000010: 54cf 783e 2b9b a1be e85e b6be a550 43bd
00000020: f7a9 aebc 6ec1 d23d f165 55be 6be2 43bd
00000030: 3894 b3be cf8c 0d3e 3cd9 d2bd 2cdc 92bd
00000040: 9d28 a33d b3b2 843d a8f6 8bbd f88c 3fbe
00000050: e86d d63e 2afa bd3e 32f1 1b3e fa50 8dbd
00000060: 383e 4e3d 5d4b 603d 6b68 99be d8b1 01be
00000070: 78f2 183d 8a42 d53e d0b8 e93c c152 b63e
00000080: 7a64 c6be 99be bb3d af3c 04bd 5648 b4be
00000090: ea2a aabe 3869 86bd ce47 94be 5a62 cdbe
000000a0: eeb7 083e eba6 5dbe bfff 493c 43da 9e3d
000000b0: 7696 b43e 4f8e 0e3e be82 59be d983 583e
000000c0: 2e4e 87be e480 be3b e4dd 97bd 00c7 97be
000000d0: 093a be3d 9b1b d53e 2cf8 fe3d 94d0 d33e
000000e0: 38d6 87be 8374 85be 6897 a43d 04fb 903e
000000f0: 52c5 80be 5795 923e 9980 aa3d 2d8b 31be
00000100: 340b 783e 9dd0 c23e d529 aebd 5f6e 89bd
00000110: 2c5a 893e 7258 b43e fc59 bc3d 4477 823e
00000120: 522e a63e 7c3c 44be 2291 9dbd c479 953c
00000130: 11b1 babe 406a 6c3e 705a 81be 2541 cf3c
00000140: 4b20 ae3e 0e73 533e 58ab 9c3e 52bf ca3e
00000150: 1ec3 763c 3fb8 e03d 74c6 403e 1860 d33c
00000160: 4605 40be a755 87be a114 a43e df03 d93e
00000170: 6e7a 223e d86d d43d cf11 f43b 7e17 f63d
00000180: eee0 7a3e b2f9 9fbe c99e 713e 1a19 0b3e
00000190: aa63 c9be cc28 903e 90cc 613e 0827 53be
000001a0: 506e 283e 6646 d1bd 7ca2 26be 1ebd cbbe
000001b0: 0dd4 2dbd 1e80 a9be f6c3 8b3e 24b0 813d
000001c0: 7b49 65be e05e f43c 8caa 483e ffed 923e
000001d0: 395d b43e c9d3 3c3e e62e b3be c27e b63e
000001e0: 1da7 a93e e483 9a3e 046d b53e 8100 d93e
000001f0: 797d 9e3e e0b0 753e f76e 6c3e 1c9b 4f3e

layer2.weight f4 [128, 128]
0.058676846 0.024043055 0.029859573 0.03270676 0.05872949 -0.026481919 -0.014621697 0.078109354
0.03796821 -0.08402661 -0.03990774 -0.017608466 -0.022730673 -0.024687428 0.06530138 0.08162678
0.053594973 -0.08894368 -0.022847436 -0.08829205 -0.07523935 -0.014051121 -0.024914945 -0.006016075
-0.05524727 0.033905543 0.031438097 -0.029641569 0.0655595 -0.07063478 0.008478951 0.049475044
-0.066325136 0.01830064 -0.09228025 0.0014285874 0.045451947 0.055760287 -0.021113157 -0.07820276
0.08537461 -0.02368922 0.007316838 -0.08056585 -0.0010256344 0.05679607 -0.013016558 -0.040556714
-0.07302109 0.026805185 0.046172448 -0.024954125 0.08579955 0.071342625 -0.01954982 -0.07953861
0.016836032 0.026514448 -0.088258356 0.03220394 0.017519662 0.052372757 -0.022359243 -0.04291134
-0.07636168 0.036791645 0.06921554 0.052721273 -0.05592263 0.06299654 -0.013995544 0.045489814
0.005034318 0.06445908 0.0036450748 -0.08360479 -0.051420834 0.01610558 0.06586648 -0.007691753
-0.0668802 0.009263247 -0.08741931 -0.0035565584 0.08544522 0.020735705 0.02998878 0.054462858
0.070373885 -0.0481077 0.0501163 0.067588575 0.005131408 -0.015923241 -0.041688416 0.042968236
-0.0031905319 -0.03922066 0.013203245 -0.02876201 0.049643718 0.07595754 0.069743864 -0.03542326
-0.021362051 0.07778917 0.028923372 -0.02580329 0.0511665 0.01765912 -0.024776423 0.017479096
0.05970948 0.012528464 -0.043030914 -0.08441319 -0.051947314 -0.078174174 0.0471429 -0.03730347
-0.043378234 0.06240375 0.08225807 0.06459986 0.0721293 0.000780278 0.03527849 0.06775761
-0.039988946 -0.010639444 0.010542449 -0.027918082 -0.030267969 0.0505637 0.053382106 -0.007329203
0.07463687 -0.06995034 -0.013477813 -0.08612379 -0.03842154 0.018299162 0.074702285 0.024328493
0.011878166 -0.07293222 -0.047250755 -0.08667186 0.0071094017 0.01556452 0.011023745 -0.051094376
-0.05872789 -0.007298395 -0.08175506 -0.013310403 -0.075916454 -0.044404868 0.013803642 0.056274958
0.07847958 -0.07752387 0.007849645 -0.030597806 0.0021239417 0.029105082 -0.07857713 -0.07544881
-0.028013714 -0.004484456 -0.060836848 -0.058837354 -0.031146947 -0.004465904 -0.032000557 -0.07695191
0.04008489 -0.017413922 -0.020162776 0.06642576 0.07853212 -0.031969894 -0.03739954 -0.067385666
-0.006782269 -0.030778859 -0.016344897 0.07929649 -0.010617346 0.05841563 0.040725835 0.05324117
-0.008519825 -0.042682674 0.021576598 0.04219263 0.04727658 0.06836631 -0.06285101 -0.059602655
0.0680232 -0.030920263 -0.056444556 -0.054899935 0.020760253 -0.015190143 0.0032335054 -0.06860064
0.044901274 -0.048881892 -0.08779833 -0.072919354 0.037356205 0.08446141 -0.02021721 0.01657246
0.078451745 0.028457142 -0.03767962 -0.00756298 0.07877336 0.065362684 -0.046079695 0.08492545
-0.025624022 -0.035741486 0.022601537 -0.083423994 -0.06107875 0.046744935 0.052488513 -0.046946973
-0.042413365 -0.06814079 0.047863014 -0.059164084 -0.06069716 0.03994461 0.08156986 0.08100327
0.0076444764 0.021108687 -0.03974968 0.04296384 0.020022266 -0.06594958 0.04123337 0.08723708
-0.030661512 -0.02578754 0.083308734 0.06134955 -0.06254589 0.06005142 -0.08776991 0.03673915
00000000: 2257 703d f1f5 c43c 109c f43c 86f7 053d
00000010: 558e 703d 9cf0 d8bc d88f 6fbc ccf7 9f3d
00000020: 8e84 1b3d 2516 acbd 4c76 23bd a13f 90bc
00000030: ad35 babc 4a3d cabc bbbc 853d f12b a73d
00000040: 6786 5b3d 1b28 b6bd 8c2a bbbc 76d2 b4bd
00000050: 1717 9abd ac36 66bc 6d1a ccbc 7f22 c5bb
00000060: f64a 62bd 8ae0 0a3d 3cc5 003d e0d2 f2bc
00000070: 0f44 863d f8a8 90bd 4ceb 0a3c 58a6 4a3d
00000080: 79d5 87bd 39eb 953c 6dfd bcbd 703f bb3a
00000090: d22b 3a3d e664 643d 80f5 acbc c528 a0bd
000000a0: e2d8 ae3d e50f c2bc 16c2 ef3b b5ff a4bd
000000b0: 946e 86ba ffa2 683d 6743 55bc cc1e 26bd
000000c0: 158c 95bd 8c96 db3c 521f 3d3d 986c ccbc
000000d0: adb7 af3d 151c 923d f226 a0bc 24e5 a2bd
000000e0: b8eb 893c d434 d93c ccc0 b4bd 47e8 033d
000000f0: 6585 8f3c d184 563d bb2a b7bc cdc3 2fbd
00000100: 8363 9cbd d6b2 163d e1c0 8d3d 43f2 573d
00000110: 210f 65bd 5404 813d 914d 65bc 8753 3a3d
00000120: ecf6 a43b 1f03 843d 35e2 6e3b fd38 abbd
00000130: a79e 52bd d9ef 833c 01e5 863d 1a0b fcbb
00000140: 7cf8 88bd e0c4 173c e508 b3bd 2615 69bb
00000150: e7fd ae3d eddd a93c 08ab f53c 7214 5f3d
00000160: 2f20 903d 940c 45bd c046 4d3d e16b 8a3d
00000170: 5f25 a83b 7571 82bc 79c1 2abd 76ff 2f3d
00000180: 3e18 51bb d8a5 20bd 6c52 583c 4f9e ebbc
00000190: 3657 4b3d a08f 9b3d dfd5 8e3d fb17 11bd
000001a0: 78ff aebc ee4f 9f3d b5f0 ec3c 6c61 d3bc
000001b0: f793 513d dca9 903c edf7 cabc 5230 8f3c
000001c0: ed91 743d 3044 4d3c 2f41 30bd d3e0 acbd
000001d0: b5c6 54bd c819 a0bd ea18 413d 86cb 18bd
000001e0: 60ad 31bd 139b 7f3d eb76 a83d ee4c 843d
000001f0: 87b8 933d 928b 4c3a 2e80 103d 80c4 8a3d
00000200: 73cb 23bd 1051 2ebc 3cba 2c3c 76b4 e4bc
00000210: 88f4 f7bc e21b 4f3d 32a7 5a3d d029 f0bb
00000220: 37db 983d 2042 8fbd 0cd2 5cbc ab61 b0bd
00000230: e85f 1dbd 20e8 953c 83fd 983d 8c4c c73c
00000240: a49c 423c 7d5d 95bd 028a 41bd 0481 b1bd
00000250: fcf5 e83b 5402 7f3c f09c 343c 5648 51bd
00000260: a88c 70bd 6027 efbb 326f a7bd e013 5abc
00000270: 167a 9bbd e1e1 35bd ac28 623c 9280 663d
00000280: e7b9 a03d d6c4 9ebd cc9b 003c 40a8 fabc
00000290: d431 0b3b c86d ee3c 0ced a0bd e884 9abd
000002a0: 047d e5bc 58f2 92bb 0f30 79bd 70ff 70bd
000002b0: e227 ffbc b856 92bb 0413 03bd f798 9dbd
000002c0: 0e30 243d a4a7 8ebc 682c a5bc 3b0a 883d
000002d0: 73d5 a03d ddf2 02bd 4330 19bd 7f01 8abd
000002e0: cc3d debb f223 fcbc bce5 85bc 3366 a23d
000002f0: 60f4 2dbc 3a45 6f3d 22d0 263d 6a13 5a3d
00000300: bc96 0bbc 07d4 2ebd 68c1 b03c 2ed2 2c3d
00000310: 16a5 413d a303 8c3d 08b8 80bd ea21 74bd
00000320: bf4f 8b3d 7e4c fdbc 6832 67bd c1de 60bd
00000330: 6811 aa3c 14e0 78bc 38e9 533b 7e7e 8cbd
00000340: 66ea 373d 6138 48bd 9ccf b3bd be56 95bd
00000350: d202 193d 1bfa ac3d 909e a5bc f8c2 873c
00000360: 4fab a03d f41e e93c f255 1abd e0d2 f7bb
00000370: ed53 a13d dfdc 853d 10be 3cbd 65ed ad3d
00000380: 78e9 d1bc aa65 12bd dc26 b93c 33da aabd
00000390: b62d 7abd 9e77 3f3d 32fe 563d 784b 40bd
000003a0: a3b9 2dbd 668d 8bbd 020c 443d 0a56 72bd
000003b0: 969d 78bd f69c 233d 190e a73d 0be5 a53d
000003c0: 847e fa3b 20ec ac3c 8fd0 22bd dafa 2f3d
000003d0: bc05 a43c 9310 87bd 52e4 283d 5ba9 b23d
000003e0: da2d fbbc 6440 d3bc c59d aa3d aa49 7b3d
000003f0: 0f18 80bd 7af8 753d b6c0 b3bd ca7b 163d

layer2.bias f4 [128]
0.07856498 -0.014503881 -0.044902556 0.08863411 0.076886386 0.040903024 0.0346329 -0.05540977
-0.008457627 -0.050723694 0.052784823 0.021662904 0.028720029 0.021535717 0.1015198 0.042207688
0.045378 0.04168669 -0.013131128 -0.038233187 0.011823181 0.027715063 -0.02419965 -0.021871604
-0.05875444 0.043896876 0.0085776895 -0.034356855 -0.028978242 -0.0250204 0.017331176 0.020753771
0.029811593 0.07370227 0.044669934 -0.08976308 -0.006720122 -0.03751653 0.055611607 0.033310942
-0.045709047 0.06148555 -0.066278905 0.0006750962 -0.054181483 0.028214602 0.03409985 0.06439903
0.021115452 0.04795239 0.062187456 -0.06931621 -0.0776951 0.06690373 -0.0068827407 0.06745117
0.05884481 0.007429853 -0.0017726659 0.090497226 0.01414715 -0.08670806 0.009197131 0.044223037
-0.004271025 -0.030846406 -0.018388808 -0.020257365 -0.060245786 -0.08430297 0.052998163 -0.07176202
-0.0090929335 -0.07835838 0.020770442 0.041038834 0.039523784 0.03761036 -0.011963928 0.015310534
0.058108613 -0.054921832 0.085206784 0.0777772 -0.02219407 -0.02103209 -0.01841513 -0.03576531
0.062008657 0.054861967 0.07460939 0.041608203 -0.06876427 -0.042250577 0.07297476 0.0010086654
0.042474248 0.07156384 0.013530593 0.0092840865 -0.005028686 0.09144054 -0.06424353 0.062111273
-0.029739004 -0.06122712 0.09785446 -0.04081672 -0.012844093 -0.056876708 0.07777547 0.07693032
0.022609306 0.03942003 0.061218575 0.041039847 0.059780993 -0.04147203 0.00447693 0.03156246
-0.079327725 0.09324281 -0.05072186 -0.035263665 -0.007534787 0.011286809 0.01930929 -0.06304748
00000000: ade6 a03d b0a1 6dbc beeb 37bd cd85 b53d
00000010: 9c76 9d3d ee89 273d 3adb 0d3d 5bf5 62bd
00000020: dc91 0abc a6c3 4fbd e634 583d 6776 b13c
00000030: 4446 eb3c ac6b b03c 9de9 cf3d f8e1 2c3d
00000040: 48de 393d aabf 2a3d f123 57bc 679a 1cbd
00000050: 04b6 413c b30a e33c 583e c6bc 142c b3bc
00000060: 7fa8 70bd 36cd 333d 7089 0c3c c6b9 0cbd
00000070: c763 edbc 95f7 ccbc 1cfa 8d3c d003 aa3c
00000080: 7137 f43c 37f1 963d d2f7 363d b5d5 b7bd
00000090: 7834 dcbb efaa 19bd ffc8 633d 0e71 083d
000000a0: 6939 3bbd 46d8 7b3d 3cbd 87bd f0f8 303a
000000b0: 67ed 5dbd 4f22 e73c 49ac 0b3d a3e3 833d
000000c0: 50fa ac3c ba69 443d 46b8 7e3d a8f5 8dbd
000000d0: 9c1e 9fbd d304 893d 9d88 e1bb d723 8a3d
000000e0: 4107 713d 2076 f33b cc58 e8ba 9c56 b93d
000000f0: 73c9 673c ff93 b1bd 90af 163c 3723 353d
00000100: f4f3 8bbb 9ab1 fcbc 20a4 96bc c6f2 a5bc
00000110: 49c4 76bd 09a7 acbd 9a14 593d f7f7 92bd
00000120: 87fa 14bc 5c7a a0bd c626 aa3c 5618 283d
00000130: b1e3 213d 520d 1a3d 5a04 44bc 09d9 7a3c
00000140: 4c03 6e3d b7f5 60bd e580 ae3d a749 9f3d
00000150: 57d0 b5bc 7d4b acbc 54db 96bc a57e 12bd
00000160: cafc 7d3d f1b6 603d cfcc 983d 5d6d 2a3d
00000170: 48d4 8cbd f10e 2dbd ca73 953d 3235 843a
00000180: 7af9 2d3d 1090 923d 6caf 5d3c 481c 183c
00000190: adc7 a4bb 2e45 bb3d 1d92 83bd 6468 7e3d
000001a0: 369f f3bc 4ac9 7abd eb67 c83d 6f2f 27bd
000001b0: 0870 52bc 8df7 68bd bf48 9f3d a58d 9d3d
000001c0: 2737 b93c e676 213d 54c0 7a3d 6619 283d
000001d0: eadc 743d 93de 29bd 36b3 923b a347 013d
000001e0: 9376 a2bd 16f6 be3d bac1 4fbd a270 10bd
000001f0: 60e6 f6bb 4fec 383c 842e 9e3c 0a1f 81bd

layer3.weight f4 [9, 128]
0.06999793 -0.03635054 0.09738 0.03850814 -0.06136718 -0.016894834 0.049817935 -0.0036743623
0.026239574 -0.004400898 -0.09439343 0.04831478 0.06462517 0.08803394 0.075603314 -0.01891998
-0.0031481327 -0.029757641 -0.06995693 0.07343608 0.0364085 -0.052340537 0.08056948 -0.04073074
-0.054974694 -0.06537125 0.107046135 -0.027060267 -0.006157348 0.112605564 -0.019567281 0.037714876
-0.031211007 -0.022102563 -0.064852014 0.050314747 0.09260183 -0.0020773457 -0.061784472 -0.050282035
-0.046813976 0.013528559 0.07774758 -0.0053394437 -0.06878819 0.11110886 -0.10797314 0.10129325
-0.038284436 -0.0019859055 -0.0013219196 0.00040589902 0.009223767 -0.08311991 0.096068196 -0.054192
0.08323838 -0.08443976 -0.0001918418 0.049453784 0.017296875 0.07200458 -0.07758234 -0.014448201
0.026336454 0.005755803 -0.051629797 0.08139807 0.05678577 -0.05725006 0.04054498 -0.036187775
0.03532757 -0.012681782 0.041023087 -0.027352061 0.07199237 0.0083778165 -0.035794728 -0.019148262
0.032992568 0.01839156 0.07795399 0.03368441 0.045955554 -0.027558045 -0.03295098 0.0074433996
0.011203192 0.033709776 -0.08655347 -0.037941594 -0.04359728 -0.021879055 -0.037089355 -0.07996589
0.016770951 -0.030541025 -0.029894684 0.046897613 -0.09890767 0.004937839 -0.071024485 -0.045483015
0.08490261 -0.0398382 -0.044616926 -0.08823206 -0.017646357 0.029620595 0.016141988 0.04223367
-0.020740334 0.031734645 0.06708603 -0.08528624 0.036967166 0.06943301 0.08178025 -0.014780337
-0.07298694 -0.04715919 0.07494099 0.031844072 -0.01745533 -0.07251011 -0.060066335 -0.0732084
0.07618819 -0.07263693 0.013841915 -0.0118984105 -0.016543683 -0.065331444 0.07300025 -0.055628013
0.006893536 -0.015500683 0.109265275 0.10179572 0.019291503 0.08810853 0.07245326 0.0123984665
0.013057128 -0.046983406 0.013543688 0.0008250593 0.024958098 0.009281409 -0.07634555 -0.023472786
-0.06111052 -0.010672972 -0.007290003 0.033850275 0.03907647 0.08074861 -0.012767158 0.005466394
-0.0050410074 -0.012847013 0.06108146 -0.016129458 0.039100196 -0.033346243 -0.023913916 0.004040377
0.060320385 0.054703884 -0.005892093 -0.08366562 0.07646597 0.08587723 0.0008118126 0.061506372
0.06794924 0.061659615 -0.031685285 -0.059832923 -0.08345488 -0.0321483 0.09291196 0.07976374
0.07329556 -0.06525247 0.08459828 -0.07482204 0.064364925 0.059505202 -0.016639948 0.03602296
-0.053074688 -0.034767296 -0.03722912 0.041622724 0.05789291 -0.078767285 -0.034988776 -0.08119353
-0.05260754 -0.00770651 0.10102737 0.05113789 -0.023526173 -0.009563208 -0.0012735028 0.04358771
0.07903964 -0.015321298 0.064220466 0.028178044 -0.0109682195 0.013174459 0.02760084 -0.02418861
0.04547348 -0.030323036 0.084651805 -0.023036717 -0.06423767 -0.049646568 0.04417517 -0.029545821
-0.060738783 0.09152458 0.07925112 0.07790046 -0.10647733 0.09163456 -0.047352783 0.10027818
-0.029087078 -0.08041992 -0.024552627 0.022870392 0.049336188 -0.04229176 -0.016714334 -5.1252122e-05
0.07685375 -0.048516415 -0.07000726 -0.016398437 -0.03579264 0.034307763 0.08157345 0.021472959
-0.02511292 -0.010004043 -0.055104695 -0.017696485 0.0064427443 0.01667428 0.08043716 -0.066673584
00000000: 135b 8f3d 4ee4 14bd 2a6f c73d b6ba 1d3d
00000010: 275c 7bbd 0967 8abc e40d 4c3d 92cd 70bb
00000020: 60f4 d63c 6835 90bb 5851 c1bd b8e5 453d
00000030: 335a 843d 234b b43d e9d5 9a3d 13fe 9abc
00000040: e750 4ebb 4cc6 f3bc 9445 8fbd a865 963d
00000050: 1421 153d 0863 56bd 9d01 a53d 47d5 26bd
00000060: 252d 61bd 5de1 85bd 013b db3d 7ead ddbc
00000070: 94c3 c9bb bf9d e63d 904b a0bc ea7a 1a3d
00000080: 3aae ffbc 6f10 b5bc 22d1 84bd d616 4e3d
00000090: 07a6 bd3d 1424 08bb b711 7dbd 89f4 4dbd
000000a0: 03c0 3fbd e4a6 5d3c 203a 9f3d 80f6 aebb
000000b0: d3e0 8cbd 0b8d e33d 0621 ddbd d672 cf3d
000000c0: 24d0 1cbd f725 02bb 4344 adba d8ce d439
000000d0: 481f 173c c53a aabd 67bf c43d 6ef8 5dbd
000000e0: e278 aa3d c1ee acbd 2429 49b9 0d90 4a3d
000000f0: 2db2 8d3c 2377 933d 7de3 9ebd 26b8 6cbc
00000100: 8cbf d73c 2d9b bc3b c479 53bd 08b4 a63d
00000110: 3298 683d 0a7f 6abd 7e12 263d a239 14bd
00000120: a4b3 103d 40c7 4fbc d307 283d 6e11 e0bc
00000130: bc70 933d 1c43 093c 7e9d 12bd d1dc 9cbc
00000140: 3723 073d e6a9 963c 57a6 9f3d aaf8 093d
00000150: e43b 3c3d 69c1 e1bc 9bf7 06bd c3e7 f33b
00000160: 988d 373c 4313 0a3d f242 b1bd a568 1bbd
00000170: 1093 32bd b43b b3bc 02eb 17bd 28c5 a3bd
00000180: 3c63 893c 2c31 fabc b2e5 f4bc b617 403d
00000190: 1b90 cabd 99cd a13b 4975 91bd 664c 3abd
000001a0: 6be1 ad3d 612d 23bd 3dc0 36bd 03b3 b4bd
000001b0: 188f 90bc e4a6 f23c 343c 843c 36fd 2c3d
000001c0: a2e7 a9bc 30fc 013d 6764 893d 8daa aebd
000001d0: e26a 173d e532 8e3d 677c a73d 3a29 72bc
000001e0: 2d7a 95bd ff29 41bd a97a 993d ee6e 023d
000001f0: 7bfe 8ebc 2e80 94bd 1e08 76bd 49ee 95bd
00000200: 8e08 9c3d acc2 94bd 33c9 623c 8df1 42bc
00000210: 9e86 87bc 7ecc 85bd 2881 953d 33da 63bd
00000220: 2ce3 e13b 94f6 7dbc 79c6 df3d 467a d03d
00000230: 3709 9e3c 3f72 b43d 6062 943d f022 4b3c
00000240: 90ed 553c ac71 40bd 58e6 5d3c cb48 583a
00000250: ed74 cc3c 0d11 183c 0e5b 9cbd 004a c0bc
00000260: 064f 7abd b0dd 2ebc fae0 eebb 96a6 0a3d
00000270: a60e 203d 875f a53d 582d 51bc 701f b33b
00000280: 092f a5bb 477c 52bc 8e30 7a3d ed21 84bc
00000290: 8727 203d 1296 08bd 1ee7 c3bc 2465 843b
000002a0: 8212 773d 2e11 603d 7512 c1bb e158 abbd
000002b0: 319a 9c3d 67e0 af3d d2cf 543a 1bee 7b3d
000002c0: f928 8b3d cb8e 7c3d 6ec8 01bd 5e13 75bd
000002d0: 64ea aabd f0ad 03bd a048 be3d 2c5b a33d
000002e0: fc1b 963d 16a3 85bd dd41 ad3d 4c3c 99bd
000002f0: c2d1 833d babb 733d 8050 88bc d08c 133d
00000300: d864 59bd 2768 0ebd 907d 18bd 977c 2a3d
00000310: 1e21 6d3d be50 a1bd 6450 0fbd cb48 a6bd
00000320: 017b 57bd e486 fcbb 70e7 ce3d f775 513d
00000330: f6b9 c0bc 00af 1cbc aaeb a6ba 0789 323d
00000340: 89df a13d 2e06 7bbc 0586 833d a4d5 e63c
00000350: 0cb4 33bc b0d9 573c 281b e23c 3127 c6bc
00000360: 6642 3a3d 0468 f8bc ed5d ad3d 7fb7 bcbc
00000370: 0a8f 83bd 335a 4bbd 06f1 343d 140a f2bc
00000380: 3bc9 78bd 3d71 bb3d 694e a23d 478a 9f3d
00000390: c910 dabd e6aa bb3d fef4 41bd a55e cd3d
000003a0: 0648 eebc 33b3 a4bd 9722 c9bc b05a bb3c
000003b0: be14 4a3d 203a 2dbd 80ec 88bc 8cf7 56b8
000003c0: 8065 9d3d 26b9 46bd f75f 8fbd 0456 86bc
000003d0: 4e9b 12bd 4c86 0c3d fb0f a73d 0fe8 af3c
000003e0: 9cb9 cdbc ffe7 23bc 76b5 61bd 38f8 90bc
000003f0: a81d d33b 8098 883c 3dbc a43d 298c 88bd

layer3.bias f4 [9]
0.04623801 0.057571698 0.012267843 0.06598242 0.023590297 0.05278832 0.10080616 -0.076604396
-0.06352145
00000000: 1164 3d3d 4dd0 6b3d 10ff 483c cb21 873d
00000010: 7040 c13c 9138 583d 7673 ce3d c4e2 9cbd
00000020: 8917 82bd
