Assets/Models/asdsad.model (torch, 76542 bytes, 6 tensors)

layer1.weight f4 [128, 6]
000000 78 96 06 3f dc 01 a5 3e a9 aa bd b9 d0 63 2c be
       0.5257335 0.3222798 -0.0003617604 -0.1683495
000010 57 a2 4a be dc 4f 95 be 0d 06 64 3e f2 05 0d 3e
       -0.1978849 -0.2916249 0.22267933 0.13771799
000020 f5 cf a8 3e c9 88 ad 3e 1d f3 d7 3d 50 70 63 3e
       0.3297116 0.3389342 0.10544417 0.22210813
000030 6c c6 81 3e 54 b9 3a 3e a3 65 01 bf 37 c3 b7 be
       0.25346696 0.1823476 -0.5054571 -0.35891125
000040 13 d2 37 be 81 e1 03 bf 7a 1d 4a 3d 82 2b 05 3d
       -0.1795123 -0.51515967 0.049344517 0.032512195
000050 ca 31 b4 3e bc e5 11 be 29 f9 9d be cb 14 ab be
       0.35194236 -0.14247793 -0.30854157 -0.334143
000060 96 2e a8 bd 1c 92 f9 be 80 a5 84 3e e4 10 dc 3d
       -0.082120106 -0.48744285 0.25907516 0.10745409
000070 7b 02 9a 3e 34 76 68 3e 96 90 0b 3e 84 03 62 3c
       0.30080017 0.22701341 0.13629374 0.0137947835
000080 6e 9a e0 3e 26 87 96 3d 1a 17 2b be 12 e1 36 3e
       0.4386782 0.07349996 -0.16708031 0.17859295
000090 36 c9 8c 3d 8a db e6 bd 44 ed ca be b6 89 56 be
       0.068743154 -0.112723425 -0.39634144 -0.2095097
0000a0 21 bd 54 be 14 fd 95 bc 5d 50 1b 3f aa ed bc 3e
       -0.20775272 -0.018309154 0.606695 0.36900073
0000b0 41 27 cb be 03 71 af be 28 2b b6 3e 54 50 93 be
       -0.39678386 -0.3426591 0.355798 -0.28772223
0000c0 b0 70 ea 3e c3 13 8a 3e 60 36 24 3e 05 c0 4d 3e
       0.457891 0.26968202 0.16036367 0.20092781
0000d0 10 d1 93 3b e2 90 c3 bc d1 2b a9 3e 6b 04 c1 3e
       0.004511006 -0.023872796 0.33041242 0.37698683
0000e0 c2 82 d5 bc 0d 50 b8 3e 2f 93 a8 3e 88 10 bd 3c
       -0.026063327 0.35998574 0.32924792 0.023079172
0000f0 71 f4 e2 bd 4c 28 43 3e f6 6e ac bc 40 e1 52 3c
       -0.1108178 0.19058341 -0.021049004 0.012871087
000100 84 77 de bd 86 73 20 3e 5a bf 13 3e 6b 1a 6a be
       -0.108626395 0.15669069 0.14428464 -0.2286164
000110 b7 4a 9f 3e ff db b9 3e 51 9b 54 3e ab e7 82 bd
       0.3111169 0.36300656 0.20762374 -0.063918434
000120 24 1d c2 3e fd 2f 3f be 48 f2 dc be 0e 4b b3 be
       0.37912858 -0.1867065 -0.43153596 -0.350182
000130 05 ef 97 3d f9 44 c2 be 08 98 0f be 1a 6e 27 be
       0.07418636 -0.37943247 -0.14022839 -0.16350594
000140 3c 5a 98 be 62 cc ba 3e ab 5b 7c be bc 71 13 3d
       -0.29756343 0.36484057 -0.24644344 0.035997137
000150 b2 59 5d 3e 72 08 8e 3e 06 63 ab be f0 fd 9e be
       0.21616247 0.27740818 -0.33473986 -0.31053114
000160 38 41 35 3c ec 33 8e 3e 1b b1 99 be 6d 39 da 3e
       0.011062913 0.27773988 -0.30017933 0.42621937
000170 0a 83 bc 3e dd 75 3b be a8 37 56 be 77 da 33 be
       0.36818725 -0.1830668 -0.20919669 -0.17563806
000180 7f 76 59 3e 9f db e5 3e e8 b1 7f be be 4c 4f bd
       0.21236609 0.4489412 -0.2497021 -0.050610296
000190 63 d7 95 be 76 67 7b 3e be 4f d8 3e 12 70 ce be
       -0.2926589 0.24551186 0.42248338 -0.40319878
0001a0 4a f6 c8 3d 69 ae 78 3e 5e 88 38 3e a4 ea 68 3d
       0.09812601 0.24285282 0.1802077 0.056864396
0001b0 88 38 b7 bd 1b 2c ed 3e b8 82 71 be ed e2 87 bd
       -0.08946329 0.46322712 -0.23585021 -0.066350795
0001c0 ab 84 6b 3e 47 6f 44 3c 3d 45 ab 3e 68 4e bc 3e
       0.22999828 0.011989421 0.33451262 0.3677857
0001d0 12 d8 8d be 65 01 e6 be 0d f0 8d be 65 84 f9 be
       -0.2770391 -0.4492294 -0.27722207 -0.48733822
0001e0 fd 5c c1 3e af 65 82 3d c9 3c 70 be 95 f1 b2 be
       0.37766257 0.06367051 -0.23460688 -0.34949937
0001f0 7b 60 b3 be 86 9c bf be 2e 0d 2a 3c c5 4b 77 bd
       -0.35034546 -0.37424105 0.010379119 -0.060374994
000200 f8 47 d8 bd 46 76 61 3e 50 92 15 be c2 bb 0d bd
       -0.10560602 0.22017774 -0.14606595 -0.034602888
000210 66 55 c2 bd 57 93 e3 3d 53 dd 1f bd bb ee 3f 3e
       -0.09488945 0.11112087 -0.03902943 0.18743412
000220 bf 41 86 bc e7 bc 8f 3e ac 3d c8 3e 38 cc c8 3e
       -0.016388772 0.2807381 0.39109552 0.39218307
000230 87 dc dd 3e f8 38 dd 3e e1 4d be 3e 85 c0 47 be
       0.43332312 0.43207526 0.37168792 -0.19507034
000240 f6 70 14 be 47 ec a3 3e de 55 33 3e 21 17 5e be
       -0.14496216 0.32016203 0.17513224 -0.2168851
000250 c6 90 03 3d a8 f4 3a be 33 18 b7 be aa 33 8b bc
       0.03212049 -0.18257391 -0.3576065 -0.016992409
000260 10 02 25 3e e9 54 f4 3d a4 cc 9a 3e 95 3a 0a 3e
       0.16114068 0.11930258 0.30234253 0.1349891
000270 5a 5c 06 bc 1e b8 4a bc 43 d1 2c 3d a5 a9 b4 be
       -0.008200729 -0.0123729985 0.042191755 -0.35285679
000280 ae 2f aa bd 09 0c c6 be 17 fc d2 3e 4b 3b 90 3e
       -0.083098754 -0.38681057 0.41207954 0.28170237
000290 9e 74 80 3e b7 3c b6 3d c3 91 32 be be 88 95 3e
       0.25088972 0.08898299 -0.17438416 0.29205889
0002a0 42 f9 88 3e cc 44 99 bd a4 af cf be 3e 30 8a 3e
       0.2675267 -0.07483825 -0.4056369 0.2698993
0002b0 4a 61 e6 bd e7 4e 5a 3e ae 9b f8 3e f3 d7 92 3e
       -0.11249025 0.21319161 0.48556274 0.2868038
0002c0 b3 84 3b be d9 5a 32 be 0d 7a d7 3e d7 f9 4b be
       -0.1831234 -0.17417468 0.42085305 -0.19919525
0002d0 5e a3 ca be 06 27 a0 3e 78 04 b7 3e 81 ba 41 3e
       -0.39577764 0.31279773 0.35745597 0.18918802
0002e0 53 d5 9d be 7f d3 66 be 06 64 51 be 3a fc 89 be
       -0.30826816 -0.22541617 -0.20448312 -0.26950246
0002f0 40 39 32 bd ed 16 96 be 98 7b 06 be 97 a5 c9 be
       -0.04351163 -0.29314366 -0.13133085 -0.39384148
000300 66 ea 33 be 1e a8 44 3e 32 61 35 be 50 6a 15 3e
       -0.17569885 0.19204757 -0.17712858 0.14591336
000310 ce 99 8a be 54 87 93 3e 8f 95 9d bd 7e 76 b8 3e
       -0.2707047 0.28814185 -0.07694542 0.36027902
000320 07 35 0e 3d 58 5a 6c be 59 45 a5 3e 45 a7 90 3d
       0.03471854 -0.23081338 0.3227947 0.07063154
000330 a9 74 29 bd 4a 0a 25 be 00 66 f2 3e e4 39 8e 3c
       -0.04137102 -0.16117206 0.47343445 0.017361589
000340 df 0d 43 be 32 f6 d5 3c ec f3 bd 3e c5 6e 78 3c
       -0.1904826 0.026118372 0.3710016 0.015163128
000350 ce 26 c4 be b3 44 28 be 36 e0 aa 3e 94 05 19 bd
       -0.38310856 -0.16432457 0.33374184 -0.037358835
000360 22 7c 42 bd 79 46 d6 be d5 f3 97 3d 1e 8c 41 be
       -0.047481664 -0.4185064 0.07419554 -0.18901107
000370 82 6b cc 3e 13 34 a7 3e 60 c8 00 3f 1e 73 90 be
       0.39925772 0.32656917 0.5030575 -0.28212827
000380 6c 30 ee bc fd 77 fa 3c dd fb ad be 66 e9 88 be
       -0.029075824 0.030574793 -0.3398122 -0.2674057
000390 b0 10 97 3e cf e2 37 be b4 4b 7f 3e fa 9b bc bd
       0.2950492 -0.17957614 0.24931222 -0.09209438
0003a0 90 b0 64 be 4c 8b 51 3c fc c3 30 3e 64 00 30 be
       -0.22332978 0.012789559 0.17262262 -0.17187649
0003b0 d7 f9 3d be 40 62 eb 3c 4c 3b 50 3c 95 9e 4a 3d
       -0.18552338 0.028733373 0.01270945 0.04946764
0003c0 4e f2 00 bf 45 3f a7 be 1f ad a4 3e b6 e3 35 be
       -0.5036973 -0.32665458 0.3216333 -0.17762646
0003d0 82 a2 aa 3e 86 32 62 bd 41 61 0a 3e 34 d8 ce bd
       0.3332711 -0.055223964 0.13513662 -0.10099831
0003e0 9d 4f d1 bd 7b 76 87 be 8f b3 98 3e 57 9e 7d 3e
       -0.10220263 -0.2645758 0.29824492 0.24767433
0003f0 da 5b 5d be 28 87 01 3e 70 c0 c9 3e 7a a5 3b 3e
       -0.2161707 0.12649214 0.3940463 0.18324843

layer1.bias f4 [128]
000000 b2 9e cd 3e 28 30 21 3e af a6 4f 3e 02 91 e5 bd
       0.40160137 0.15741026 0.20278428 -0.11209299
000010 ca 52 8c be 5d 31 4b 3c 09 91 bc be b5 15 ce bc
       -0.27406913 0.012401906 -0.36829403 -0.025156835
000020 fc 94 a8 be 26 b0 89 be c0 53 89 3e 60 be ac 3e
       -0.32926166 -0.26892203 0.2682171 0.33738995
000030 83 3c dc 3e 72 fe 8a be c1 e0 b7 be 7b 9c 01 3d
       0.43014917 -0.2714725 -0.3591366 0.031643372
000040 8b d4 7a 3e ea 56 bc 3e 04 1a c5 3a a5 c0 b9 3c
       0.24495141 0.3678506 0.001503766 0.022674868
000050 50 5d 63 3e 80 b3 92 bd 59 ba 7d 3d 1a 09 21 bd
       0.22203565 -0.07163143 0.061945293 -0.03931532
000060 4b da 12 3d f2 42 ba bb 12 39 99 be d6 c8 c7 3d
       0.03585271 -0.00568425 -0.29926354 0.09755103
000070 44 50 16 bc 4a c4 fb 3d 5d 71 a3 3e 78 e6 9b 3d
       -0.00917441 0.122932985 0.31922427 0.07612318
000080 19 95 af be 1c 7e 0a 3d a0 c4 99 3d f8 ee 85 be
       -0.3429344 0.033811674 0.07508206 -0.2615888
000090 5d 5b 4d bc f0 9d bf 3e 4f 14 b2 be 67 89 1d be
       -0.01253399 0.37425184 -0.3478112 -0.15384446
0000a0 00 a5 48 3e c9 ff fa 3d ec 7e a9 3e cb 48 cb bd
       0.19594193 0.122558184 0.33104646 -0.099259935
0000b0 35 31 38 be 61 84 44 3d cb bd ac be 7d c7 9d be
       -0.17987521 0.04797781 -0.3373855 -0.3081626
0000c0 fe cc ca 3e 30 df 8b 3e 37 6f cc 3e da 71 f1 bd
       0.39609522 0.27318716 0.399286 -0.117892936
0000d0 23 09 3f 3e cb 8f 25 be 07 77 c2 3e 63 52 9c 3c
       0.18655829 -0.16168134 0.37981436 0.019082254
0000e0 0d 92 99 bb 1e 9e e5 bd cf 10 a6 be 38 c8 76 3e
       -0.0046866 -0.11211799 -0.324347 0.24099815
0000f0 00 d5 0e bd a3 2e bd 3e 20 70 c8 3e 7f dd 3d 3e
       -0.0348711 0.36949643 0.39148045 0.18541525
000100 76 0a 20 bd ad f4 db 3d e4 54 a6 be e0 2a b9 be
       -0.039072476 0.107400276 -0.3248664 -0.36165524
000110 4f 4d a2 be e3 af 25 3e ea 09 0d be 96 71 4e be
       -0.31699607 0.16180377 -0.13773313 -0.20160517
000120 0c 05 b5 be e6 8f 79 be c6 01 0e be b9 c9 55 3e
       -0.35355413 -0.24371299 -0.13867864 0.20877732
000130 44 42 b5 be ec 55 3b 3e 23 b4 7e be 9b c5 07 3d
       -0.3540212 0.18294495 -0.24873404 0.033147436
000140 8f bb e1 bd 6a 8e 6d 3e f9 f0 0e be 9f b2 d7 3e
       -0.11022102 0.23198858 -0.13959111 0.42128465
000150 b3 71 b2 be 28 dc 80 3d b0 b7 b5 3e f1 7e 83 be
       -0.3485237 0.062919915 0.35491705 -0.25682786
000160 9b e4 80 be 70 07 9a be 81 56 6b be f7 8c cd be
       -0.25174412 -0.300838 -0.22982217 -0.4014661
000170 3b 64 8f be 5b 13 b0 be cd 56 a5 be 82 3f b1 3d
       -0.28006157 -0.34389767 -0.32292786 0.08654691
000180 86 87 39 be 56 87 00 be 5c 05 ae be 60 34 ca 3c
       -0.18118104 -0.12551627 -0.33988464 0.024683177
000190 74 b0 ad be d8 6d 06 3e b6 4c f7 bc ba 74 c9 3e
       -0.33923686 0.1312784 -0.030187946 0.39346868
0001a0 c8 41 0c 3d ae 02 2b 3e e8 9c bf 3e 2c 50 c4 be
       0.03424242 0.16700241 0.37424397 -0.38342416
0001b0 08 6c 69 3e 53 23 07 be 6a 8d a1 3e 85 fc b2 bc
       0.22795117 -0.13197069 0.31553203 -0.021848926
0001c0 e0 cb 2b be 8b d1 b2 be 89 79 c9 3e ed 90 37 bd
       -0.16776991 -0.34925494 0.39350536 -0.044815946
0001d0 12 84 07 be 65 cd aa 3e 39 fc 37 3e 4d cc 82 3e
       -0.13233975 0.3335983 0.17967309 0.25546494
0001e0 cb 03 20 be ef fa cc be 3b bf 94 be 09 47 d2 bd
       -0.15626447 -0.40035197 -0.29052147 -0.10267455
0001f0 3c 25 f1 3b e4 c7 85 be 20 c3 21 3e cc ff 1d be
       0.007359175 -0.26129067 0.1579709 -0.1542961

layer2.weight f4 [128, 128]
000000 77 7c 43 3b 85 df 5c 3c 2a 9b 61 be 18 b6 7d bd
       0.0029828825 0.013481026 -0.22031847 -0.061941236
000010 0c 72 49 3d 5a 39 2d bd 02 4e 81 3c 6d 9a e3 bc
       0.04918103 -0.042291023 0.015784267 -0.027783597
000020 80 cf 67 3d 63 6c 37 3c 76 ca 98 3d 07 e2 50 bd
       0.05659437 0.011195275 0.07460491 -0.050996806
000030 86 f1 07 be c8 39 5d 3d da a7 82 3c 8c 96 eb 3c
       -0.13275728 0.054010183 0.015949178 0.02875831
000040 27 d0 67 bd 91 19 5c bd 46 7b 30 bd 9f 70 03 be
       -0.056594994 -0.05373532 -0.043086313 -0.1283593
000050 0a 8c 0e be 41 35 ac ba 19 dc 4c bd 77 8d a8 3d
       -0.13920608 -0.001313843 -0.05001459 0.08230107
000060 3a a4 df bc b0 20 b5 3d 42 ac fa 3c 81 03 96 3d
       -0.027299989 0.08844125 0.030599717 0.07324887
000070 f0 32 34 bd ab 41 16 3d 2b e2 96 bc 9f b4 ad 3d
       -0.04399389 0.03668372 -0.018418392 0.08481716
000080 ab 46 9c 3d 28 ce 11 3b 02 3e 76 bc a3 45 a3 3d
       0.07630666 0.0022248123 -0.015029432 0.079722665
000090 37 97 9c bd 29 eb 98 bd 9d a2 b0 3d cc 97 51 3a
       -0.076460294 -0.07466728 0.08624766 0.0007995337
0000a0 46 3d 85 bd 33 90 53 bd 6e fc 23 bd c2 6b 67 3d
       -0.065058276 -0.05165119 -0.040035658 0.05649925
0000b0 83 db 0f bd 08 34 4a 3d 19 1e 82 bd e4 c9 a5 bd
       -0.035121452 0.049366027 -0.06353397 -0.08095148
0000c0 87 80 01 3c e0 27 58 3e df 99 10 bd 9f 8b ca 3d
       0.007904178 0.21108961 -0.035302993 0.09889912
0000d0 8f 70 9a 3c da 3b 8d 3d 04 e8 97 3d ad 70 0d be
       0.0188525 0.068961814 0.074173 -0.13812514
0000e0 d1 b5 8d bd 22 1a 7b 3d a2 97 8e 3d bf 87 a8 3d
       -0.06919444 0.06130422 0.069625154 0.082290165
0000f0 d8 cb 14 3d a0 27 1a 3c f1 15 a6 3d 69 fa 1b bb
       0.036327213 0.009408861 0.08109654 -0.002380038
000100 67 fb a2 bd b5 c8 07 be 6c 39 66 3d c8 72 81 3c
       -0.079581074 -0.13260157 0.056207106 0.015801802
000110 cc 1e 54 3b 1d 69 65 3d d0 f0 0f 3d 3f 5b f2 bd
       0.003236699 0.056008447 0.035141766 -0.1183381
000120 7a 4b 81 3c 1a ee 12 be e1 da 40 bc af 22 a4 bc
       0.01578306 -0.14348641 -0.011770935 -0.02003607
000130 a2 c8 c1 ba e3 d4 15 3c 5e c4 cc 3d 97 28 5c 3e
       -0.0014784525 0.009144994 0.099983916 0.21499859
000140 a9 f8 dd bd 41 80 a1 bd 93 7d 88 3d 66 9f 1c be
       -0.10838444 -0.078857906 0.066645764 -0.1529518
000150 94 57 1c 3c d9 63 a5 bc f8 5c a4 3d 1b 15 9f 3c
       0.009542365 -0.020189213 0.08025545 0.019419244
000160 98 2d 88 bd bc ed cd bc 8e 34 23 3a 4a 5d 0d bd
       -0.06649321 -0.025137775 0.0006225788 -0.034512796
000170 cd a9 36 bc b8 ec b1 bb d4 e1 cd bc 8d be ad 3c
       -0.011148882 -0.0054298304 -0.025132097 0.021209026
000180 7a 59 04 bc 8e c1 5a bc 3e 13 c9 bc 8a 69 fd bc
       -0.0080779735 -0.013351811 -0.024545308 -0.030934114
000190 a7 c7 73 3d 68 7d b8 3d 78 c2 33 3a 4f 2c 23 3c
       0.059516575 0.09008294 0.0006857286 0.009959294
0001a0 aa 17 3d 3e c3 86 b1 3d 05 0d 52 3d 4e da 20 3b
       0.18466058 0.08668282 0.051281948 0.0024544182
0001b0 51 53 9d bd 13 75 b8 ba 4e 37 10 bc e3 08 a3 3d
       -0.07681907 -0.0014072977 -0.008802248 0.079606794
0001c0 56 14 38 bd bc 6a 36 bd 1a 0d 33 bd 01 66 47 3b
       -0.04494127 -0.044535384 -0.043713666 0.003042579
0001d0 66 d7 8c bc be 24 ce 39 cf 1b 8e 3b a8 ed d2 bb
       -0.017192554 0.00039318757 0.004336811 -0.0064370222
0001e0 f6 b7 ac bb 6d af 1e bd 36 5a 9e bd 2c e3 bc 3d
       -0.0052709533 -0.038741518 -0.0773205 0.09223017
0001f0 ea f2 0e be 64 92 10 3d a8 63 93 3d df e3 ac 3d
       -0.13959852 0.03529586 0.07196742 0.084419005
000200 ee 11 3d bd f9 7b 5d 3d 32 87 70 be f8 47 5e bd
       -0.046159677 0.054073308 -0.23489073 -0.054267853
000210 11 33 7f bd 61 00 c0 3d 88 55 cd 3c 3c 32 39 be
       -0.06230456 0.09375072 0.025065199 -0.18085569
000220 e4 59 ff 3c ae 74 e7 3d 44 fd 0f 3d 03 ae 29 3d
       0.031170793 0.11301552 0.035153642 0.041425716
000230 20 e0 d6 bd 40 45 e3 bc 94 68 95 3b bb ef 05 3e
       -0.10491967 -0.027742982 0.004559586 0.13079731
000240 74 2a 88 3d 5e 33 71 3d 6e 5e a4 3d 7c eb 10 be
       0.06648722 0.05888688 0.080258235 -0.1415233
000250 3f 7c fa bd 15 94 3b 3c c1 d6 ef 3a 59 6a 47 bd
       -0.12230729 0.01144888 0.0018298255 -0.048685405
000260 2c 29 98 3c 08 67 b9 3d ab 53 a7 3d 02 a1 9a 3d
       0.01857432 0.09052855 0.08170255 0.07550241
000270 e2 1e 88 bc fe e5 d0 3c f6 a4 e0 ba 92 19 87 bc
       -0.016616289 0.025500294 -0.0017139006 -0.016491685
000280 00 7e 9d 3d 5f a4 85 3d 75 5a 0d 3e 85 d4 0e 3d
       0.07690048 0.06525492 0.13804038 0.034870643
000290 af fb ad bd a7 89 5b be 95 5c b0 3d ae 03 3b 3d
       -0.084952705 -0.21439229 0.086114086 0.045657806
0002a0 01 9f 99 bc 1e 46 74 be 7b 17 aa 3d 79 3c a6 3d
       -0.018752577 -0.23854873 0.0830526 0.08117003
0002b0 1a f5 2b bd d2 18 7c bd da c4 7a bc ee 38 87 3c
       -0.041981794 -0.061547108 -0.015305722 0.016506638
0002c0 43 2d 7d bd 65 94 81 3d 51 53 0b 3c 6b 21 a2 3d
       -0.061810743 0.06327132 0.008503751 0.0791653
0002d0 57 6b 4f 3d e3 d3 c3 3d f9 5a 82 bd 56 fd 82 be
       0.050639477 0.095618986 -0.06365008 -0.25583905
0002e0 12 a7 4a bc e9 a1 12 39 ca 0c 3e bc ce d2 6d 3c
       -0.012368934 0.00013983961 -0.011599729 0.014515592
0002f0 5d 98 d8 bc 96 22 01 3c c9 f4 31 3d 2d 4f b2 3d
       -0.02643984 0.007881781 0.043446336 0.08706508
000300 18 05 3c 3d 5d 0b 41 be a0 99 5f bd c0 f9 15 3e
       0.045903295 -0.18851991 -0.054589868 0.14646053
000310 4e d2 27 bb ef ba 9f 3d 7e 1b 54 bd b2 eb d5 bd
       -0.002560753 0.07799327 -0.05178403 -0.10445346
000320 3b 8b 9f 3d c7 07 f0 bd 52 b9 b8 3b 4b 0f 5a 3d
       0.07790228 -0.117202334 0.0056373263 0.05323724
000330 9f f8 a5 bd 41 2f 61 bd 43 b4 c3 3d aa a4 38 3e
       -0.08104061 -0.054976705 0.095558666 0.18031564
000340 b7 28 9f bd 81 99 aa 3d 3a 45 89 bb 08 70 77 be
       -0.077714376 0.0833006 -0.0041891607 -0.2416383
000350 54 08 65 3d 49 93 00 bc 0b fd c1 bd 6a 80 17 3d
       0.055916145 -0.0078476155 -0.09472092 0.0369877
000360 47 e3 33 bd c5 e4 2c bd fd 4d 81 bd d7 0d a8 3d
       -0.04391792 -0.04221036 -0.06313703 0.08205765
000370 aa 33 df 3d 68 35 96 3c be 3f a5 3b 93 55 83 3d
       0.10898526 0.018336013 0.005042999 0.06412806
000380 8b f2 98 3d 68 23 7c 3d 4f 5a 45 bd 4c 90 9e bd
       0.074681364 0.061557204 -0.048181828 -0.07742366
000390 0c 97 9d 3c 06 2b d9 3d 52 ba af bd f4 65 fd b8
       0.019237064 0.10603909 -0.0858046 -0.0001208297
0003a0 9a 1f 2b 3e 41 fc 2f 3d 7a b7 48 3d a8 f8 68 bd
       0.16711274 0.042965177 0.049003102 -0.056877762
0003b0 e7 45 80 3c 5f e8 98 bb e9 4d c6 bd f3 6b a2 bc
       0.015658332 -0.0046663727 -0.09682829 -0.019826865
0003c0 5e ba bf 3c a6 fb e5 bb 95 8f df 3d 89 c1 d2 bc
       0.023404296 -0.007018524 0.10916058 -0.02572705
0003d0 58 a3 b0 bb e7 1e 3a 3d a3 be 08 be f0 d5 ac 3c
       -0.005390566 0.045439627 -0.13353972 0.021098107
0003e0 25 10 c1 3d 7f 5d ee 3a 0e 15 6c bd 5f 39 04 bc
       0.094269074 0.0018185823 -0.057637267 -0.008070319
0003f0 b9 b6 e9 bd 36 7a 37 3d be d2 86 3d a0 74 ec bc
       -0.11411805 0.044794284 0.06583165 -0.028864205

layer2.bias f4 [128]
000000 6e 59 21 3d 66 88 99 bd de a6 5b 3c 87 4c a2 3d
       0.039391927 -0.07496719 0.013406483 0.07924753
000010 d2 24 c4 3d ae 54 39 3c 43 58 20 3c 70 82 89 3b
       0.095773354 0.011311693 0.009786668 0.0041964576
000020 32 62 aa 3d 49 ba 2b 3d 69 e0 5a 3d 54 d4 85 bd
       0.083195105 0.041925702 0.05343667 -0.06534639
000030 3e 29 43 3d 82 da cc 3d 32 38 65 bd 54 ee 07 3d
       0.047646753 0.100026146 -0.055961795 0.03318627
000040 0a e3 43 bd ae 21 8b 3c f6 20 70 3d d7 3d 95 bd
       -0.047823943 0.016983833 0.058625184 -0.07287186
000050 a7 2d ff bc 42 99 77 3d 99 69 ac bd ca f4 d0 ba
       -0.031149698 0.060448892 -0.08418579 -0.0015942093
000060 9e 94 8a bc 46 ec af 3c 42 5c 64 3d 83 a5 3e bd
       -0.01691657 0.021474969 0.055752046 -0.046544563
000070 74 48 2c 3d 75 70 1f 38 9a cb c5 3d 1c 98 af bb
       0.042061284 3.8013288e-05 0.096579745 -0.005358709
000080 e6 2a f5 3c 49 8a 83 bd 4f 64 a2 3d 4f 3d 9a bc
       0.029927682 -0.0642286 0.079292886 -0.018828062
000090 80 ec 22 bd c2 fb be 3c b9 af 9c 3d 5b 98 eb 3c
       -0.039776325 0.023313407 0.07650704 0.028759172
0000a0 ff 31 7c bc c5 28 75 bb 92 52 b2 3d 94 2e a2 bd
       -0.015392779 -0.0037408334 0.08707155 -0.0791904
0000b0 7f cc a3 3d ce 7b 27 3c 05 91 63 3d 1a 90 32 bd
       0.07997989 0.010222388 0.055558223 -0.043594457
0000c0 c4 fd 71 bd 42 d6 8c 3b 3c 01 ac bd 56 0d aa bb
       -0.0590799 0.0042980025 -0.08398673 -0.005189578
0000d0 e6 76 08 bd 0f 26 38 3d e1 ac 92 3c 6a df b6 3d
       -0.033316515 0.04495817 0.0179047 0.089293316
0000e0 cb 1c a9 3d 00 4e a0 3d c8 9e 68 bd 38 06 5e bd
       0.08257445 0.07827377 -0.05679205 -0.05420515
0000f0 96 18 9c 3d e3 f0 2e bc a2 1a 54 bd 7d 05 c2 3c
       0.07621877 -0.010677549 -0.05178321 0.023684258
000100 a0 24 53 bd 51 b2 8e 3d b2 83 0d 3d b6 2c 19 bd
       -0.0515486 0.06967605 0.034549423 -0.037396155
000110 a2 74 30 bd ee dc 31 3c 95 08 79 3d 15 99 86 3d
       -0.04307998 0.010855896 0.0607992 0.06572167
000120 ec 60 61 bd 64 3d 67 3c b0 79 ca bc 79 80 3b b8
       -0.055024073 0.014113758 -0.024716228 -4.4703924e-05
000130 88 f6 0c 3c 4c 84 a4 bd e6 79 89 bd d6 53 de 3b
       0.0086036995 -0.08033046 -0.067127034 0.0067848964
000140 16 cc 1e 3d fc f9 42 bc 76 36 5c 3c a4 11 4e bc
       0.03876885 -0.011900421 0.013440719 -0.012577448
000150 90 6b 6f bd a9 0b ad bc 63 8e 5d bd 90 00 78 3d
       -0.05845219 -0.021123724 -0.05409087 0.06054741
000160 dd bf 18 ba 88 48 99 3c 28 fc 79 3d d1 dc 60 bd
       -0.00058269297 0.018711343 0.06103149 -0.054898087
000170 9e eb 2a bd 4a ed 45 3c a9 71 b4 3d d6 44 9b 3c
       -0.04172861 0.0120805 0.088107415 0.018953722
000180 c3 cb 73 bd 7c 5c b0 bd dc c9 be 3c eb c3 23 3d
       -0.059520494 -0.0861139 0.023289613 0.039981764
000190 c9 b0 97 bd 4e c3 95 3d 63 4d af bd cf 69 74 3c
       -0.07406766 0.07312642 -0.08559682 0.014917805
0001a0 cc 74 ca 3b 26 6c 26 bb 73 a3 26 bd 9f e7 a7 3c
       0.006178474 -0.0025394051 -0.04068322 0.020496188
0001b0 d6 5f cb 3d 1b c0 7f bd cc 11 a9 bd 73 4c 2f 3d
       0.09930389 -0.062439065 -0.082553476 0.042797517
0001c0 1a d7 f6 bc ad f7 6f 3c 74 d2 21 bd c6 de c3 3d
       -0.030131865 0.014646453 -0.039507344 0.09563975
0001d0 31 7f 39 bc da 78 89 bd 90 f5 81 bd fd b6 82 bd
       -0.011321829 -0.06712504 -0.063456655 -0.063825585
0001e0 95 0c 13 bd 04 5f ca 3d 81 95 b0 3d 77 9f 25 bd
       -0.03590067 0.09881404 0.086222656 -0.04043528
0001f0 80 f1 44 bd 98 fe 9e bd 71 3c 9e bd eb e3 83 bd
       -0.048081875 -0.07763404 -0.07726372 -0.06439956

layer3.weight f4 [9, 128]
000000 07 6b 50 3d a7 ea 58 3d 2c 85 99 bd 1f 75 2e bd
       0.05088332 0.052958157 -0.07496104 -0.042592164
000010 73 35 9f 3d f4 06 bd 3d 69 c2 57 bc 20 4f bf 3b
       0.077738665 0.09229842 -0.01316891 0.00583829
000020 e1 13 70 3d 2b a2 ef ba cd d3 cf 3c a8 9d ca 3d
       0.058612708 -0.0018282583 0.02536955 0.09893352
000030 e0 00 d1 bb 11 f6 a1 3d 8e 84 94 bd 3b 15 aa 3d
       -0.006378278 0.079082616 -0.07251845 0.08304831
000040 48 5d 08 bc 10 dc b5 3c 27 58 8d 3d 01 b7 8e 3d
       -0.008323021 0.02219966 0.06901579 0.06968499
000050 e5 31 14 bd f8 3a 6f bd fa b0 7f 3b 1b de 98 bd
       -0.036180396 -0.058405846 0.0039015398 -0.07464238
000060 61 13 6e 3d 31 f4 72 3d a0 9a 95 3d b8 a2 62 3c
       0.05812395 0.05931491 0.07304883 0.0138327405
000070 62 68 05 be 3f 03 b0 bd 62 64 19 3d fb d9 7a bb
       -0.130281 -0.08594369 0.037449248 -0.00382769
000080 20 e8 f5 bd 48 a8 3d 3d 9e 53 d4 bb b9 d7 f2 bd
       -0.12007165 0.046303064 -0.0064796945 -0.11857552
000090 38 91 cc bc f8 df 67 3d 18 f4 1f 3d e7 87 ab bd
       -0.02497159 0.056610078 0.039051145 -0.08375531
0000a0 81 54 d9 3d ba 0c e5 3c 90 bb e7 3d 9a 2e 7c bd
       0.10611821 0.02796017 0.113150716 -0.06156788
0000b0 e3 51 ae 3d d1 8b 9f 3d 84 64 42 3d 02 81 dc 3d
       0.085117124 0.0779034 0.04745914 0.10766794
0000c0 15 c1 c2 bc 96 d5 66 3d 70 40 1e 3d f9 b9 0b bc
       -0.02377371 0.056356035 0.03863567 -0.008528226
0000d0 4d c1 15 bd 29 a1 06 3d fb 5a 0c 3c e5 cd 51 3d
       -0.0365613 0.032868538 0.008566613 0.051221747
0000e0 c5 00 53 bc 67 06 97 bd 66 1c 20 3c 73 1e 8f 3d
       -0.012878601 -0.07374268 0.009772396 0.069882296
0000f0 52 84 c0 3c 4b d3 ba bc 72 38 b4 3c 0a dd fd bb
       0.023500595 -0.02280583 0.021999571 -0.007747297
000100 a1 81 9a 3a 52 da c8 3c d1 a7 34 bd 83 2b bc 3c
       0.00117879 0.024518166 -0.044105355 0.022969967
000110 ba a8 13 3d ca 76 1b bd ce 52 4f bc 94 05 a9 3d
       0.036049582 -0.037955083 -0.0126540195 0.08253017
000120 18 9c 7d 3d a1 8d d7 3d a3 d2 89 bc 9a 5d a4 3d
       0.06191644 0.105250604 -0.016824072 0.080256656
000130 41 46 b3 3d 38 29 98 bd ba 07 b3 bd f0 67 03 bd
       0.08753634 -0.07429737 -0.08741708 -0.032081544
000140 00 58 b9 3c 57 c0 46 bd 7d e6 a7 3d be 67 88 bd
       0.02262497 -0.048523273 0.08198259 -0.06660412
000150 9b ee 08 bc 63 9b 62 bc 16 fe 62 bc 72 42 7d 3d
       -0.008357669 -0.013830992 -0.013854524 0.061830945
000160 a0 06 82 3e a0 d7 9c bc b4 b0 8c 3d 7d 25 9f 3d
       0.2539568 -0.019145787 0.06869641 0.07770822
000170 9d c8 41 3d f5 dd 2a bd be 7b ed 3d 39 a5 06 3e
       0.04731046 -0.04171558 0.115958676 0.13148965
000180 df 24 e1 3d 80 91 32 bd 36 6c 80 3d 0c b0 8e 3d
       0.10993361 -0.04359579 0.062706396 0.06967172
000190 be b2 18 bd c8 22 e2 bc f6 78 9a bd 63 1f 27 3c
       -0.037279837 -0.027604476 -0.07542603 0.010200354
0001a0 c5 66 4d bd 53 31 95 3d 3c 31 ea 3c a7 fa bb 3d
       -0.050146837 0.072847985 0.02858793 0.091786675
0001b0 a6 cf ca 3d aa 1a 34 bc c6 51 df bb 49 89 ed 3a
       0.09902887 -0.010992685 -0.006815168 0.0018122579
0001c0 73 aa 21 bd ad 31 a8 3c cb 62 1c bd 25 73 c3 3d
       -0.039469194 0.0205315 -0.038180154 0.095434465
0001d0 d5 26 93 bd d6 43 67 bd d7 98 eb 3d f3 18 b0 3d
       -0.07185141 -0.056461178 0.11503761 0.08598509
0001e0 69 2c 89 3d a9 af 2c 3d 62 e2 cc 3d 60 00 75 3c
       0.06697924 0.04215971 0.100041166 0.014953703
0001f0 a6 92 55 3b ec 25 29 3d 33 4c f7 3c 1f 7c 1d bd
       0.003258863 0.04129593 0.030187702 -0.03844845
000200 11 80 18 3c 38 b8 33 3d 11 94 80 3d e5 bc 19 be
       0.009307877 0.043876857 0.062782414 -0.15013464
000210 38 3c b2 3d 20 8e 45 3d 0b 4c 36 3e 12 33 c5 3d
       0.08702892 0.048231244 0.17802446 0.096288815
000220 bb 35 c8 3d 6b 6f 3f bd 45 aa cc 3d 22 a0 8c 3d
       0.09775873 -0.046737116 0.09993414 0.068664804
000230 d9 59 cd bd e8 c6 bd 3d f7 c5 5c bd 6a 39 fa bb
       -0.10026903 0.09266454 -0.05389973 -0.007636239
000240 2a 3b 01 3e 72 92 6f 3d db 88 65 b9 ea db 44 3c
       0.12620226 0.05848927 -0.00021890124 0.012015322
000250 17 e9 01 3d 4c 89 03 bd e5 41 7f bd dc e1 5c 3d
       0.031716432 -0.03211336 -0.0623187 0.053926334
000260 54 98 a4 3c 33 68 85 bd d6 03 89 3c 2b fc c9 3d
       0.020092167 -0.06514015 0.016725462 0.0986255
000270 70 84 f4 bd 72 3f 0a bd 76 4b 7f 3c 0e c8 66 bd
       -0.11939323 -0.033751912 0.015581956 -0.05634313
000280 2a 39 14 bd c6 5f 30 bd b4 b7 f4 ba 42 e1 c0 bd
       -0.03618733 -0.043060087 -0.001867047 -0.094179645
000290 ba de 7b bd d6 63 18 3d 43 1f b6 3d 0c 84 a6 bb
       -0.061491705 0.037204586 0.088926814 -0.005081659
0002a0 c2 73 0f 3e 8c d1 64 3d 3e 60 33 3d d5 3b 09 3d
       0.14009002 0.055863902 0.043792956 0.033504326
0002b0 4e c4 23 3c 2a 09 0a 3d 0e 04 15 3d 3c 46 cc 3d
       0.009995533 0.033700146 0.03638082 0.09974334
0002c0 59 d2 86 3d f3 60 0d bc 22 20 c1 bb 58 8a c5 3d
       0.065830894 -0.0086290715 -0.005893723 0.096455276
0002d0 0b d9 97 3c c8 ed cf 3c e4 21 14 3d 26 cc 64 bd
       0.018536111 0.025381938 0.036165133 -0.055858754
0002e0 ff a8 4e bd e3 a1 1b bd 96 da 84 bc a0 18 48 3d
       -0.050454136 -0.037996184 -0.016217511 0.04885161
0002f0 02 65 18 3d 7a 52 86 bd 7f fb d5 bd f6 b1 87 3d
       0.037205704 -0.065587 -0.1044836 0.0662574
000300 eb 22 5e bd 46 98 b0 bd d1 fb 82 bd 91 7c 9b 3d
       -0.05423252 -0.08622794 -0.063956864 0.075921185
000310 a4 b8 ae bc 22 1e 3a 3d 8f a2 14 3e 37 1d 19 3c
       -0.021328278 0.045438893 0.14515136 0.009345344
000320 88 62 b2 bd ea ea c9 bc 06 de 98 3c 8c 86 2f 3d
       -0.087101996 -0.024648149 0.018660557 0.042852923
000330 3b 81 2e bd 26 a3 9d bc fb 16 af 3d 02 12 43 3c
       -0.042603713 -0.019242834 0.08549305 0.011906149
000340 52 f1 3a 3d a1 66 f7 bd aa 77 2d bd 8a 99 fd 3c
       0.045640297 -0.12080122 -0.04235045 0.030957002
000350 92 ed 01 bd 64 e2 0c be 16 42 34 3d fc 74 90 bc
       -0.031720705 -0.13758236 0.044008337 -0.017633907
000360 64 2d 9c 3d d6 b7 85 bc e1 f3 56 bd 68 10 9b 3c
       0.07625845 -0.016323011 -0.052478675 0.018928722
000370 a5 0d a7 bb 03 c3 bf bd db 07 11 3d b7 e0 5e 3c
       -0.005098062 -0.093633674 0.035407882 0.013603381
000380 15 1c 19 3d 63 e4 73 bd 4b 29 a1 3d bb 62 b8 3d
       0.037380297 -0.05954398 0.07869204 0.09003206
000390 f4 73 77 bd 24 21 10 b9 36 cf 24 bd 0a 17 00 3e
       -0.060413316 -0.00013745256 -0.040236674 0.12508789
0003a0 98 f6 a3 bd eb 39 f9 3c ef 65 30 3c 1d a1 c3 bc
       -0.080060184 0.030423125 0.01076649 -0.023880536
0003b0 dc 6d 89 3c f9 d4 10 3e 5c 8f b1 bc 63 ae 98 3d
       0.016776018 0.14143743 -0.021674804 0.074551366
0003c0 fa 6d 4e 3d 07 0a ca 3a b4 ac 95 bb 1e ec f6 3d
       0.05039785 0.0015414365 -0.004567707 0.120567545
0003d0 56 b0 de 3b 08 54 7b 3d ba b7 89 bc db 5a 36 bd
       0.006795923 0.061359435 -0.01681124 -0.04452024
0003e0 b7 9b 19 3e 20 6f b7 3d 33 85 f8 bc 20 22 44 3d
       0.15000807 0.08956742 -0.030336952 0.047884107
0003f0 5e 52 22 bd 5a 48 d7 bc eb ac 68 3c 64 a0 18 3c
       -0.039629333 -0.026279617 0.014201383 0.009315584

layer3.bias f4 [9]
000000 03 d4 47 bd 58 8a 81 3c 01 1b d3 3d f3 8c a7 bd
       -0.048786175 0.015813038 0.10307885 -0.08181181
000010 bc 71 c5 3d f5 59 79 3d b4 34 83 bc 7b cd 55 3c
       0.09640834 0.060876805 -0.016016342 0.013049479
000020 98 d3 1f bc
       -0.009755038
