Assets/Models/dsasd.model (torch, 76532 bytes, 6 tensors)

layer1.weight f4 [128, 6]
0	0x3eb16faa	0.34655505
1	0xbe105895	-0.14096291
2	0x3ecf811d	0.40528193
3	0x3e99632c	0.29958475
4	0xbd42e893	-0.04758508
5	0xbe21e73a	-0.15810862
6	0x3e054ee7	0.1301838
7	0x3d1afb64	0.0378374
8	0xbe573862	-0.21017602
9	0x3e9e85bd	0.3096141
10	0xbe62aa42	-0.2213526
11	0x3e3af181	0.18256189
12	0x3c44132b	0.011967461
13	0x3e430e65	0.1904846
14	0xbec0fe34	-0.37693942
15	0xbe9672e7	-0.2938454
16	0x3e95e639	0.29277208
17	0xbeaf5b13	-0.34249172
18	0xbeab6439	-0.334749
19	0x3e6fade7	0.23406182
20	0xbe2e8a9e	-0.17045066
21	0x3e8c8e1f	0.2745218
22	0x3ea4e51e	0.32206053
23	0xbdc6b264	-0.09701994
24	0x3e33f152	0.17572525
25	0x3db33169	0.087496586
26	0x3e84f660	0.2596922
27	0xbebbc509	-0.36673763
28	0xbe25d8fe	-0.16196057
29	0xbdab4ef7	-0.08364671
30	0x3b640dc0	0.0034798235
31	0xbc828f9d	-0.01593762
32	0xbdd17131	-0.10226668
33	0xbda4576d	-0.08024488
34	0xbeb604ec	-0.3555063
35	0xbebb360e	-0.36564678
36	0xbe058629	-0.1303946
37	0xbd9a8123	-0.07544162
38	0x3e08d478	0.133623
39	0xbec9b6dc	-0.39397323
40	0x3e78079e	0.24221656
41	0xbe712222	-0.23548177
42	0xbdb851c4	-0.089999706
43	0xbebed76e	-0.37273735
44	0x3d4f0038	0.050537318
45	0x3e8a5b2e	0.2702269
46	0xbc69fc20	-0.014281303
47	0x3e6b87e0	0.23001051
48	0xbe8e3de6	-0.277816
49	0x3e369819	0.17831458
50	0xbdf404ad	-0.11914954
51	0xbde3c147	-0.11120849
52	0x3ed98dbf	0.42490956
53	0xbba738f1	-0.0051032235
54	0xbeb2d6f5	-0.34929624
55	0x3cdda099	0.027054118
56	0x3ed33121	0.4124842
57	0xbd50979f	-0.050925847
58	0x3e76adf5	0.24089797
59	0xbea605ba	-0.32426244
60	0x3e6923df	0.2276759
61	0x3e9021fa	0.28150922
62	0x3d12b25f	0.03581464
63	0xbdd9684e	-0.10615598
64	0x3e978bf3	0.2959896
65	0xbcb71f71	-0.02235386
66	0xbe49e676	-0.1971682
67	0xbc22ea74	-0.009943593
68	0xbd8ef91c	-0.069811076
69	0x3d9851e4	0.074374944
70	0xbe656e20	-0.2240529
71	0x3e1f9794	0.15585166
72	0x3df82058	0.12115544
73	0xbe539666	-0.20662841
74	0xbe9f5479	-0.31119135
75	0xbd225e04	-0.03964044
76	0x3e1a7bb4	0.15086251
77	0x3ea5a9b2	0.3235603
78	0xbe8944b9	-0.26810244
79	0xbe527986	-0.2055417
80	0xbd3db84b	-0.046318334
81	0x3edc24b6	0.42996758
82	0x3ea68f36	0.32531136
83	0x3e4937e5	0.19650228
84	0x3eb41372	0.35171086
85	0xbe684fc4	-0.22686678
86	0xbea564f4	-0.32303584
87	0x3dee62b0	0.11639917
88	0xbec26701	-0.3796921
89	0xbeccf18c	-0.40028036
90	0xbca9324c	-0.020653866
91	0x3e4eeee0	0.20208311
92	0x3c88f553	0.016718542
93	0xbd4cd86c	-0.050011083
94	0x3e05242b	0.13002078
95	0x3e09861b	0.13430063
96	0xbd86d022	-0.06582667
97	0x3ec2b153	0.38025913
98	0x3d83ce40	0.064358234
99	0x3e0eddef	0.13951848
100	0x3de2baa3	0.110707544
101	0xbe8c74c6	-0.2743284
102	0x3e282196	0.16419062
103	0xbeade8d8	-0.33966708
104	0xbdf7d9bf	-0.12102079
105	0x3e214b84	0.15751463
106	0x3d35b398	0.044360727
107	0x3ebeedb0	0.37290716
108	0x3ed70fa7	0.4200413
109	0xbe559334	-0.20856935
110	0x3eda75d4	0.4266802
111	0x3ea5f5b9	0.32414034
112	0x3dc66def	0.09688937
113	0x3ea4e571	0.322063
114	0xbe8e6924	-0.2781459
115	0x3e879a10	0.26484728
116	0x3e8b0d15	0.27158418
117	0x3dccca3e	0.09999512
118	0x3e478975	0.1948603
119	0x3b1e6905	0.0024171483
120	0x3eea2d58	0.4573772
121	0xbe9ae69a	-0.3025406
122	0x3ee7322b	0.45155463
123	0xbe02253b	-0.12709515
124	0x3e8215fc	0.25407398
125	0xbea31609	-0.3185275
126	0x3e2c85d9	0.16847934
127	0xbe9efb14	-0.31050932
128	0x3ecfda8c	0.40596426
129	0xbea90d90	-0.3301816
130	0x3ea93e91	0.33055547
131	0xbe9296f7	-0.28630802
132	0xbe055427	-0.13020383
133	0x3ecb5c07	0.3971865
134	0x3e4df8e2	0.20114473
135	0xbec00278	-0.37501884
136	0x3eac6779	0.33672693
137	0xbebddd99	-0.37083128
138	0x3e8dc42d	0.27688733
139	0x3ed6f60b	0.4198459
140	0xbdf20278	-0.11816877
141	0xbdd491b3	-0.103793524
142	0xbe9ff107	-0.31238577
143	0x3e9371df	0.28797814
144	0x3ebf9206	0.37416095
145	0x3dddab97	0.10823744
146	0x3de6b181	0.11264325
147	0x3e257063	0.16156153
148	0x3e477ad7	0.19480453
149	0xbd307e41	-0.043089155
150	0xbd774872	-0.060371824
151	0x3ec2d411	0.3805242
152	0xbe8f0ef1	-0.27941087
153	0xbdbf3a38	-0.09337276
154	0xbe53c496	-0.2068046
155	0xbd85ae89	-0.065274306
156	0x3e4c8884	0.19973952
157	0x3e120129	0.14258255
158	0xbebcb918	-0.36859965
159	0xbeb8d319	-0.36098555
160	0xbedf5bf2	-0.43624836
161	0x3e8ab9cb	0.27094874
162	0xbeb25d7f	-0.34836957
163	0xbd75db42	-0.060023554
164	0xbd6658e5	-0.05623712
165	0xbe2e76c8	-0.17037499
166	0x3dc946c0	0.098279476
167	0xbec2e113	-0.38062343
168	0x3ce71dcb	0.028212449
169	0x3e844c5a	0.25839502
170	0x3e1bc648	0.15212357
171	0x3e788114	0.2426799
172	0x3e9e769b	0.30949864
173	0xbdc82566	-0.09772758
174	0x3c1acf58	0.009448849
175	0xbe3f7622	-0.18697408
176	0xbeb268fc	-0.34845722
177	0xbdb647a8	-0.08900386
178	0x3e5596e8	0.20858347
179	0x3e4e9b68	0.2017647
180	0x3ec506c5	0.38481727
181	0x3ed1c705	0.40972152
182	0x3eabd5ed	0.3356165
183	0xbeb33ff4	-0.3500973
184	0xbeb19630	-0.34684896
185	0x3ea31112	0.3184896
186	0xbe852641	-0.26005748
187	0xbe22b68e	-0.15889952
188	0xbe9d54f8	-0.3072889
189	0xbd477c78	-0.048702687
190	0x3edec06e	0.43506187
191	0xbda7b537	-0.08188861
192	0xbd02dfcf	-0.03195172
193	0xbdcb4283	-0.099247955
194	0xbcc0627b	-0.02348446
195	0x3eb4b638	0.35295272
196	0x3ddaa7c3	0.10676529
197	0xbd76ed3c	-0.060284838
198	0x3e3cd44a	0.18440357
199	0x3edfe32b	0.43728003
200	0xbdc7423a	-0.097294286
201	0x3e53b69d	0.2067513
202	0x3e0d3554	0.13789874
203	0x3e695aef	0.22788595
204	0x3ece7890	0.40326357
205	0x3b3c8c9a	0.0028770328
206	0xbe22f040	-0.1591196
207	0xbddaa4b1	-0.10675944
208	0xbe8d58ec	-0.27606905
209	0x3e89aec9	0.26891163
210	0x3e13de18	0.14440191
211	0x3d581030	0.052749813
212	0x3df2bb90	0.11852181
213	0xbead57a6	-0.33855933
214	0x3c56ee68	0.013118364
215	0xbe8bbda9	-0.27293137
216	0x3ee6b912	0.45063072
217	0x3e6bde04	0.23033911
218	0x3e488bfb	0.19584648
219	0xbe985ca2	-0.29758173
220	0xbeb3032b	-0.34963354
221	0xbc354d57	-0.011065803
222	0xbdebbd0e	-0.11510669
223	0x3e386912	0.18008831
224	0x3df9d25c	0.12198326
225	0x3ec996c9	0.39372852
226	0xbeb32263	-0.34987172
227	0xbe0b083f	-0.13577364
228	0xbe0fa44c	-0.14027518
229	0x3e8079da	0.25092965
230	0x3d70c3f6	0.058780633
231	0xbe1f9ef6	-0.15587983
232	0x3eb8f46f	0.36123988
233	0xbe4c6d15	-0.19963486
234	0xbe58a370	-0.21156096
235	0x3d3fa398	0.046786875
236	0x3e94e73c	0.29082668
237	0x3e2c1af1	0.16807152
238	0x3ed10ebb	0.4083155
239	0xbdfef5bb	-0.12449213
240	0xbe04badc	-0.12961906
241	0x3e99a2d9	0.30007055
242	0x3e60e522	0.21962407
243	0xbe0e5a0d	-0.13901539
244	0xbe1af14f	-0.15131114
245	0xbea1047f	-0.31448743
246	0x3edc5828	0.43036008
247	0x3e015df9	0.12633504
248	0x3e46f0ff	0.1942787
249	0x3eb7ab81	0.35873035
250	0x3d691dcb	0.05691318
251	0xbea6e295	-0.32594743
252	0xbd7b6c4d	-0.06138258
253	0xbd62cd17	-0.05537137
254	0x3ecab940	0.3959446
255	0x3e628239	0.22119989

layer1.bias f4 [128]
0	0xbe8b22e7	-0.27175066
1	0x3e368c6d	0.17827006
2	0x3e07a088	0.13244832
3	0x3e9d927c	0.3077582
4	0x3e2689e3	0.16263537
5	0x3e8a27d4	0.2698351
6	0x3ed5ebf9	0.41781595
7	0xbec988c8	-0.39362168
8	0xbe487df9	-0.19579305
9	0x3b35d730	0.002774667
10	0x3d299948	0.041405946
11	0xbeb75c16	-0.35812443
12	0x3cba6000	0.022750854
13	0xbd96dacb	-0.0736595
14	0xbe0d3dec	-0.13793153
15	0x3d402cba	0.046917655
16	0x3e632487	0.22181903
17	0x3ed69bd9	0.41915777
18	0x3d97435e	0.07385896
19	0x3d519a4b	0.051172536
20	0x3e22359c	0.15840763
21	0x3eb32f02	0.34996802
22	0x3da33dfa	0.079708055
23	0x3d62902b	0.05531327
24	0xbe8e2d2f	-0.27768847
25	0x3e809222	0.2511149
26	0x3e84837a	0.2588156
27	0x3ed92009	0.42407253
28	0x3e1d27ed	0.15347262
29	0xbe5ab3f1	-0.21357705
30	0xbdd4b139	-0.10385365
31	0x3e95f4a9	0.29288223
32	0xbe9ac483	-0.30228052
33	0xbe3709f4	-0.1787489
34	0x3ee069d7	0.4383075
35	0xbe8ca9b4	-0.27473223
36	0x3e84ff63	0.25976095
37	0x3e7eeb77	0.2489451
38	0xbdb1d09e	-0.08682369
39	0x3ecd32d4	0.4007784
40	0x3db3ab71	0.08772934
41	0xbe6a71b2	-0.22894934
42	0xbeae9b4f	-0.34102866
43	0x3eaf9120	0.3429041
44	0xbea738ea	-0.3266061
45	0xbe71785e	-0.23581073
46	0xbe9118ac	-0.28339136
47	0x3e353d88	0.17699254
48	0xbe8465c5	-0.25858894
49	0x3ec900cd	0.39258423
50	0x3e85f20f	0.2616124
51	0x3d33b756	0.043876015
52	0xbe697c02	-0.22801211
53	0x3e08bb1c	0.13352627
54	0x3d801a63	0.06255033
55	0xbd7dd1fe	-0.061967842
56	0x3e2a125b	0.16608565
57	0x3dced518	0.10099238
58	0xbe110f20	-0.14165926
59	0xbeaa006a	-0.3320344
60	0xbeb6fd86	-0.35740298
61	0x3d589768	0.052878767
62	0xbe1633f8	-0.14668262
63	0xbe3e0639	-0.18557061
64	0x3cdf2084	0.027237184
65	0xbd85bcfc	-0.065301865
66	0x3ea85e9e	0.32884687
67	0x3e3ee2f0	0.18641257
68	0xbeca4e19	-0.3951271
69	0x3d7c5fce	0.061614804
70	0xbceee52f	-0.029162018
71	0xbe5ad49e	-0.2137017
72	0x3eccaae6	0.39974135
73	0x3c8ee3dc	0.017442636
74	0x3ecc6ef0	0.3992839
75	0x3d42e362	0.04758013
76	0xbe11eb9a	-0.14250031
77	0xbde40078	-0.11132902
78	0xbd59835d	-0.053103793
79	0x3e24e6a8	0.16103613
80	0xbe26e6e9	-0.16299023
81	0x3e01921b	0.12653391
82	0x3e6f8511	0.23390605
83	0xbebc0382	-0.36721426
84	0xbe4b04dc	-0.19826072
85	0x3e96b900	0.2943802
86	0xbe86f86e	-0.26361412
87	0x3e212df3	0.15740184
88	0x3e68eb58	0.22746027
89	0x3e1a9441	0.15095617
90	0x3ca9ede4	0.020743318
91	0xbec0b9fa	-0.3764189
92	0xbe718f65	-0.23589857
93	0x3e7f66e2	0.2494159
94	0xbddae507	-0.10688215
95	0x3e509348	0.20368683
96	0xbd0138b0	-0.031548202
97	0xbe245f54	-0.1605199
98	0x3e87ccd4	0.2652346
99	0xbd4631d2	-0.048387356
100	0xbc30e17a	-0.010795945
101	0x3de722f3	0.11285963
102	0x3eb81fad	0.35961667
103	0xbe81d064	-0.25354302
104	0xbe312d4b	-0.17302434
105	0x3e3f981e	0.18710372
106	0x3d94aab1	0.07259119
107	0xbdfdedfd	-0.12398908
108	0xbe602c53	-0.21891908
109	0xbea029a7	-0.31281778
110	0x3e383308	0.17988217
111	0x3de24a46	0.11049323
112	0x3ca33cb0	0.019926399
113	0x3ebe2b27	0.37142298
114	0x3b77cc40	0.0037810951
115	0x3d759b93	0.05996282
116	0x3c79cc1c	0.015246417
117	0x3ea317d3	0.31854114
118	0x3e83c931	0.25739434
119	0xbeac03fb	-0.33596787
120	0x3cb26870	0.021778315
121	0xbeab3bc4	-0.33444035
122	0xbe1991da	-0.14997044
123	0xbe8c222a	-0.27369815
124	0xbeca8e35	-0.3956162
125	0xbd5424af	-0.051792797
126	0x3ed74a40	0.42048836
127	0xbdeff134	-0.11715928

layer2.weight f4 [128, 128]
0	0x3d958d68	0.07302362
1	0xb9a16147	-0.0003078079
2	0xbdaafc8d	-0.083489515
3	0x3d2dde58	0.04244837
4	0xbd9d05f9	-0.07667155
5	0xbe02d88a	-0.12777916
6	0xbc5095a9	-0.012730994
7	0xbda61528	-0.08109504
8	0xbcfaaf14	-0.030601062
9	0xbd135f56	-0.03597959
10	0x3cdba248	0.02681078
11	0xbc933250	-0.017968327
12	0xbd044d91	-0.032300536
13	0x3d6757bf	0.056480166
14	0xbd952a45	-0.07283453
15	0xbd652ae3	-0.055949103
16	0xbcfbe736	-0.030749898
17	0x3cff73c7	0.031183137
18	0xbd43eb58	-0.047831863
19	0x3dc5ace7	0.09652119
20	0x3de27f0f	0.11059391
21	0xbd4a945e	-0.0494579
22	0x3d858f62	0.06521489
23	0x3a9803a3	0.0011597764
24	0x3dbb4275	0.09143535
25	0x3d1a92dd	0.037737716
26	0xbbc5b371	-0.006033354
27	0x3d6a8448	0.05725506
28	0x3dbe165e	0.0928161
29	0x3da4cd9d	0.0804703
30	0x3c73eef2	0.014888512
31	0xbdab32a3	-0.083592676
32	0xbd9d9cdd	-0.07695935
33	0x3daf7702	0.08567621
34	0xbd754f71	-0.059890214
35	0xbc2cc4cc	-0.010544967
36	0xbceceeb3	-0.028922414
37	0xbce7b975	-0.028286675
38	0x3d7cb944	0.06170012
39	0x3db77b52	0.08959068
40	0x3d05487b	0.032539826
41	0x3de5ee06	0.1122704
42	0x3cfc4c64	0.030798145
43	0xbd0bb1f8	-0.03410527
44	0x3d779352	0.06044323
45	0xbd5837ec	-0.052787706
46	0x3d8c907f	0.06863498
47	0x3d694740	0.056952715
48	0xbcc46e43	-0.023978358
49	0x3d134090	0.035950243
50	0xbd799dc6	-0.06094148
51	0x3ddeb966	0.10875206
52	0x3cd82184	0.026383169
53	0x3c8a6208	0.016892448
54	0x3c84efc7	0.016227616
55	0x3c98060c	0.01855757
56	0x3b8df893	0.004332611
57	0xbc817f58	-0.015807793
58	0xbd42fe88	-0.04760602
59	0xbd7e31f8	-0.062059373
60	0xbcbbc35c	-0.022920303
61	0x3ca45148	0.02005829
62	0x3d61cf92	0.055129595
63	0xbd7ef9f1	-0.06225008
64	0x3a8ddefc	0.0010823901
65	0xbc483e44	-0.0122218765
66	0xbc01d4cb	-0.007924269
67	0xbb889793	-0.0041684597
68	0xbc59ed80	-0.013301253
69	0xbcd38fbd	-0.025825376
70	0x3ca4debe	0.020125743
71	0xbb1756ca	-0.0023092502
72	0x3ccd51e0	0.025063455
73	0x3db22c5b	0.086998664
74	0x3ca76c08	0.020437256
75	0xbdbe3308	-0.09287077
76	0xbc4a5a0d	-0.012350571
77	0x3d9fe55f	0.07807421
78	0x3de4b7a5	0.1116784
79	0xbd642d8e	-0.055707507
80	0x3d1bbaf2	0.03802008
81	0x3d9d327a	0.07675643
82	0xbd84f045	-0.0649114
83	0xbd06d9e5	-0.032922644
84	0x3d9a7f41	0.07543803
85	0x3dc82faf	0.0977472
86	0x3d813e4d	0.06310711
87	0xbcb494c6	-0.022043597
88	0xbb4ef201	-0.003157735
89	0xbd5ba3ad	-0.05362289
90	0x3db347e9	0.0875395
91	0x3d31a3a6	0.043368958
92	0x3bed42b0	0.007240616
93	0xbc64d82b	-0.013967554
94	0x3dd11907	0.10209852
95	0x3d9f483d	0.0777745
96	0x3dc8627c	0.097844094
97	0x3cc09d03	0.023512369
98	0x3cf321a0	0.02967912
99	0x3d7c8016	0.06164559
100	0x3db0bafd	0.08629415
101	0x3d2b670f	0.04184633
102	0xbd571f45	-0.052520055
103	0xbd0eb29f	-0.034838315
104	0x3d7784ce	0.060429387
105	0x3d795759	0.060874317
106	0x3de9222a	0.113834694
107	0x3d8aa2ca	0.06769331
108	0x3cb9ca44	0.022679456
109	0xbd1fd794	-0.03902395
110	0xbd22cef3	-0.039748143
111	0x3c8009e4	0.015629716
112	0x3c3f5c11	0.011679665
113	0x3cd488dc	0.025944166
114	0x3bdc83b4	0.0067295674
115	0xbc966f8b	-0.018363735
116	0xbc444e3c	-0.011981543
117	0x3d01365d	0.031545985
118	0x3d5a7569	0.053334627
119	0xbd94a0aa	-0.07257207
120	0x3dbc71e4	0.092014104
121	0x3d8deded	0.06930146
122	0xba302ed0	-0.0006720843
123	0x3da69059	0.08133001
124	0x3d40cd0a	0.04707054
125	0x3da8cede	0.08242582
126	0xbd8c675e	-0.06855653
127	0x3d9f85f5	0.07789222
128	0x3d70433c	0.05865787
129	0x3d928e45	0.07156042
130	0xbc94bac4	-0.018155463
131	0x3d66645c	0.056248054
132	0x3aba5e36	0.0014218751
133	0xbcefc035	-0.029266456
134	0x3d0e46b8	0.03473541
135	0x3cfeff8c	0.031127714
136	0xbd88fa4b	-0.066883646
137	0xbd439c43	-0.047756445
138	0xbd0d8356	-0.03454908
139	0x3cdbad90	0.02681616
140	0xbd203d96	-0.039121233
141	0x3d8d2935	0.06892625
142	0xbd9b10dc	-0.07571575
143	0xbcfb01a8	-0.030640438
144	0x3dc0d406	0.0941544
145	0xbd394828	-0.04523483
146	0x3d000ad0	0.03126031
147	0x3c06cbd6	0.008227309
148	0x3da8412b	0.08215555
149	0x3dd5a1ac	0.10431227
150	0x3cdaafd1	0.026695164
151	0xbbf97947	-0.0076133343
152	0x3c4aee19	0.0123858685
153	0xbd2d8456	-0.042362534
154	0xbd342ca0	-0.04398787
155	0xbc87d250	-0.016579777
156	0x3c833474	0.016016223
157	0x3d510b76	0.05103632
158	0x3d09d5f4	0.033651307
159	0x3d1889d9	0.037240837
160	0x3c8012f9	0.015634047
161	0x3d96b4e7	0.07358723
162	0x3d6bc0c4	0.057556883
163	0xbd8b85d3	-0.06812634
164	0x3c8f3f2f	0.017486183
165	0x3cb00104	0.02148486
166	0x3dbb6323	0.09149768
167	0x3dce8f55	0.10085932
168	0x3de5afe3	0.11215188
169	0x3c48afd3	0.012248951
170	0xbc5d18b6	-0.013494661
171	0xbc8922f3	-0.016740298
172	0xbdab6ce6	-0.0837038
173	0x3b98c228	0.004661817
174	0x3d8b5409	0.06803138
175	0x3dde39ce	0.10850869
176	0x3da1d684	0.07902244
177	0x3d979355	0.07401148
178	0x3d638787	0.05554917
179	0x3dd2fc95	0.103020824
180	0xbd1d22d4	-0.038363293
181	0xbd0b7119	-0.034043405
182	0x3d4bbb77	0.049739327
183	0xbdd1dd92	-0.10247339
184	0x3d89b34d	0.06723652
185	0x3cc76180	0.024338484
186	0x3c5de55c	0.013543453
187	0xbd4bbcd9	-0.049740646
188	0x3c0cb2cc	0.00858755
189	0xbd850bce	-0.06496392
190	0x3d9c91af	0.076449744
191	0x3c3a790f	0.011381402
192	0x3dafb539	0.08579487
193	0xbc333fe0	-0.010940522
194	0xbccbf0cb	-0.024895092
195	0xbd2ea548	-0.042638093
196	0x3db4ca4d	0.08827648
197	0x3dd929ac	0.106036514
198	0xbb943ed6	-0.004524092
199	0x3d0aca60	0.033884406
200	0x3d7b8f0c	0.061415717
201	0xbcec36cc	-0.028834723
202	0x3d87b325	0.06625966
203	0xbd7b534c	-0.061358735
204	0xbddf059b	-0.10889741
205	0xbd168de1	-0.0367564
206	0x3d86a3f9	0.06574244
207	0x3d15ed42	0.03660322
208	0xbce3b021	-0.027793946
209	0x3d57aa38	0.052652568
210	0x3d1cf447	0.0383189
211	0x3db4801f	0.088135
212	0x3d0b87cc	0.034065053
213	0xbca340fa	-0.019928444
214	0x3cb494b4	0.022043563
215	0x3d35be71	0.044371072
216	0x3d94e0ae	0.07269417
217	0x3cf162c9	0.02946605
218	0x3cb96f28	0.022636011
219	0xbcafd430	-0.021463484
220	0x3cb9b435	0.022668937
221	0xbd46fee9	-0.048582945
222	0x3d8fb73f	0.07017373
223	0xbd702e8e	-0.058638148
224	0xbb8a9daf	-0.004230223
225	0x3ca88935	0.020573238
226	0x3dda1228	0.10647994
227	0xbc90ca34	-0.017674543
228	0x3dd559f5	0.104175486
229	0x3cd77d0d	0.026304746
230	0xbd55137d	-0.05202054
231	0x3d0ef28c	0.03489928
232	0x3c312af0	0.01081346
233	0x3d55d772	0.052207418
234	0x3dc0e3c1	0.094184406
235	0xbca10d3c	-0.019659631
236	0xbd1f8e5e	-0.03895413
237	0x3cd76266	0.026292037
238	0x3ae3d2e9	0.0017381582
239	0xbd670bf8	-0.0564079
240	0xbd60cf75	-0.054885346
241	0xbc49a479	-0.01230728
242	0xbd91f9fe	-0.0712776
243	0xbd5e4deb	-0.054273527
244	0xbd92a698	-0.071606815
245	0x3b9ca977	0.004780944
246	0x3c4208be	0.011842905
247	0x3b973888	0.0046148933
248	0x3dd96261	0.106144674
249	0x3ca0330c	0.019555591
250	0xbc1693a8	-0.009190477
251	0x3d278406	0.04089739
252	0x3d74b2f2	0.059740968
253	0x3d95013a	0.072756246
254	0x3d671caf	0.05642384
255	0xbd41f2ac	-0.04735057

layer2.bias f4 [128]
0	0xbb4c56a3	-0.003117957
1	0x3dda22f6	0.106511995
2	0xbd42b8dc	-0.047539577
3	0xbc158a1c	-0.009127166
4	0x3d5d5d3d	0.054043997
5	0x3d338d9b	0.043836217
6	0xbd1eab10	-0.038737357
7	0x3d93fa24	0.07225445
8	0xbbc550dc	-0.006021602
9	0xbdae589f	-0.08512997
10	0xbd67048a	-0.056400813
11	0xbcea4bfe	-0.028600689
12	0x3d78d17d	0.06074666
13	0x3c80a3b1	0.015703054
14	0x3db64053	0.088989876
15	0xbd1553d0	-0.036456883
16	0x3d93391f	0.07188629
17	0xbc7c3874	-0.015394319
18	0xbd05a9fe	-0.03263282
19	0x3de08694	0.10963169
20	0xbc219954	-0.009863216
21	0xbc9374af	-0.017999975
22	0xbd3d58cd	-0.046227265
23	0xbd91a4cc	-0.07111511
24	0xbcc3fb8b	-0.023923656
25	0xbda53593	-0.08066859
26	0xbb26f610	-0.0025476255
27	0x3c041992	0.008062737
28	0xbc62bcc4	-0.013838951
29	0x3a572a7e	0.0008207931
30	0x3c97305e	0.01845568
31	0xbdace3c2	-0.08441879
32	0x3d3f7cc3	0.04674984
33	0xbd864884	-0.065568
34	0xbd149fca	-0.0362852
35	0x3d248032	0.04016132
36	0xbd92043f	-0.07129716
37	0xbc48fe14	-0.012267608
38	0xbc854cc8	-0.016271964
39	0x3d793bdd	0.060848106
40	0xbd88aed3	-0.0667397
41	0xbd9927df	-0.07478308
42	0x3d1045aa	0.035222687
43	0xbd0616b1	-0.032736484
44	0xbd5feda6	-0.05467
45	0xbd9f4b9a	-0.07778092
46	0xbcbc86dc	-0.023013525
47	0x3d45fee2	0.04833878
48	0x3d67bf87	0.05657914
49	0xbdb1611d	-0.08661101
50	0x3c24cde7	0.010058857
51	0x3d3d0a0c	0.04615216
52	0xbd30d732	-0.043173976
53	0x3b21e9b6	0.0024705953
54	0x3db1ca73	0.08681192
55	0xbd5e3845	-0.05425288
56	0x3d9dedec	0.077113956
57	0xbd115f31	-0.035491172
58	0xbb248857	-0.002510568
59	0x3d8136a3	0.06309249
60	0x3d393bdb	0.0452231
61	0xbdbb5e10	-0.091488004
62	0x3b948dae	0.004533491
63	0x3c3bc955	0.0114615755
64	0x3d17ad77	0.037030663
65	0x3dcd19c0	0.10014677
66	0x3d426df5	0.047468144
67	0x3d193396	0.03740271
68	0xbb8230ed	-0.0039731176
69	0x3d9e8be8	0.07741529
70	0x3cd4da15	0.025982896
71	0xba1a9e0b	-0.0005898184
72	0x3d12e814	0.03586586
73	0xbcb0ba88	-0.02157332
74	0xbd08aeb8	-0.03336975
75	0xbda40a47	-0.08009773
76	0xbd2105f6	-0.039312325
77	0xbd3eebab	-0.04661147
78	0xbc366f5d	-0.0111349495
79	0x3d091114	0.033463553
80	0x3cbcd2ac	0.023049675
81	0xbd8af602	-0.067852035
82	0x3d8fe454	0.07025972
83	0x3d0b55fe	0.034017555
84	0xbcfd6331	-0.030931087
85	0xbdb168c8	-0.086625636
86	0xbd0301b5	-0.03198405
87	0xbc28d505	-0.010304694
88	0xbda4d01d	-0.08047507
89	0xbd045254	-0.032305077
90	0xbc5509bc	-0.013002809
91	0x3d601bd2	0.05471403
92	0x3c363708	0.011121519
93	0x3c90bb17	0.017667336
94	0x3dcdf423	0.10056331
95	0x3d989864	0.07450941
96	0x3ca550f3	0.020180201
97	0x3bddec25	0.0067725354
98	0x3dccb0e1	0.099946745
99	0xbda4cceb	-0.080468975
100	0x3c3a6208	0.0113759115
101	0xbd04d9d1	-0.03243429
102	0xbcafb154	-0.021446861
103	0x3d8f451f	0.06995606
104	0xbd82dbea	-0.063896015
105	0xbd6657bf	-0.056236025
106	0xbbeb5850	-0.0071821585
107	0xbd8402b1	-0.06445826
108	0x3d3a0eb6	0.045424186
109	0xbd0d0719	-0.034430597
110	0xbd8f5c1d	-0.06999991
111	0xbdae6486	-0.08515267
112	0x3d83d1bd	0.06436489
113	0x3d133c01	0.035945896
114	0x3cd3dd76	0.025862437
115	0x3d2521e4	0.040315524
116	0xbd8657a4	-0.06559685
117	0xbc1eac73	-0.00968467
118	0xbd5afa6d	-0.05346148
119	0xbcefc3f0	-0.029268235
120	0xbd2bd88c	-0.041954562
121	0x3d6b705a	0.057480194
122	0x3c4f6bfc	0.012660023
123	0x3d32ad16	0.0436221
124	0xbc2953c5	-0.010334914
125	0x3d3cd76a	0.046103872
126	0xbdab1f4d	-0.083555795
127	0xbd752fe1	-0.059860114

layer3.weight f4 [9, 128]
0	0xbd32c1f1	-0.04364199
1	0x3ddf8a8b	0.10915097
2	0x3ca7b440	0.020471692
3	0xba652c8d	-0.00087422953
4	0x3c628a1f	0.013826876
5	0x3d117c0d	0.035518695
6	0xbcebd1ca	-0.028786559
7	0xbd841473	-0.06449213
8	0x3d26416e	0.040589742
9	0xbd181d0f	-0.037137087
10	0x3caad994	0.020855702
11	0xbd9e1534	-0.07718888
12	0x3cb0557f	0.021525143
13	0x3ccccebf	0.025000928
14	0x3d8a5c14	0.06755844
15	0xbd7d17d2	-0.061790295
16	0x3d4b48f4	0.04963012
17	0xbd0b4bd7	-0.034007873
18	0x3d9bd9eb	0.07609924
19	0x3d905d54	0.07049051
20	0x3d675883	0.056480896
21	0x3d5c0fad	0.053725887
22	0xbc804602	-0.015658382
23	0x3b024b96	0.0019881479
24	0xbd4c0277	-0.04980704
25	0x3d88614d	0.06659184
26	0x3da93108	0.08261305
27	0xbd803913	-0.06260886
28	0x3c343e78	0.011001222
29	0x3c9774d1	0.01848832
30	0xbbc870ad	-0.0061169476
31	0x3d175306	0.03694441
32	0x3cb0c0ec	0.021576367
33	0xbd7b4b88	-0.06135133
34	0x3dc3b910	0.09556782
35	0x3d386c02	0.04502488
36	0xbcf2dec0	-0.029647231
37	0xbd650e8b	-0.055922072
38	0x3da049de	0.07826589
39	0xbda517a7	-0.08061152
40	0xbc806eb6	-0.015677791
41	0xbda9b4dd	-0.0828645
42	0x3d3cad08	0.046063453
43	0xbd2a78b5	-0.04161902
44	0x3c47e294	0.0122000165
45	0x3ce90df0	0.028449029
46	0xbc0636d4	-0.008191783
47	0xbd51578f	-0.051108893
48	0x3db9216f	0.0903958
49	0x3d029d68	0.031888396
50	0x3d8f2bcd	0.06990776
51	0xbbc3132d	-0.0059532137
52	0xbc1627b2	-0.009164738
53	0x3d7fd35f	0.06245744
54	0xbd10528f	-0.035234984
55	0x3cd5dd2c	0.02610644
56	0x3d0d1031	0.03443927
57	0x3dc7ca4f	0.09755384
58	0xbcaae29c	-0.020860009
59	0x3d2a6317	0.041598406
60	0x3cc77468	0.024347499
61	0xbd7ce326	-0.061740063
62	0xbc860d0d	-0.016363645
63	0xbc9eeca9	-0.019399958
64	0xbda1ac74	-0.07894221
65	0xbcb6b012	-0.022300754
66	0x3b0aad56	0.0021160445
67	0x3ddee5c5	0.10883669
68	0x3da2e50a	0.07953842
69	0x3cae6f14	0.0212932
70	0xbbe08451	-0.006851711
71	0x3ddc7c88	0.1076594
72	0xbce6a144	-0.02815307
73	0x3c07681c	0.008264568
74	0xbdad5d0f	-0.08465015
75	0xbcaf8508	-0.021425739
76	0x3d972457	0.07379978
77	0xbce478de	-0.027889665
78	0x3cbc4931	0.02298412
79	0x3d3dad1c	0.046307668
80	0xbc99acac	-0.018759094
81	0xbc1e7f4d	-0.009673906
82	0x3d3e2e58	0.046430916
83	0x3da1cd5b	0.079004966
84	0xbc8aadca	-0.016928572
85	0x3d0d49be	0.034494154
86	0xbd161a47	-0.036646154
87	0x3dc1bed4	0.09460226
88	0x3c007c00	0.007842064
89	0x3aea0380	0.0017853826
90	0x3de33fc1	0.110961445
91	0x3d8f9236	0.070103094
92	0x3bd74fe9	0.0065708053
93	0x3d2baa87	0.041910674
94	0x3d1d0ba6	0.038341187
95	0xbd4c718c	-0.049912974
96	0x3d847919	0.0646841
97	0x3d5b2276	0.05349966
98	0x3d85cbfd	0.06533048
99	0xbc34f798	-0.011045359
100	0x3cdf4440	0.027254224
101	0xbca33f66	-0.019927692
102	0xbd1de70c	-0.03855042
103	0x3c59b186	0.013286954
104	0x3d1eaa33	0.038736533
105	0x3d16706d	0.03672831
106	0x3d94ea3b	0.072712384
107	0x3c951505	0.0181985
108	0xbd69e3fd	-0.057102192
109	0x3d16a686	0.036779903
110	0xbd0b0e22	-0.033949025
111	0x3dadc4d1	0.084848054
112	0x3db22479	0.08698363
113	0x3ca4f92a	0.020138342
114	0xbcb6faaf	-0.022336332
115	0xba489bab	-0.0007652591
116	0xbd05548d	-0.032551337
117	0xbcd8068a	-0.026370306
118	0x3c391230	0.01129584
119	0x3cb376dc	0.021907263
120	0xbd82c5eb	-0.06385406
121	0xbd82f587	-0.06394487
122	0xbd1bcdcc	-0.03803806
123	0xbd906757	-0.070509605
124	0xbc849545	-0.016184459
125	0xbca0b299	-0.019616412
126	0xbda073c4	-0.078345805
127	0xbd5c4932	-0.053780742
128	0x3acb2fa6	0.0015501871
129	0x3d7a229f	0.061068173
130	0xbd9845f4	-0.074352175
131	0xbcc2b7e0	-0.023769319
132	0x3d96a183	0.07355025
133	0x3d10437e	0.035220616
134	0xbd58fd84	-0.052976146
135	0xbdfd9a67	-0.123829655
136	0xbc573e88	-0.013137467
137	0x3d2600bd	0.040528048
138	0xbc0f2ff0	-0.008739457
139	0xbd0f71b3	-0.03502054
140	0x3dbf41a8	0.09338695
141	0xbc93bfce	-0.018035796
142	0xb99c3114	-0.00029791205
143	0xbcd37bf4	-0.025815941
144	0xbc998718	-0.018741176
145	0x3c7438c8	0.014906116
146	0x3ae345e4	0.0017339555
147	0x3dc1c95e	0.09462236
148	0xbc95d722	-0.01829106
149	0x3d5f78e2	0.054558642
150	0x3d98b45a	0.07456274
151	0xbd4e2ea2	-0.05033744
152	0xbd774dc7	-0.06037691
153	0xbd97db5a	-0.07414885
154	0x3d1f7f93	0.038940024
155	0x3d0fe76d	0.035132814
156	0x3d91f3ef	0.07126605
157	0x3dc53f39	0.096311994
158	0x3c614e81	0.013751627
159	0xbd72bc90	-0.05926186
160	0xbd1ab6db	-0.03777204
161	0x3d90d340	0.07071543
162	0x3da4da3e	0.08049439
163	0xbcd006ef	-0.025393931
164	0x3cdc21ac	0.026871525
165	0xbd811d9b	-0.06304475
166	0xbd959fdb	-0.07305881
167	0x3cb64963	0.02225179
168	0x3ddd62c1	0.108098514
169	0x3caf0bff	0.021368025
170	0x3d8a2114	0.067445904
171	0x3d9b92df	0.07596373
172	0x3cde0df0	0.027106255
173	0xbc5e4a74	-0.013567556
174	0x3d2e1b9a	0.04250679
175	0x3d9bff15	0.076170124
176	0xbcb6761b	-0.022273114
177	0xbc86a3fc	-0.016435616
178	0xbd744e50	-0.059644997
179	0x3d825aa3	0.06364944
180	0xbcb3b396	-0.02193622
181	0xbd14e965	-0.036355395
182	0xbd1a6a2c	-0.03769891
183	0x3c58d3f8	0.013234131
184	0x3de08992	0.109637395
185	0xbda6011b	-0.081056796
186	0x3dc53c65	0.0963066
187	0x3c451017	0.012027762
188	0x3c585824	0.013204608
189	0xbb95abf9	-0.00456762
190	0x3b6ac63d	0.0035823726
191	0xbcaa3e2c	-0.020781599
192	0xbc8f21c3	-0.017472154
193	0xbc3291d4	-0.010899026
194	0x3d124bf5	0.03571697
195	0xbcb13b1f	-0.021634636
196	0x3caceee9	0.021110015
197	0x3d9153f5	0.07096092
198	0xbd11f287	-0.035631683
199	0x3d8a5767	0.06754952
200	0x3d5c5346	0.053790353
201	0xbd18168e	-0.037130885
202	0x39fdc8dc	0.00048405572
203	0x3da85641	0.082195766
204	0xbdb1ce80	-0.08681965
205	0xbd71d07a	-0.05903671
206	0xba3d7ad5	-0.0007228081
207	0xbcd013f1	-0.025400134
208	0xbd43f6c5	-0.04784276
209	0x3c25a87a	0.010110969
210	0xbb10b3f4	-0.0022079917
211	0x3dc6f996	0.097155735
212	0xbda9d4b3	-0.08292522
213	0x3d31304e	0.043258958
214	0x3da370a6	0.0798047
215	0xbcf09e34	-0.029372312
216	0x3b5ff90b	0.003417554
217	0x3bb05d40	0.00538221
218	0xbdb25c23	-0.0870898
219	0xbda1f30c	-0.07907686
220	0x3d954fa0	0.07290578
221	0xbd84bd35	-0.06481401
222	0x3d6d0c6d	0.05787318
223	0xbcf38b1d	-0.02972942
224	0x3c145097	0.009052417
225	0x3c978799	0.018497275
226	0x3dd6998c	0.104785055
227	0xbbcb44d7	-0.0062032747
228	0x3d94d0a7	0.0726636
229	0xbc05992c	-0.008154195
230	0x3cf33204	0.029686935
231	0xbd1e843e	-0.038700335
232	0x3d7fbfad	0.062438656
233	0xbce39ccb	-0.027784726
234	0x3bcfdf58	0.0063437633
235	0xbdaec985	-0.085345306
236	0x3d1f52e6	0.038897417
237	0xbce67f70	-0.028136939
238	0xbd90b832	-0.070663825
239	0xbdab3bd6	-0.08361022
240	0x3cfa0a01	0.030522348
241	0xbd4f9387	-0.050677802
242	0x3dd79edb	0.10528346
243	0xbd0637b9	-0.032767985
244	0xbc92e2a6	-0.01793034
245	0xbd0f99fe	-0.035058968
246	0xbd150d47	-0.036389615
247	0xbda0b913	-0.078478
248	0xbd5e5271	-0.05427784
249	0xbcac8d38	-0.021063432
250	0xbd4faafe	-0.05070018
251	0x3bea2b50	0.0071462765
252	0x3d69d55a	0.057088234
253	0xbda93299	-0.08261604
254	0x3d8dc0ec	0.069215626
255	0x3cc53630	0.02407369

layer3.bias f4 [9]
0	0xbd861ff9	-0.06549067
1	0xbd6eecb1	-0.058331195
2	0x3db26127	0.087099366
3	0xbd69eaac	-0.057108566
4	0x3d5426a7	0.051794674
5	0xbc7a3188	-0.015270598
6	0xbc9d23a2	-0.01918203
7	0x3dbd3f38	0.09240574
8	0x3b10ef1e	0.0022115181
