Assets/Models/poopybutt.model (torch, 76892 bytes, 6 tensors)

layer1.weight f4 [128, 6]
000000 11 c2 a8 be 15 42 05 3e 97 ab 35 be 7c d2 88 be
       -0.3296056 0.1301349 -0.17741238 -0.26723087
000010 98 ec f2 3d d4 b4 30 3d 28 ee 73 bf ab 79 9a bd
       0.11861533 0.0431412 -0.9528527 -0.075427376
000020 4b af 8e 3e 07 b6 08 3d ea 36 73 bd 9e 5f 17 3e
       0.27868113 0.03337672 -0.059378542 0.14782569
000030 1a b7 95 ba a2 a5 d3 bb 86 4d b0 3e d0 a2 8b 3e
       -0.0011422366 -0.006458954 0.34434146 0.27272654
000040 cc 4f 31 3e 5d a4 d6 be a4 1c d8 be c6 1e 2b 3e
       0.17315596 -0.41922274 -0.4220935 0.16710958
000050 3f c5 c3 be 30 1e 0b be 51 64 a3 3e 6a 12 30 3d
       -0.38236424 -0.13585734 0.31912473 0.04298631
000060 cc 8d 4b be 92 15 d7 be d5 e1 42 3e d1 5b 08 be
       -0.1987831 -0.42008644 0.1903146 -0.13316275
000070 f3 f4 af 3e 52 20 36 be e5 cc 64 3e 9a 27 a6 bd
       0.3436657 -0.17785767 0.22343786 -0.08113022
000080 13 6b d7 3e f5 5c 52 3e 1a 0e c0 3d 96 72 a8 bd
       0.4207388 0.20543273 0.0937769 -0.082249805
000090 7d a7 4d 3f 53 a6 9d be 88 54 69 be 10 8b 28 3e
       0.8033369 -0.30790958 -0.22786152 0.16459298
0000a0 46 ab 8f 3e a1 f8 f0 3e 9a a5 db bd a6 51 dc 3e
       0.2806036 0.4706469 -0.10724945 0.43031043
0000b0 c0 21 26 be 5c f7 2d bc 1a d2 ab be d7 c6 c5 3e
       -0.16223812 -0.010618057 -0.33558732 0.38628265
0000c0 08 b5 24 be 73 33 03 3f ab f9 f4 3e a7 cd a2 bd
       -0.16084683 0.5125038 0.47846732 -0.07949381
0000d0 a3 4f 5d be d8 9e 49 3e 00 b2 d1 3d f7 be d2 3e
       -0.2161241 0.196895 0.10239029 0.4116132
0000e0 98 c8 ca 3e 45 17 bb 3e 7e d4 0f be 8b 52 1a 3e
       0.39606166 0.3654119 -0.14045903 0.1507055
0000f0 21 97 8f bd d3 c7 bf be f5 d6 b5 bd fd d4 b4 bd
       -0.070112474 -0.3745714 -0.088788904 -0.08829687
000100 7b 33 7b 3e 54 64 a1 3d a7 b6 a6 3e e4 6a 6d 3e
       0.24531357 0.07880464 0.32561228 0.23185307
000110 d2 ec f9 3e 4e 06 9b be 27 8a 4f 3e 5a db 9c bd
       0.48813492 -0.30278248 0.20267545 -0.076590255
000120 15 15 33 3f d8 1d ae 3d 91 ed 3e be 0e 45 50 be
       0.69954044 0.08501786 -0.18645312 -0.20338842
000130 ec 4f e5 be a2 52 b9 3d ca fc 3c be c0 5d f6 3e
       -0.44787538 0.09048964 -0.18455806 0.481184
000140 99 c8 c5 3d 27 98 b8 bc e4 27 1c be 59 5a 93 be
       0.096574016 -0.02253349 -0.15249592 -0.28779867
000150 65 c7 92 3e 6e 93 a6 3d 88 a1 5e 3e 5b 14 d7 3e
       0.2866775 0.08133589 0.21741307 0.42007717
000160 40 79 99 3d 74 b2 c1 3e 4a 5f 94 3d ba e7 3d be
       0.0749383 0.3783146 0.072447374 -0.18545428
000170 b0 f7 93 3d b9 9c 79 be ed f8 70 be 46 db 1d be
       0.07224977 -0.24376191 -0.23532458 -0.15415677
000180 f1 99 f6 3e 27 be 1d be ff 59 e2 3e e9 f4 96 3d
       0.48164323 -0.15404569 0.44209287 0.07370932
000190 49 31 29 3e a9 8d 6f 3e 6d 0a 59 3e 9b cf 96 be
       0.16522707 0.23393883 0.21195383 -0.29455265
0001a0 ab 3a e9 3e 49 18 d2 3e 73 13 b8 3c 7e c9 29 be
       0.45552573 0.41034153 0.022470212 -0.1658077
0001b0 95 18 99 ba 26 e0 2e be 2a 30 0a 3e 93 c1 83 bd
       -0.00116803 -0.17077693 0.13494936 -0.06433406
0001c0 28 c8 5e 3e f2 29 87 bd 7d df 40 be 0c b1 99 be
       0.21756041 -0.06599797 -0.18835254 -0.3001789
0001d0 f3 e2 93 3e dc a1 a7 3e 40 0f 26 bd 63 59 87 3e
       0.28884086 0.32740676 -0.040541887 0.26435384
0001e0 c4 79 15 3f b7 f0 80 3e bb 9d fe 3e e2 89 f2 bd
       0.58388925 0.2518365 0.49729714 -0.11842705
0001f0 13 8f 92 3d ba db 33 be ea 64 1e be 69 73 1c 3e
       0.071561955 -0.17564288 -0.15468183 0.152784
000200 23 7d cd be 8d 27 d3 bd 89 28 19 3e df 35 84 3e
       -0.40134534 -0.10310278 0.14956869 0.2582235
000210 37 d2 c8 3e b9 f2 ba be fe 68 9e 3e 87 82 d1 bd
       0.3922288 -0.36513308 0.30939478 -0.10229974
000220 e3 ef 90 3e e1 55 9a be 87 f1 09 bd 09 28 a8 3d
       0.2830802 -0.30143645 -0.033677604 0.08210761
000230 c1 44 e3 be 20 da 91 be 6b db c1 3e 6d b4 d8 bd
       -0.44388393 -0.2848673 0.37862715 -0.105812885
000240 fa 23 39 be 45 7a 1d 3e 80 16 58 3e b3 ac ba 3e
       -0.1808013 0.15378673 0.21102333 0.36459884
000250 08 20 03 be fc 4b 73 be df 38 27 3f 3b 44 fb 3e
       -0.12805188 -0.23759454 0.65321153 0.49075493
000260 12 d7 d9 bc 2c b4 7d be be a3 0e be 40 40 a1 bc
       -0.026591811 -0.24775761 -0.1392965 -0.019683957
000270 e4 92 e1 be 1c 8b 08 3e e6 c2 fe bd ab 91 57 3e
       -0.4405738 0.13334316 -0.12439518 0.21051662
000280 da be b7 3e e0 cd 10 bf c0 cd bf 3e 3a 9f b6 3e
       0.35887796 -0.5656414 0.37461662 0.35668355
000290 ee 53 09 be 07 ad 60 be 2d 80 c8 be 4b af 55 be
       -0.13410923 -0.21941005 -0.3916029 -0.2086765
0002a0 fd 14 14 be f7 fc 03 3e 3e ce 8e 3d 53 80 5a be
       -0.14461131 0.12889467 0.06972931 -0.21338014
0002b0 bf 44 d7 3e cf f3 54 3e 04 b1 7c 3e 14 e2 69 be
       0.42044637 0.2079613 0.24676901 -0.22840148
0002c0 f7 37 b2 3e 39 ce 5c be 11 34 af 3e 62 21 88 be
       0.34808323 -0.21563043 0.3421941 -0.2658797
0002d0 c8 0c 03 3d ea 99 44 3e 3c 8e a4 3e 5b 67 8c bd
       0.03199461 0.19199339 0.32139766 -0.06855651
0002e0 5e 42 ad 3e 36 3b a2 3d 33 a3 31 3e 98 be 39 3e
       0.33839697 0.0792145 0.17347412 0.18139112
0002f0 ed 72 b6 be e5 9c a0 be 31 e2 fd 3d 07 b2 63 bd
       -0.35634556 -0.313697 0.12396658 -0.055589702
000300 45 39 67 3e 9b 77 8f 3e 1a 93 ff 3d f2 61 2b 3e
       0.2258044 0.2802094 0.12479229 0.16736582
000310 11 6f f5 3b e4 42 b6 3d 9b ca 0a bf b5 c8 44 3e
       0.007490047 0.08899477 -0.542154 0.19217189
000320 66 4b 5a 3e c6 f8 c4 be f4 ee 20 3e 63 78 bd be
       0.21317825 -0.3847105 0.15716153 -0.3700591
000330 fe 9e 89 3e 6e d2 08 bf 38 1e 11 bf 5d d7 33 be
       0.26879114 -0.5344609 -0.56686735 -0.17562623
000340 63 76 a7 3e c0 80 7d be c0 34 03 3e 1b 7b b1 be
       0.3270751 -0.24756145 0.12813091 -0.34664235
000350 3d 47 9a 3e a7 d4 97 3d 3d ad 3c be 47 c4 d4 3e
       0.30132475 0.07413607 -0.1842546 0.41555998
000360 97 9e 76 be 66 52 58 be 7f d4 96 bd 7e c3 3f 3e
       -0.24083935 -0.21125183 -0.07364749 0.18726918
000370 a1 75 9c 3e 20 94 9c 3e 21 06 43 bd 70 96 96 be
       0.30558494 0.3058176 -0.047613267 -0.2941165
000380 19 de ff bb ae e3 88 bb 5b 13 a5 3d dc 7b 8e bd
       -0.0078084585 -0.004177532 0.080603324 -0.06957218
000390 0c dd 21 be ee ca a9 3d b2 64 b4 3e 9c 5f 34 3e
       -0.15806979 0.08290659 0.35233074 0.17614597
0003a0 92 fa f3 bd 86 0d 8c 3d e4 d0 8b 3e 22 9b b7 3e
       -0.11913027 0.06838517 0.27307808 0.35860544
0003b0 27 57 09 3e e9 5b a3 3e 60 c3 9b be 82 eb be 3e
       0.13412152 0.3190606 -0.30422497 0.37289053
0003c0 59 ae 7f 3e 3f 38 79 3e bf fe 78 bd 4d 54 4c 3e
       0.24968852 0.24337862 -0.06078982 0.19954033
0003d0 52 03 aa 3e 5a fe 50 3e 6b 0d be 3e 92 a7 2e be
       0.33205658 0.20409527 0.37119612 -0.1705611
0003e0 97 41 e8 bd cc d0 81 bc fa 3d fd bd 3d 82 0f 3e
       -0.11340635 -0.015846632 -0.12365337 0.14014526
0003f0 02 03 aa bd 17 ef 87 be 67 b0 f7 3d 67 0a 89 be
       -0.08301355 -0.265496 0.12094193 -0.2676575

layer1.bias f4 [128]
000000 1c a0 75 be 6b 62 9e 3c b7 c0 9b bd 1b 15 13 3e
       -0.23986858 0.019334039 -0.07605117 0.1436352
000010 0a 26 bd 3e f9 dc fa 3d 5c 94 aa 3d c5 cd 40 3e
       0.36943084 0.122491784 0.083290786 0.18828495
000020 b2 99 73 be c9 22 fb bd 56 7a 6a 3e 40 9b 59 be
       -0.23789099 -0.12262494 0.2289823 -0.2125063
000030 84 9e 5d 3e c8 5f aa 3e 06 03 ad 3e c2 14 5a 3e
       0.216425 0.332762 0.3379137 0.21296981
000040 e5 74 d0 3b f5 e8 91 bc 72 25 92 3e 7e 03 79 3e
       0.006361591 -0.017811278 0.28544194 0.24317738
000050 70 40 a1 be 5f 0e ab 3e b8 85 5e 3d bf 16 81 3e
       -0.31494474 0.33409402 0.054326743 0.25212666
000060 81 b2 9e be 0d c8 22 3e 8e b4 10 be f2 41 cf 3e
       -0.30995563 0.15896626 -0.14131376 0.4048
000070 d5 13 4c be a0 a9 bc be a0 71 cf 3e 0f 65 b5 bd
       -0.1992944 -0.36848164 0.40516376 -0.08857166
000080 d6 ef 23 3e 5d 68 c1 3e f7 36 9a 3e 0b a1 a2 3e
       0.16009459 0.37774935 0.3012006 0.3176349
000090 5e 69 22 3e 1c 1f 2f bc 9a ef af 3e b3 87 44 3d
       0.15860507 -0.010688569 0.3436249 0.047980975
0000a0 75 bb 95 be 0c 04 ca 3e 61 c2 27 be 4e ae 92 bd
       -0.2924458 0.39456213 -0.16382743 -0.07162152
0000b0 ac 43 dd 3e dc 6c b5 3e 56 44 0a 3d ea e2 9d 3e
       0.43215692 0.35434616 0.033756576 0.30837184
0000c0 cc b3 36 be 15 d9 97 3e be 31 c9 3e a7 af ea 3e
       -0.17842025 0.29657808 0.39295763 0.45837137
0000d0 a6 d1 9c be 8e 82 aa 3d 91 b4 a0 3e bf e7 29 bd
       -0.306287 0.083256826 0.3138776 -0.041480776
0000e0 5e 11 12 bd c0 5a 8e 3e 28 25 91 be 62 e7 10 be
       -0.035661094 0.27803612 -0.2834866 -0.14150766
0000f0 d5 2a cb bd e5 aa 87 3e ec 1a 81 bd 40 55 46 be
       -0.09920279 0.2649757 -0.06303963 -0.19368458
000100 51 96 83 be a0 27 90 3d 36 9b f6 3d a7 73 c1 3c
       -0.2570062 0.07038808 0.12041323 0.023614718
000110 83 cb 5d bd 11 d3 1f 3d c0 20 43 be 4a 8d 33 be
       -0.054149162 0.039019648 -0.19055462 -0.17534366
000120 2a 58 b5 3e 26 76 c6 3e 1f ab 52 bd 53 a7 b7 3e
       0.35418826 0.38762015 -0.051432725 0.35869846
000130 8a 2a b9 3c be 52 40 3e 90 e9 84 3e 80 2b 50 be
       0.022603292 0.18781564 0.25959444 -0.20329094
000140 b5 43 ac 3e 6b 56 81 be ab 10 31 3e 3e 1e 02 3f
       0.33645406 -0.25261244 0.17291515 0.50827396
000150 09 07 9d 3e 8c 2f 92 be 58 92 ad be 7e 2d 94 bb
       0.3066943 -0.285519 -0.33900714 -0.0045220247
000160 7c 30 a4 3d 97 da e2 bc e0 eb 5e 3e 5e 2a 2a bd
       0.0801706 -0.027692122 0.21769667 -0.04154431
000170 50 be b0 3d d3 82 51 bd ec d2 0f be 12 6f 9f 3d
       0.08630049 -0.051150154 -0.14045304 0.07784857
000180 e8 0d b8 3e ea 0e 9d be b2 43 91 3e 6a 8b 8b 3e
       0.3594811 -0.3067544 0.2837196 0.27254802
000190 d5 f1 95 3e aa fb ce bd 79 d2 a4 3c 80 c9 cc 3d
       0.29286066 -0.10106595 0.020119892 0.099993706
0001a0 8f 72 4b 3d e9 4b a7 3e 9f 9f df bd bd 6d 84 be
       0.0496698 0.32675102 -0.10919117 -0.25864974
0001b0 7f cd 48 3e 8f b0 b1 be 66 e3 2a be 77 c2 51 3e
       0.1960964 -0.34705016 -0.16688308 0.20484339
0001c0 f1 38 d7 3e 99 81 5d 3d ec 50 1c be 73 d5 98 3e
       0.4203563 0.054078672 -0.15265244 0.2985035
0001d0 fe 39 a1 3e c9 22 18 3d 03 01 bd 3e d2 5e 09 3e
       0.31489557 0.03714255 0.36914834 0.13415077
0001e0 50 7d 77 3e e1 10 08 3e fb 60 74 be d7 79 39 3d
       0.24168897 0.13287689 -0.2386512 0.04528221
0001f0 65 ed d1 3e b9 ff bb 3e 96 9c af 3e 75 9d ad 3e
       0.4100143 0.36718538 0.34299153 0.33909193

layer2.weight f4 [128, 128]
000000 81 1b 5c 3d f7 a1 2e be b0 53 ef bd 50 0d e5 bc
       0.053737167 -0.17053972 -0.11685884 -0.02796045
000010 4c c0 ec 3d 51 81 46 3d 61 be 9f 3d c1 ac 83 3d
       0.11560115 0.04846317 0.07799984 0.064294346
000020 85 54 07 be 71 de f6 bc d8 78 27 3d 2e 09 42 be
       -0.13215835 -0.030135365 0.04088673 -0.18948814
000030 b4 22 aa be d6 96 1b be 1a 86 4f bd e5 91 49 be
       -0.332296 -0.15194258 -0.050665 -0.1968456
000040 69 c5 91 3d c8 a8 89 3d 36 4f 07 bc 20 9c ab bc
       0.07117731 0.067216456 -0.008258631 -0.02094847
000050 d2 8b 9c 3d 67 01 16 3e af 37 99 3d 32 91 bc 3e
       0.07643856 0.14648972 0.07481324 0.36829525
000060 f0 0d a6 3d ab 3f 34 be 15 fd c2 be b4 67 53 3c
       0.08108127 -0.17602412 -0.3808371 0.012903143
000070 df d5 60 bd 16 4c fe 3d 75 b8 54 3d 1c 18 24 3d
       -0.054891463 0.12416856 0.051933724 0.040062055
000080 5a f5 ad 3d c6 c3 76 3d dc bc 93 be 65 97 6e 3d
       0.08494063 0.060245298 -0.28855026 0.05824985
000090 e8 a7 c7 3d 5d 5d 53 3d b8 fc bb 3d 7b 8f 6e bc
       0.097488225 0.05160271 0.09179062 -0.014560576
0000a0 c8 00 27 bd 0f f7 ce 3d 83 4d 72 bd 27 96 84 3e
       -0.04077223 0.101057164 -0.059155952 0.25895807
0000b0 5d c4 b1 3d 42 3e 20 3d e8 e6 08 3d 33 c3 5a ba
       0.086800314 0.039121874 0.033423334 -0.0008345127
0000c0 16 12 57 3d 15 89 46 be 5d 43 84 3d 3d 9d e1 3d
       0.052507482 -0.1938823 0.06458161 0.11016319
0000d0 cb 5a f0 bc 16 a4 93 bc c8 68 d2 3c a2 55 5d be
       -0.029340168 -0.018022578 0.02568473 -0.21614698
0000e0 ff c2 7f 3e 99 bc d6 3d 9a 59 bd bc a1 bd 45 3c
       0.24976729 0.10485191 -0.023114014 0.012069137
0000f0 1a 9c 2f 3d f1 3c 53 be 01 30 05 3e c9 be a6 bd
       0.04287348 -0.20628716 0.13006593 -0.08141858
000100 da 3e d8 bc d0 fa 6f 3d 95 b7 af 3d 13 64 79 3d
       -0.026397157 0.058588803 0.08579937 0.060886454
000110 b6 d7 87 3d 6d 1c f5 3c bc 47 24 3d 1a de 47 bd
       0.066329405 0.029920781 0.040107474 -0.048795797
000120 74 9c e0 3d bd ce 17 3c ed a2 47 bd 13 06 80 be
       0.10967341 0.009265599 -0.048739363 -0.25004634
000130 d3 59 62 3d af fc 8d be 58 61 ae 3c a1 81 1f bd
       0.055261444 -0.27731845 0.021286651 -0.038941983
000140 9c 3f 39 3e 57 d4 a4 bd 7c 63 3b 3d e1 36 ca 3d
       0.18090671 -0.08048313 0.045749173 0.098737486
000150 77 aa f5 3c 05 dd d7 3c da 52 a6 3d 0d 3e 24 be
       0.02998851 0.026350508 0.081212714 -0.16039295
000160 8b f5 0c 3e 51 91 4c 3e 4c aa 15 3e 5b c1 b6 3d
       0.13765542 0.19977309 0.14615744 0.089235984
000170 32 f3 8b 3c b6 1e 15 bd a6 90 82 3d e6 60 91 3d
       0.017083738 -0.03640624 0.06375246 0.0709856
000180 09 6f c3 3d e9 a7 66 3a 61 81 67 3d 1a 86 29 3c
       0.09542663 0.0008798824 0.05651987 0.010346914
000190 17 ee 27 3d 59 d3 96 be bc f3 73 3c b2 1d 8c 3e
       0.040998545 -0.2945812 0.014889654 0.27366406
0001a0 c7 c5 74 3d 4e d4 bd 3c 01 a1 61 be f3 2a 9e bd
       0.059758928 0.023172524 -0.22034074 -0.07723036
0001b0 f9 f6 d8 3d 4a 9c f3 3c 23 e0 73 3d 9d 79 53 3d
       0.10593981 0.02973761 0.059539925 0.05162965
0001c0 d4 ae 82 3c cd 4b 6f bd a7 5d 6f bd 9c 6e b8 3d
       0.015952505 -0.0584219 -0.058438923 0.09005472
0001d0 70 d6 83 bc 7e 9a b7 3d 9b d9 a5 3d c0 9f 94 3c
       -0.016093463 0.08965014 0.080981456 0.018142581
0001e0 3e 78 e9 3d 53 bf 41 3c 5e c0 d1 bc cb e4 9d bd
       0.113998875 0.0118254 -0.025604423 -0.077096544
0001f0 7b dd c0 3d 48 c2 7d bd 64 9d e2 be 20 8d c7 bc
       0.09417244 -0.06195286 -0.44260705 -0.024359286
000200 2d d0 0b 3d 4c 89 38 3d a0 70 d2 bc f3 6e b9 3c
       0.03413408 0.04505281 -0.02568847 0.022635913
000210 7e 89 7a bc ad 08 71 bc 32 0c 13 bb c6 82 e4 bc
       -0.01529157 -0.014711541 -0.002243769 -0.027894389
000220 f5 47 e1 bc 60 25 19 bd 89 21 3b 3d e9 96 d8 3b
       -0.027500132 -0.03738916 0.04568628 0.006609787
000230 cf a5 94 bd ce 1c 4e 3c ec 7d 98 bd f3 a0 44 bd
       -0.07258188 0.01258011 -0.07445893 -0.048005056
000240 3c e4 ae ba ed 89 75 3b 92 94 90 bb 1b d0 a5 bd
       -0.0013343166 0.0037466243 -0.004412242 -0.080963336
000250 2a 30 cf bc 10 24 98 bc d8 7a 35 3d 8f 20 65 3b
       -0.025291521 -0.018571883 0.044306606 0.0034962033
000260 8a e8 38 bc 5c 54 53 bd a8 8e 86 3d 57 5d 11 bd
       -0.01128591 -0.051594123 0.06570178 -0.035489406
000270 31 79 64 bd ed ac ee ba e3 09 8a 3d 57 a2 1f bb
       -0.05577964 -0.0018209495 0.06740167 -0.0024358237
000280 9f 0d 91 3d ad 66 2b bb 77 ca a1 3c 6a 49 d0 bc
       0.07082676 -0.0026153729 0.019749863 -0.025425632
000290 62 57 8f 3b fb ce 68 bd e6 e0 9d 3c 13 9a fd 3c
       0.0043744305 -0.056838017 0.019272279 0.030957257
0002a0 e0 c4 56 bd 5a 1f 4e bd bb 78 5f 3d e8 39 a0 bd
       -0.05243385 -0.050322868 0.054558497 -0.07823545
0002b0 9c ab 47 3d dd cb 1d bd 65 ca 04 bd 5a bf ea 3c
       0.048747644 -0.038524497 -0.03241958 0.028655697
0002c0 11 b3 22 bd 16 ab cb 3b 93 a1 8f 3d ce 18 05 bd
       -0.039721552 0.0062154634 0.0701324 -0.03249436
0002d0 b3 6b 4e bc 57 b4 9e ba 99 4a 83 bd 5d 3c f9 bc
       -0.01259892 -0.0012108189 -0.06410713 -0.030424291
0002e0 a9 c5 3a 3d a4 eb 49 3d 4b 70 c9 3c 41 b5 58 3d
       0.04559866 0.04929699 0.024589678 0.052907232
0002f0 ec 8f dc bc df 2a 57 bd e0 e1 ce bc d8 2c 49 bc
       -0.026924096 -0.05253112 -0.02525419 -0.012278758
000300 19 80 e1 3c e2 07 87 bd 97 21 17 bd c5 ac 27 3c
       0.027526902 -0.065933004 -0.03689727 0.010234063
000310 24 9f 13 3d 3f a1 9e 3c 91 70 20 3d d2 44 05 bd
       0.03604044 0.019363998 0.03916985 -0.032536335
000320 11 3b 97 bc 4b ef 6d bd b1 20 6b bb 95 66 94 3d
       -0.018460782 -0.058089536 -0.003587764 0.072461285
000330 c3 57 7a bd 20 be 28 bd 79 32 2e bd da 34 7d 3d
       -0.061118852 -0.041196942 -0.042528603 0.06181798
000340 73 f4 8e 3d e7 e8 9f bd 4d b6 6a 3d 39 9e 49 3d
       0.06980219 -0.078080945 0.05730276 0.04922316
000350 64 a7 48 3b 04 8c 17 bc a8 cb 34 3c 4a 22 30 3d
       0.003061735 -0.009249691 0.011034884 0.04300145
000360 61 3e 9b bc 32 c0 1f bd dc 9f f8 bb 2e 71 aa 3b
       -0.018950643 -0.03900165 -0.007587416 0.0052014804
000370 aa e5 f7 3c bd 20 ad 3c f8 ca 8b bd d0 8a 35 3d
       0.03026088 0.021133775 -0.068258226 0.044321835
000380 6b eb 21 bd d0 36 29 3d 36 53 cd bb 01 dc 9e bd
       -0.039531153 0.04131204 -0.006266023 -0.07756806
000390 ad ac 35 3d 4e 30 85 bd a1 28 a3 3d 03 cd a1 bc
       0.04435413 -0.06503354 0.07966734 -0.019751078
0003a0 9c d6 89 3c 60 ea d7 3c a4 37 08 3d 8a ce 97 3d
       0.016825967 0.026356876 0.033256188 0.07412441
0003b0 a2 39 f0 3a 1f 82 66 bd 45 40 72 3d 7f 29 1f 3c
       0.0018327723 -0.056276437 0.059143323 0.009714483
0003c0 c2 6b 1a bd 8f 30 a2 bd 8b 0c 94 bd f5 ec 63 bd
       -0.037700422 -0.07919418 -0.07228955 -0.0556459
0003d0 10 1e 25 bd e0 fc 18 3d 09 c0 ea bc d8 e6 77 bc
       -0.040311873 0.037350535 -0.028656023 -0.015130721
0003e0 6e 32 19 bb 24 d7 a2 3d 9c f3 4e 3d d4 6e 51 bd
       -0.0023376006 0.07951191 0.050525293 -0.051131085
0003f0 ed ac 9c bd 4f 59 6a bc 3e 10 89 3c 66 bb 9b bd
       -0.076501705 -0.014303519 0.016731378 -0.07604103

layer2.bias f4 [128]
000000 50 8d 54 3d 81 85 80 bd 81 b9 1d bd b1 00 d5 3d
       0.05189258 -0.06275464 -0.03850699 0.104005225
000010 a5 ac 8b 3c bc 6a 8f 3d 37 96 65 3d 41 6a d4 bc
       0.017050097 0.0700278 0.05605146 -0.025929572
000020 ec 24 39 3d de 28 ba bb 3e 56 2b bd 8f be 59 bd
       0.045201227 -0.0056811413 -0.041830294 -0.053160246
000030 e1 8b be 3b c2 23 ef bc f2 1d 1d bc 97 af 12 bc
       0.0058150147 -0.029191855 -0.009589659 -0.008952997
000040 f2 3d f5 ba bb 87 d4 3d 5e d2 33 3d d6 a5 25 3c
       -0.0018710478 0.10377451 0.043901794 0.010110339
000050 62 2c 29 3d 70 2a 2c 3d e7 e0 ac 3c 6d 4b 09 bd
       0.041302092 0.04203266 0.021103336 -0.033519197
000060 a5 9d 44 bd e9 4c 60 bc bc e6 23 bd 1b 88 ab 3c
       -0.048001904 -0.013690212 -0.040014967 0.020938924
000070 08 e4 87 3d 8d f1 7d 3d 37 70 01 3e dd f3 bb bd
       0.066352904 0.06199794 0.12640463 -0.091773726
000080 f0 56 95 bd f3 53 52 bd b1 b6 3f bc 60 2e 1b 3d
       -0.07291973 -0.05134959 -0.011701272 0.037886024
000090 65 17 c8 3d f1 48 f2 3b 11 e8 3b 3d 38 25 78 3d
       0.09770087 0.007393949 0.045875613 0.06058237
0000a0 2c ec 35 bb 49 6f a4 bd 2b af ad 3d e1 fa ea 3c
       -0.0027759178 -0.080290385 0.08480676 0.028684082
0000b0 60 f9 0e 3d 19 1e 68 3d 9c b9 b0 3d f8 e8 3c ba
       0.03490579 0.05666933 0.08629152 -0.0007206346
0000c0 86 a7 5c 3d aa 60 45 bd e1 0b 09 3e 83 f2 90 3d
       0.0538707 -0.04818789 0.13383438 0.070775054
0000d0 eb f4 1f bd c6 2f d6 3c 55 91 df 3d 3d 2f d6 3d
       -0.03905193 0.026145827 0.10916392 0.10458229
0000e0 8a 18 6c 3b 2c c8 02 3e c4 d6 fd bc 06 83 04 3e
       0.0036025369 0.12771672 -0.030986197 0.12940606
0000f0 49 4c 51 3d a6 d6 2e 3d 6e 7a a7 3d 75 83 0d bd
       0.05109814 0.042685173 0.081776485 -0.034549195
000100 64 2d 0e 3d a4 7b 2f 3c e1 13 65 3d aa bf d3 bc
       0.034711257 0.010710631 0.05592716 -0.025848228
000110 7f a8 28 3d 02 8a 5f bd af d3 43 bd d6 b5 c6 3d
       0.041176315 -0.054574974 -0.0478093 0.09702651
000120 4b 4b 12 bd 3d 7e cd 3c 70 27 0d bd 79 d1 d2 3c
       -0.035716336 0.02508461 -0.03446144 0.02573465
000130 4f 3c f3 3d b7 68 a4 bd 71 f7 82 3d 58 ef 55 3d
       0.11876737 -0.08027785 0.06394852 0.05223021
000140 ea 86 31 3c 7a 1d d8 3d 3b 9c 44 bd f1 cf 96 3c
       0.010835389 0.10552497 -0.048000555 0.018409701
000150 fc 06 ee 3c 7f 4f 0e bd b5 34 8c 3d 05 02 6c 3d
       0.029056065 -0.034743782 0.068459906 0.057619113
000160 79 b3 49 3d 7d 7a 17 3d 04 1e dd 3d ec db a9 bd
       0.049243424 0.03698205 0.10796741 -0.082939
000170 83 74 9d bd 1e 74 87 3c 73 d5 e6 3d 9b 2f 1b bd
       -0.076882385 0.016534861 0.11271181 -0.037887197
000180 f4 48 98 3c f5 f1 6c 3d 83 6e 17 3d 73 f1 d4 3d
       0.018589474 0.057847936 0.036970627 0.10397615
000190 a5 3f fd 3c df f7 1b bd 84 9c 89 bd 60 ba a3 bc
       0.030914137 -0.038078185 -0.06719306 -0.019986331
0001a0 ba 63 11 bc a8 b0 8e bd 92 cf a2 bd 0b 6e a0 bc
       -0.008873874 -0.06967288 -0.07949747 -0.019583723
0001b0 0a dc ff 3d 60 31 12 bd 28 a3 8b 3c cb 31 eb bc
       0.12493141 -0.03569162 0.017045572 -0.028710267
0001c0 bc 82 08 3d ad ca 14 bd ea 3f 8f bd 52 5f b7 3c
       0.033327803 -0.0363261 -0.069946125 0.02238432
0001d0 51 1b 35 ba 12 ac 67 bd 03 83 ae 3d de f9 0b 3c
       -0.00069086725 -0.056560583 0.08521082 0.00854346
0001e0 db d3 6c bd 83 70 51 bd 52 70 d5 3d 22 05 fd 3b
       -0.05781923 -0.05113269 0.10421814 0.007721559
0001f0 1a f8 0c bd 44 58 d5 3d 6d d8 80 3d c3 9b 75 3c
       -0.034416296 0.10417226 0.0629128 0.01499075

layer3.weight f4 [9, 128]
000000 ca 45 cd 3d f4 2f 09 3a 8d 4e 06 b9 ce 62 20 3e
       0.10023077 0.0005233281 -0.00012808498 0.15662691
000010 ad c0 4a be 06 03 9d bd 1a ff ea 3d 09 2c 0b bd
       -0.19800062 -0.07666592 0.11474438 -0.033977542
000020 05 cb ba 3b be f6 fd ba 16 55 72 3d b0 af 3e be
       0.0057004713 -0.0019375903 0.059163176 -0.18621707
000030 c2 fa 95 3d 42 42 25 bd 85 68 1e 3d 82 92 45 3d
       0.07323219 -0.04034639 0.038673896 0.048235424
000040 35 43 21 be bc 24 f0 3d 52 70 7e 3b 80 10 0e 3e
       -0.15748294 0.117257565 0.0038824272 0.13873482
000050 2f a7 e4 bd 41 5b fa 3d e7 fc b6 3d 57 02 95 3d
       -0.111647 0.122244366 0.08934956 0.07275837
000060 7f ed 34 bd 9a 27 f2 be 4c 58 a5 3d f5 4b 7a bc
       -0.044171806 -0.4729584 0.08073482 -0.015276899
000070 f0 34 d5 bc 1e d3 19 3d e0 46 cf 3d 04 13 91 be
       -0.02602622 0.037554853 0.1012094 -0.2833482
000080 d3 ab f6 bc 12 b7 32 be f6 33 3c bd 4a 4e b3 3d
       -0.030111229 -0.17452648 -0.04594799 0.08755167
000090 a4 37 fb 3c b1 ec 6b be cc 8a b5 3d fe bd 02 3e
       0.03066618 -0.2303951 0.08864364 0.12767789
0000a0 b0 3a d1 3c ba 86 e3 bc 09 a2 fe 3d 7c ae a8 3e
       0.02554068 -0.027774204 0.124332495 0.3294562
0000b0 ab ba 04 3e 94 9a c4 3e 43 ac d1 3e a4 f2 3d 3d
       0.12961833 0.38399184 0.40951738 0.04637398
0000c0 50 c5 19 3d 58 91 bc 3e cd 3d a1 3d a4 47 b9 3d
       0.037541687 0.36829638 0.07873116 0.090468675
0000d0 7f 2e f4 3d 59 08 2d 3d c4 20 1f 3e 18 ec fd 3c
       0.11922931 0.04224429 0.15539843 0.030996367
0000e0 18 08 84 3d 34 a7 7b bc 88 8d c2 3b 3c 3f b0 3d
       0.06446856 -0.015359689 0.005937282 0.08605811
0000f0 e5 57 d4 3c ad 04 16 3d dc a0 4a 3c 12 48 a6 3d
       0.025920818 0.036625553 0.012367453 0.08119215
000100 15 4f a0 3d 33 77 2e be a5 1d 09 3e 76 16 a0 bd
       0.07827584 -0.17037658 0.13390215 -0.07816784
000110 52 2c 0f be 50 76 4e 3e ff a1 92 bd 86 21 03 3e
       -0.1398175 0.2016232 -0.071598046 0.12805757
000120 b7 52 88 bd 0d 65 e5 ba ca 84 41 3d 25 57 23 ba
       -0.066564016 -0.0017501429 0.04724578 -0.0006230942
000130 db 77 c9 3d 10 48 46 be 4b 81 86 bb b0 eb 5a bd
       0.09837314 -0.19363427 -0.0041047684 -0.053447425
000140 79 96 21 3d 1d c6 4b 3d d2 ce 23 bd 90 66 43 3d
       0.039450143 0.049749482 -0.03999216 0.047705233
000150 29 93 a7 bc 27 0c 50 bd 0d 50 b9 3d 76 7d 22 3b
       -0.020455914 -0.05079284 0.090484716 0.0024794019
000160 fc 15 8d 3d ae 02 d4 3d 3e 98 00 3e b3 fe 83 bd
       0.06888959 0.103520736 0.12558076 -0.064450644
000170 78 5f a2 bd 76 32 1e bc 4b 82 d4 3d 1f f6 95 be
       -0.079283655 -0.0096555855 0.10376414 -0.29289338
000180 fd 09 91 3d 9c 40 9d be e0 9c 35 3d 48 f3 bb 3d
       0.07081983 -0.30713356 0.04433906 0.091772616
000190 d3 78 4f 3e f1 1e 4d bd a7 df 34 bd 66 bd da bb
       0.20260935 -0.050078336 -0.044158604 -0.00667541
0001a0 2d 85 94 be 5a 24 74 3d 9b 42 a3 be 4a ca 29 bc
       -0.29007855 0.05960498 -0.31886753 -0.010363171
0001b0 29 b2 98 3d d8 49 99 3d a7 94 7b 3c f0 9e 4c bd
       0.07455856 0.07484788 0.015355266 -0.049956262
0001c0 f1 c1 99 3c 87 91 85 3e 06 d4 60 bc 9b 98 64 3d
       0.018769236 0.2608759 -0.013722425 0.0558096
0001d0 e8 84 1c 3e b1 49 75 be 2c 5a 47 3e b6 7a 05 3e
       0.15285075 -0.23953892 0.19467992 0.13035092
0001e0 4e bc 37 be f7 fd a9 bd 51 90 46 3e b3 25 ee 3d
       -0.17942926 -0.08300393 0.1939099 0.11628284
0001f0 2b 08 8f 3d 61 82 dc 3d 50 3a 21 3d 28 1e 45 bd
       0.0698398 0.10767055 0.03936225 -0.048124462
000200 c1 d3 fe 3d c6 4c 9a bc 5f 45 72 bc 10 9e 09 3d
       0.124427326 -0.018835437 -0.014787047 0.033598006
000210 05 40 17 be 13 c9 29 bd 80 95 72 3d c4 08 24 bc
       -0.14770515 -0.041451525 0.059224606 -0.0100118555
000220 4a eb 95 bd 2e 5e b0 bc 5e 9f c8 3d 4c df 08 be
       -0.073202685 -0.021529283 0.09796022 -0.13366431
000230 6e b1 93 3c 71 25 48 3d 96 8b 0d 3e 97 ba 79 3c
       0.018028941 0.048863832 0.13822779 0.01524224
000240 80 31 8c be d4 0c 51 3d 92 f2 c6 bb 76 0b 56 3d
       -0.27381516 0.051037624 -0.006071397 0.052257024
000250 b3 10 84 bd e1 30 bc 3c 94 e5 95 3d 63 74 4a bd
       -0.064484976 0.022972526 0.07319179 -0.0494274
000260 a2 64 1c 3d 32 c1 e1 be ba 8e 95 bd f9 5c 43 3d
       0.03818191 -0.4409271 -0.073026136 0.047696088
000270 a1 9a 81 bd 00 c3 d7 3d a0 e8 ec 3d 5a 7b 92 be
       -0.06328321 0.1053524 0.11567807 -0.28609735
000280 8c 1e df 3c f4 6e 48 be 64 5a 8f bc 0f 0a 83 3d
       0.027236246 -0.19573575 -0.017499156 0.06398403
000290 2c 8d 28 3e 46 7e 5f be 72 5f c1 3d 0e 26 be 3c
       0.16460103 -0.21825513 0.09442033 0.023211505
0002a0 02 03 1c 3d 8a f2 b1 3c dd 2c 0b 3d ed de 8e 3e
       0.038088806 0.021722097 0.03397833 0.27904454
0002b0 d4 9a 16 3e a0 0e b7 3e 7a c5 92 3e 8d 81 d3 3c
       0.147075 0.35753345 0.28666288 0.02581861
0002c0 5b f1 89 bc 94 46 9e 3e cc e4 05 3e 7f bd 91 3d
       -0.01683872 0.30913222 0.1307556 0.07116222
0002d0 a5 58 0d 3e ec b6 d8 3d 05 cf a2 3d 30 86 f7 3d
       0.13803346 0.105817646 0.07949642 0.12086141
0002e0 35 c4 d0 3d 60 cc cd 3d 9e e6 ea bc e8 5b 33 3c
       0.101936735 0.10048747 -0.02867442 0.010947205
0002f0 59 bc b5 bc 30 63 39 bd b6 2a cc 3d ca e7 5c bb
       -0.022184538 -0.04526061 0.09969084 -0.0033707493
000300 59 72 6e 3d 1e c6 1e be 52 4e ce 3c a2 a2 39 3d
       0.05821452 -0.15505263 0.02518383 0.045321114
000310 19 eb 92 be 74 93 4d 3e 67 82 f5 3c d0 0d a9 3d
       -0.2869499 0.2007578 0.029969407 0.08254588
000320 f3 36 49 3d 83 58 b3 3d 73 37 12 3d 40 02 1e 3c
       0.04912467 0.08757117 0.03569741 0.009644091
000330 d2 9a b2 bc 0b 95 33 be e8 8d 7f bb c9 83 a8 bc
       -0.02180234 -0.17537324 -0.0038994495 -0.020570653
000340 e5 20 46 3d 1f b7 c0 3d bd 2c 06 3c 5c 14 72 3d
       0.048371214 0.094099276 0.008189377 0.059101447
000350 5f 4c bf 3b b0 7c 2a 3c 60 bb 89 3d 8a ca 18 3c
       0.0058379616 0.010405704 0.06725192 0.009325633
000360 d3 1f 4b 3d ac d3 35 3e dd 98 01 3e 0f 25 06 3d
       0.049590897 0.17756528 0.12655969 0.032750186
000370 18 6b 71 3d cd df 6d 3d cb b3 df 3c 5e 1a b9 be
       0.058940023 0.05807476 0.027307412 -0.3615293
000380 fe be 66 3c 9d 4d 18 be 1a 47 6a bd 07 54 b2 3d
       0.014083622 -0.14873357 -0.057196714 0.08707433
000390 f3 84 46 3e 0d 0e 36 bd b0 3d 13 bd 87 ff 52 bd
       0.19386654 -0.044446994 -0.0359475 -0.05151322
0003a0 cc e4 6d be 8d 61 81 3c ca d3 9a be fa 81 8c bd
       -0.2323181 0.015793586 -0.30239707 -0.068607286
0003b0 a3 dd 15 3e ab 82 7a bd bd b3 87 3d af 54 ba bd
       0.14635329 -0.06115977 0.06626079 -0.09098183
0003c0 97 bb 56 3d 2b 4f 58 3e 2e ed 28 3d 74 88 b6 ba
       0.052424993 0.2112395 0.041241817 -0.0013926164
0003d0 55 0a 17 3e e4 72 4f be 2f e7 95 3e 0e 3e 0a 3e
       0.14750035 -0.20258671 0.29277942 0.13500234
0003e0 27 46 20 be 44 9d 2f bc 0e 25 52 3e e5 cc 95 3d
       -0.15651761 -0.010718647 0.20521948 0.07314471
0003f0 dd 7f 81 bd 61 36 e9 3d ba c1 20 3e f2 a7 80 3d
       -0.06323216 0.11387325 0.15698901 0.06282033

layer3.bias f4 [9]
000000 ba df 9a bc 75 ad b4 3d b1 25 45 3d 30 ca f8 bc
       -0.01890551 0.08822147 0.04813165 -0.030369848
000010 6e c3 97 3d 00 d9 8e 3d 7d be 98 bc 41 f6 85 bc
       0.07410322 0.06974983 -0.01864552 -0.016352775
000020 44 24 02 3e
       0.12709147
