Assets/Models/saddas.model (torch, 76542 bytes, 6 tensors)

layer1.weight f4 [128, 6]
0.32190046 -0.31596246 0.1683689 -0.21158478 -0.029812906 0.3194825 0.3457202 0.09840116
0.4175923 -0.07320578 0.2181553 0.33038095 0.43596575 0.006228295 -0.31771445 -0.37902045
0.28565216 0.41460267 -0.26278466 -0.30915853 0.33947423 -0.014172989 0.080409005 0.352902
0.29802608 0.37365374 -0.019658756 -0.23454216 0.3400485 0.34368506 -0.12605803 -0.19934832
-0.27968556 0.15274468 -0.08827695 -0.25223303 -0.23938875 -0.31268623 -0.17843942 0.3981148
-0.21493834 0.29145515 0.1024403 -0.19773872 0.13263051 0.02475775 0.16777878 0.4245763
0.3637861 0.125465 -0.21124864 0.10438942 -0.29722476 0.07845962 0.044574764 -0.009140012
0.2904678 0.32557628 -0.05298564 -0.19065115 -0.07896889 -0.19008231 -0.020845586 -0.13144793
-0.23400943 0.09691622 0.041982025 0.30836192 0.10622508 -0.06914068 0.24197802 0.08619756
-0.12784393 0.262865 0.459385 0.31068218 0.019406063 -0.20248337 -0.20208722 0.18484773
0.31144792 0.22784792 -0.15356085 0.10548185 -0.034283515 -0.38721794 0.084887534 -0.07279925
0.057498097 -0.32266337 0.00036926472 -0.040872376 -0.10198289 0.32272422 0.20923807 -0.23064998
-0.1290063 0.28340992 -0.040170368 -0.38504538 -0.32721624 -0.35477057 -0.18584085 0.17595762
-0.1565583 -0.07071598 -0.030475674 -0.4414355 0.27530754 -0.031221945 -0.13856487 0.05051922
-0.2671606 0.29758385 0.33451208 0.12786256 0.13545345 -0.19736475 -0.06698733 -0.31093472
0.045188807 0.051957376 0.41430527 0.072858095 0.035549954 -0.30950102 0.1435606 -0.14886047
0.09547998 0.07219166 -0.014853055 0.38277426 -0.1995993 0.08176849 0.03733476 -0.243826
0.36555657 0.15695105 0.056432404 0.2132964 0.2800685 -0.4241029 -0.33230448 -0.0636745
0.14248422 -0.37462828 -0.19925249 0.06862312 -0.20851727 -0.39284313 0.08769839 0.27766633
0.24192311 0.14051098 -0.21401495 0.39009446 0.24648587 -0.103462115 -0.20866498 0.19831763
-0.38455415 0.38964853 0.19054504 -0.20028925 -0.23377478 0.11455836 0.28993216 0.21350446
0.11084083 -0.40660354 -0.043354716 -0.08320966 0.34890196 -0.27612177 0.3116508 0.2940153
0.4500705 -0.13785674 0.006818708 -0.03588757 -0.3902923 -0.18604836 0.2962165 -0.36194295
0.0076098326 -0.18689074 -0.3238182 -0.0919043 0.0469895 0.34793377 0.13008054 -0.31499243
0.33594266 0.3919308 -0.24615851 -0.2890333 -0.07879699 -0.37443444 -0.32793102 0.22307308
-0.21465324 0.13121402 0.1812409 0.20138979 0.4691199 0.41129398 -0.2473006 0.096095644
-0.12062059 -0.1051016 -0.21845838 -0.24469694 -0.01873402 0.27344158 -0.042411342 -0.14111349
-0.23048376 0.09174609 0.047221016 0.17689192 0.0673553 -0.25243428 -0.34097433 -0.0959638
-0.24452044 0.14484242 -0.22988383 0.17649108 -0.18413098 0.13362394 -0.20355086 -0.38889432
0.24025321 -0.40113467 -0.075224414 -0.3740216 -0.1594297 0.06248119 -0.2191109 -0.13785242
-0.15841489 -0.042016417 -0.008684151 0.36007535 -0.013723545 -0.21395451 0.10196394 0.4127467
0.25378257 -0.1818759 0.025183327 0.023248982 0.40267557 0.21868517 -0.3637963 -0.058179345
00000000: 23d0 a43e d5c5 a1be e668 2c3e aea9 58be
00000010: 323a f4bc 3693 a33e 3d02 b13e 8c86 c93d
00000020: a8ce d53e e9ec 95bd 1a64 5f3e b127 a93e
00000030: e736 df3e ba16 cc3b 78ab a2be f80e c2be
00000040: 0041 923e cd46 d43e b68b 86be 074a 9ebe
00000050: 91cf ad3e d335 68bc 7aad a43d 92af b43e
00000060: e096 983e 8b4f bf3e 660b a1bc d22b 70be
00000070: d61a ae3e 7df7 af3e 5b15 01be f721 4cbe
00000080: f232 8fbe 1a69 1c3e 8cca b4bd b024 81be
00000090: 5322 75be 6918 a0be d3b8 36be b4d5 cb3e
000000a0: cc18 5cbe 9c39 953e 38cc d13d 057c 4abe
000000b0: 4bd0 073e c4d0 ca3c 33ce 2b3e 1162 d93e
000000c0: 2c42 ba3e e679 003e 9051 58be 1fca d53d
000000d0: d82d 98be 70af a03d 0794 363d fdbf 15bc
000000e0: 32b8 943e efb1 a63e 7807 59bd 0e3a 43be
000000f0: 71ba a1bd f0a4 42be 5dc4 aabc 499a 06be
00000100: 2ba0 6fbe 037c c63d 58f5 2b3d 9de1 9d3e
00000110: 898c d93d a199 8dbd 16c9 773e 5988 b03d
00000120: 85e9 02be 3e96 863e 8334 eb3e bc11 9f3e
00000130: 77f9 9e3c cd57 4fbe f4ef 4ebe b948 3d3e
00000140: 1a76 9f3e f750 693e 0e3f 1dbe de06 d83d
00000150: df6c 0cbd 6e41 c6be 84d9 ad3d c617 95bd
00000160: 2083 6b3d 2234 a5be df99 c139 cb69 27bd
00000170: 68dc d0bd 1c3c a53e 8142 563e 822f 6cbe
00000180: 3a1a 04be 1b1b 913e af89 24bd ab24 c5be
00000190: e388 a7be 7da4 b5be 104d 3ebe 3c2e 343e
000001a0: d250 20be 8ad3 90bd 1fa8 f9bc d503 e2be
000001b0: 1cf5 8c3e 2ac5 ffbc f3e3 0dbe 3eed 4e3d
000001c0: 46c9 88be e95c 983e 2b45 ab3e 67ee 023e
000001d0: 4fb4 0a3e fc19 4abe a730 89bd d632 9fbe
000001e0: e617 393d 42d1 543d d21f d43e a036 953d
000001f0: d49c 113d eb76 9ebe 8d01 133e e16e 18be
00000200: 028b c33d 39d9 933d 3a5a 73bc fdfa c33e
00000210: c263 4cbe 3d76 a73d 55ec 183d 86ad 79be
00000220: 3b2a bb3e c7b7 203e aa25 673d 5f6a 5a3e
00000230: 2365 8f3e 0424 d9be d023 aabe c767 82bd
00000240: 62e7 113e 47cf bfbe d808 4cbe 478a 8c3d
00000250: 8d85 55be bc22 c9be 379b b33d 482a 8e3e
00000260: b1ba 773e 1ce2 0f3e bc26 5bbe 76ba c73e
00000270: cb66 7c3e f2e3 d3bd 46ac 55be c713 4b3e
00000280: 48e4 c4be 0380 c73e 3d1e 433e a018 4dbe
00000290: a862 6fbe 939d ea3d fd71 943e eaa0 5a3e
000002a0: 8400 e33d 572e d0be b794 31bd d469 aabd
000002b0: 47a3 b23e d55f 8dbe b290 9f3e 2c89 963e
000002c0: a46f e63e 512a 0dbe 786f df3b d8fe 12bd
000002d0: 64d4 c7be 7683 3ebe b0a9 973e 9650 b9be
000002e0: e75b f93b 4960 3fbe 80cb a5be 5238 bcbd
000002f0: 1078 403d 6024 b23e d533 053e b046 a1be
00000300: ad00 ac3e 27ab c83e fa10 7cbe 2cfc 93be
00000310: 5160 a1bd dfb5 bfbe 93e6 a7be 456d 643e
00000320: 0fce 5bbe f85c 063e 3797 393e 2039 4e3e
00000330: 7c30 f03e 2095 d23e 5e3c 7dbe cbcd c43d
00000340: ee07 f7bd 823f d7bd 8eb3 5fbe d691 7abe
00000350: 1678 99bc 8900 8c3e 84b7 2dbd 0e80 10be
00000360: ef03 6cbe 60e5 bb3d d36a 413d 2823 353e
00000370: 93f1 893d 113f 81be 3094 aebe ab88 c4bd
00000380: 9163 7abe 9251 143e ab66 6bbe 14ba 343e
00000390: d58c 3cbe b7d4 083e a36f 50be 281d c7be
000003a0: f004 763e 8661 cdbe 420f 9abd c27f bfbe
000003b0: 8a41 23be 47ec 7f3d 9c5e 60be 2f29 0dbe
000003c0: 8337 22be 6819 2cbd f847 0ebc cc5b b83e
000003d0: b8d8 60bc e416 5bbe 78d2 d03d 8953 d33e
000003e0: caef 813e ad3d 3abe 444d ce3c a674 be3c
000003f0: 7e2b ce3e 01ef 5f3e 8243 babe 774d 6ebd

layer1.bias f4 [128]
0.23300998 -0.041468907 0.3927747 -0.044691496 0.24436426 -0.31509244 -0.3555988 -0.03837061
-0.00375184 0.10695878 -0.20805018 -0.043959465 -0.33088052 0.13928628 -0.10278015 -0.06908187
0.08887034 0.06643487 -0.036449652 -0.18673943 0.4267557 0.3740564 0.15733227 -0.05696838
0.050265677 0.06083083 -0.29912975 -0.09555689 0.037009496 0.42317936 0.028481733 0.35642835
-0.3868418 0.09877023 -0.028003348 -0.35152036 -0.33181414 -0.065519 -0.2891153 -0.40044796
0.13948387 -0.2058498 0.032586105 0.09164663 0.3521164 0.14100814 -0.2106816 0.21523684
-0.26382282 0.00580365 -0.07402994 -0.30081183 0.09839665 0.42180973 0.12709439 0.40992433
-0.26486072 -0.24634689 0.08023078 0.29091656 -0.25113377 0.29083842 0.08261993 -0.14185546
0.25252232 0.3911323 -0.08838508 -0.062221363 0.26782057 0.363196 0.095619075 0.25902605
0.32402763 -0.18603866 -0.06787652 0.021537546 -0.36403814 0.23826094 -0.22319227 0.029773986
0.34308416 0.21313398 0.3326958 0.4012031 0.016630217 0.11168796 0.19277754 0.025759343
-0.18719836 -0.25956732 0.32345635 0.427427 0.16541333 0.110921435 0.044449564 0.12527972
0.24664941 -0.31190738 0.24525148 0.1473365 -0.39269498 0.28615054 0.24038874 -0.20904014
0.16421105 -0.09756497 -0.12117738 -0.3996237 -0.027225692 -0.33051106 0.27077693 0.068235286
-0.20723556 0.029780895 0.19560827 0.29735395 0.3637475 0.18516047 -0.34937316 0.3839672
0.33248398 0.32291913 0.35347772 0.4283528 0.32193464 0.2943561 0.23306523 0.19831772
00000000: 2b9a 6e3e 4ddb 29bd c419 c93e 6e0e 37bd
00000010: a03a 7a3e cc53 a1be 0c11 b6be 802a 1dbd
00000020: 6ee1 75bb 340d db3d 1b0b 55be d70e 34bd
00000030: 2c69 a9be 10a1 0e3e 667e d2bd cc7a 8dbd
00000040: a701 b63d 010f 883d 3b4c 15bd 9f38 3fbe
00000050: b97f da3e 5284 bf3e b61b 213e ad57 69bd
00000060: 62e3 4d3d c029 793d 8927 99be 55b3 c3bd
00000070: 4597 173d f7aa d83e 8652 e93c c77d b63e
00000080: 2110 c6be 0c48 ca3d 4767 e5bc 7afa b3be
00000090: 8be3 a9be d32e 86bd ec06 94be 8407 cdbe
000000a0: dcd4 0e3e 4aca 52be 0279 053d 3ab1 bb3d
000000b0: 9a48 b43e 7064 103e ebbc 57be 0c67 5c3e
000000c0: c913 87be 8b2c be3b 029d 97bd 0204 9abe
000000d0: 2f84 c93d 72f7 d73e 0825 023e 9ae1 d13e
000000e0: d39b 87be 5c42 7cbe 0950 a43d 04f3 943e
000000f0: 9b94 80be c6e8 943e a334 a93d 8f42 11be
00000100: 9b4a 813e 7e42 c83e 3d03 b5bd d4db 7ebd
00000110: c71f 893e d3f4 b93e efd3 c33d 109f 843e
00000120: f3e6 a53e eb80 3ebe d802 8bbd 826f b03c
00000130: 3563 babe adfa 733e 848c 64be 93e8 f33c
00000140: baa8 af3e cb3f 5a3e 1b57 aa3e 7e6a cd3e
00000150: 183c 883c a8bc e43d 7a67 453e 4205 d33c
00000160: edb0 3fbe 02e6 84be 129c a53e b6d7 da3e
00000170: 1d62 293e c72a e33d bf10 363d 5449 003e
00000180: aa91 7c3e 53b2 9fbe 3423 7b3e 61df 163e
00000190: 510f c9be 5382 923e 7728 763e 9e0e 56be
000001a0: f126 283e 25d0 c7bd d92b f8bd 7a9b ccbe
000001b0: 6a08 dfbc bf38 a9be 46a3 8a3e f1be 8b3d
000001c0: 8f35 54be 10f7 f33c 894d 483e c73e 983e
000001d0: 1d3d ba3e b59a 3d3e 0ae1 b2be 5997 c43e
000001e0: 573b aa3e a855 a53e 08fb b43e 0f51 db3e
000001f0: 9ed4 a43e d8b5 963e a7a8 6e3e cd13 4b3e

layer2.weight f4 [128, 128]
0.08225419 0.027814439 0.022914542 0.039509505 0.0577167 -0.026438605 -0.014596947 0.07758347
0.031656906 -0.07972961 -0.039839674 -0.016771153 -0.0110709295 -0.021234924 0.06519 0.07057804
0.04011813 -0.09974862 0.041397803 -0.08814354 -0.07392533 -0.012652503 -0.02566829 -0.016405066
-0.055154454 0.037114736 0.031382408 -0.010561193 0.06553087 -0.06975866 0.008465028 0.049701832
-0.06621376 0.01767779 -0.09634284 0.001426267 0.045377694 0.05566747 -0.021079125 -0.07806663
0.087082185 -0.019960761 -0.00030086393 -0.10303888 -0.0010238941 0.059495542 -0.010682614 -0.03821388
-0.07289734 0.026758777 0.046092007 -0.029569266 0.08865508 0.07218517 -0.017868508 -0.08722859
0.016808188 0.0088913785 -0.08810985 0.030592931 0.030024432 0.0477923 -0.019664092 -0.004631969
-0.0783749 0.037114773 0.071446285 0.056505036 -0.055829816 0.06331651 -0.013434056 0.04450181
0.00502581 0.07043761 0.005854197 -0.08125935 -0.051334206 0.015898852 0.06956347 -0.0039923247
-0.06666935 0.009057906 -0.092596225 -0.0017620212 0.08779255 0.017627157 0.020204887 0.054370042
0.07025013 -0.044252627 0.049897358 0.06721493 0.0011071838 -0.008975394 -0.059228815 0.048053738
-0.00192982 -0.039152596 0.015106946 -0.015426767 0.049562465 0.08177633 0.09781135 -0.06247487
-0.021324925 0.08224549 0.006647193 -0.024690688 0.046877358 0.017628182 -0.030978128 0.021018896
0.051821537 0.012506807 -0.04358056 -0.08769424 -0.05369555 -0.072322056 0.04706246 -0.033648312
-0.060657855 0.053740438 0.08392172 0.06297078 0.058545813 -0.03411379 0.035677094 0.06760331
-0.03992088 -0.010620881 0.010525432 -0.027871674 -0.030218467 0.050477073 0.05329059 -0.007316828
0.074513115 -0.06982922 -0.01345461 -0.08597528 -0.038359664 0.018268224 0.07457853 0.024288272
0.011858056 -0.07280847 -0.047170315 -0.086523354 0.0070978 0.015538222 0.011005182 -0.051007748
-0.058628887 -0.0072860196 -0.08161893 -0.013288746 -0.0757927 -0.044330616 0.013780438 0.056182142
0.07834345 -0.07738774 0.0078357225 -0.03054521 0.002120461 0.02905558 -0.078441 -0.07532506
-0.027967306 -0.0044767214 -0.060731657 -0.05873835 -0.031094352 -0.0044581695 -0.031944867 -0.07682816
0.040016826 -0.017386077 -0.020128744 0.066314384 0.07839599 -0.031914204 -0.037337665 -0.06727429
-0.006770667 -0.030726263 -0.016317053 0.07916036 -0.010598782 0.058316626 0.04065777 0.053154543
-0.008505902 -0.04260842 0.021539472 0.042124566 0.04719614 0.06825493 -0.06273963 -0.059503652
0.06791182 -0.030867668 -0.05635174 -0.05480712 0.02072622 -0.0151639385 0.0032280912 -0.06848926
0.04482702 -0.048801452 -0.08764982 -0.0727956 0.03729433 0.084325284 -0.020183178 0.016544616
0.078315616 0.028410735 -0.037617743 -0.0075506046 0.07863723 0.065251306 -0.045999255 0.084776945
-0.025580708 -0.03567961 0.022564411 -0.083287865 -0.06097356 0.046664495 0.052401885 -0.046866532
-0.042339113 -0.06802941 0.047782574 -0.05906508 -0.060596075 0.039876547 0.08143373 0.08086714
0.0076313275 0.021074655 -0.039681613 0.042889588 0.019988233 -0.0658382 0.041165303 0.08708858
-0.030608917 -0.025744226 0.083172604 0.061244357 -0.06243815 0.059952416 -0.087621406 0.03667727
00000000: e374 a83d 1bdb e33c 47b7 bb3c b8d4 213d
00000010: 5968 6c3d c695 d8bc 0828 6fbc 15e4 9e3d
00000020: acaa 013d 4749 a3bd ed2e 23bd a863 89bc
00000030: d862 35bc ddf4 adbc 5682 853d 388b 903d
00000040: e952 243d 0149 ccbd be90 293d 9a84 b4bd
00000050: 2a66 97bd 724c 4fbc 4e46 d2bc eb63 86bc
00000060: a3e9 61bd 9f05 183d d78a 003d db08 2dbc
00000070: 0c35 863d a1dd 8ebd e7b0 0a3c 2694 4b3d
00000080: 149b 87bd 03d1 903c 654f c5bd 94f1 ba3a
00000090: f6dd 393d 9303 643d 21ae acbc 66e1 9fbd
000000a0: 2558 b23d c084 a3bc 46bd 9db9 0c06 d3bd
000000b0: 2f34 86ba 99b1 733d 2106 2fbc 2886 1cbd
000000c0: 334b 95bd 3935 db3c f9ca 3c3d 3f3b f2bc
000000d0: cb90 b53d d2d5 933d fa60 92bc e7a4 b2bd
000000e0: 53b1 893c 25ad 113c f072 b4bd 079e fa3c
000000f0: ccf5 f53c dcc1 433d 9716 a1bc c6c7 97bb
00000100: 0583 a0bd a905 183d 6e52 923d d371 673d
00000110: cead 64bd 16ac 813d 841a 5cbc 8847 363d
00000120: 8daf a43b 9841 903d 90d4 bf3b 4d6b a6bd
00000130: d143 52bd 4f3e 823c 4b77 8e3d 0cd2 82bb
00000140: f189 88bd 9d67 143c 17a3 bdbd 9ff3 e6ba
00000150: 95cc b33d d466 903c b884 a53c 1fb3 5e3d
00000160: 4ddf 8f3d 3e42 35bd 2c61 4c3d fba7 893d
00000170: ec1e 913a 880d 13bc ea99 72bd ffd3 443d
00000180: 04f2 fcba 795e 20bd 2083 773c 8dc0 7cbc
00000190: 0302 4b3d 597a a73d 5151 c83d a6e5 7fbd
000001a0: 9cb1 aebc 5370 a83d b2d0 d93b 2044 cabc
000001b0: 7902 403d fa68 903c d8c5 fdbc d22f ac3c
000001c0: d242 543d 5ae9 4c3c 8781 32bd 0a99 b3bd
000001d0: ddef 5bbd 961d 94bd 91c4 403d d0d2 09bd
000001e0: 5f74 78bd ef1e 5c3d 27df ab3d d3f6 803d
000001f0: bccd 6f3d e7ba 0bbd 2522 123d 9b73 8a3d
00000200: 1484 23bd 3403 2ebc dd72 2c3c 2353 e4bc
00000210: b88c f7bc 0cc1 4e3d 3c47 5a3d 00c2 efbb
00000220: 559a 983d 9f02 8fbd b970 5cbc cf13 b0bd
00000230: 061f 1dbd 3ea7 953c a1bc 983d 33f8 c63c
00000240: 4b48 423c 9b1c 95bd a935 41bd 2833 b1bd
00000250: a994 e83b 0794 7e3c 144f 343c 80ed 50bd
00000260: d824 70bd 90bf eebb d327 a7bd 0ab9 59bc
00000270: 3439 9bbd 0594 35bd 59c7 613c 3f1f 663d
00000280: 8872 a03d 777d 9ebd 6761 003c f339 fabc
00000290: 6ff7 0a3b f805 ee3c ada5 a0bd 0644 9abd
000002a0: b11b e5bc 76b1 92bb c2c1 78bd a097 70bd
000002b0: 95b9 febc d615 92bb 9fd8 02bd 1558 9dbd
000002c0: afe8 233d 3f6d 8ebc 09e5 a4bc d6cf 873d
000002d0: 148e a03d 78b8 02bd 61ef 18bd 1ac7 89bd
000002e0: 79dc ddbb a5b5 fbbc 57ab 85bc d41e a23d
000002f0: 84a6 2dbc 6add 6e3d c388 263d 94b8 593d
00000300: 575c 0bbc 2b86 2ebd 8c73 b03c cf8a 2c3d
00000310: bd50 413d 3ec9 8b3d a37d 80bd 1aba 73bd
00000320: 5a15 8b3d 31de fcbc 15d1 66bd 6e7d 60bd
00000330: 09ca a93c 2b72 78bc 628e 533b 1944 8cbd
00000340: 8a9c 373d 08e4 47bd c081 b3bd dc15 95bd
00000350: f0c1 183d bcb2 ac3d 3157 a5bc 9388 873c
00000360: f063 a03d a1bd e83c 1015 1abd 106b f7bb
00000370: 8e0c a13d 7aa2 853d b769 3cbd 899f ad3d
00000380: a28e d1bc c824 12bd 00d9 b83c d492 aabd
00000390: 69bf 79bd 4523 3f3d 5ca3 563d 1ff7 3fbd
000003a0: c76b 2dbd 0153 8bbd a9b7 433d 3aee 71bd
000003b0: 9733 78bd 9755 233d bac6 a63d ac9d a53d
000003c0: 3710 fa3b c1a4 ac3c 3089 22bd feac 2f3d
000003d0: 5dbe a33c 2ed6 86bd f39c 283d 7f5b b23d
000003e0: 8dbf fabc 8ee5 d2bc 6656 aa3d 5ddb 7a3d
000003f0: 25bf 7fbd aa90 753d da72 b3bd e83a 163d

layer2.bias f4 [128]
0.07709865 -0.0144791305 -0.043014266 0.0922896 0.08137962 0.04083496 0.038607024 -0.050590586
-0.008443705 -0.050637066 0.059718817 0.025361106 0.028670527 0.01912813 0.10820421 0.039064053
0.04731542 0.041618627 -0.013233337 -0.043960746 0.014007133 0.027668655 -0.02415943 -0.021834478
-0.060984742 0.043822624 0.01474022 -0.036414225 -0.02892874 -0.017444985 0.01730333 0.020719739
0.033547197 0.078813076 0.04459568 -0.08929879 -0.00069061597 -0.037454654 0.05986483 0.033255253
-0.045634795 0.06138036 -0.058805123 -0.0028894127 -0.05486955 0.035876855 0.043028124 0.070731804
0.020289637 0.05048519 0.06477435 -0.06252787 -0.07755897 0.065262005 -0.0025963995 0.070287675
0.06338015 0.00982859 -0.0017697654 0.090146385 0.012274607 -0.08655956 0.0068678013 0.052906886
-0.0042640637 -0.03079381 -0.01835787 -0.015740106 -0.060146783 -0.08416684 0.052911535 -0.071638264
-0.00673431 -0.07822225 0.02725088 0.04242298 0.037845016 0.037548482 -0.011031649 0.0152842365
0.061511166 -0.052674036 0.08505828 0.07764107 -0.018377284 -0.021172905 -0.018384192 -0.03477409
0.061903466 0.061696522 0.07187505 0.04946776 -0.06865289 -0.042182513 0.08110925 0.0058268677
0.042399995 0.068270676 0.013507389 0.009268617 -0.0050716354 0.092027485 -0.07038325 0.062617175
-0.029689502 -0.06112193 0.10146426 -0.040748656 -0.012822436 -0.047935896 0.07763934 0.08647142
0.022555228 0.041086257 0.06367245 0.040971782 0.057348624 -0.041403964 0.009993748 0.034418937
-0.079191595 0.09686635 -0.050635234 -0.035201788 -0.0075224116 0.018993864 0.01927764 -0.063085385
00000000: e6e5 9d3d e039 6dbc ba2f 30bd 5402 bd3d
00000010: 5caa a63d 8f42 273d 6622 1e3d 1338 4fbd
00000020: 7757 0abc d068 4fbd b89b 743d 18c2 cf3c
00000030: 74de ea3c 99b2 9c3c 2b9a dd3d a101 203d
00000040: d0cd 413d 4b78 2a3d a3d0 58bc 2f10 34bd
00000050: 2d7e 653c 60a9 e23c ffe9 c5bc 38de b2bc
00000060: 23cb 79bd 5a7f 333d f780 713c 1527 15bd
00000070: f7fb ecbc c9e8 8ebc b7bf 8d3c 71bc a93c
00000080: c968 093d c068 a13d f6a9 363d 49e2 b6bd
00000090: 740a 35ba 0d6a 19bd d334 753d a936 083d
000000a0: 8deb 3abd f969 7b3d a4dd 70bd 4d5c 3dbb
000000b0: e5be 60bd 9cf3 123d 423e 303d d6db 903d
000000c0: 7436 a63c 8fc9 4e3d 6aa8 843d 9d0e 80bd
000000d0: 3dd7 9ebd 16a8 853d 5b28 2abb fcf2 8f3d
000000e0: 74cd 813d 1808 213c 79f7 e7ba ab9e b83d
000000f0: 6f1b 493c 2346 b1bd 4b0b e13b e4b4 583d
00000100: 8fb9 8bbb 4d43 fcbc 3e63 96bc 65f1 80bc
00000110: 795c 76bd aa5f acbd c4b9 583d 15b7 92bd
00000120: 7dab dcbb fd32 a0bd 3d3d df3c b8c3 2d3d
00000130: 6003 1b3d 70cc 193d 17be 34bc bc6a 7a3c
00000140: 22f3 7b3d bbc0 57bd 0933 ae3d 4802 9f3d
00000150: f58b 96bc cd72 adbc 729a 96bc 476f 0ebd
00000160: 7d8e 7d3d 7eb5 7c3d 3a33 933d b59e 4a3d
00000170: e399 8cbd 92c7 2cbd 9b1c a63d 4fef be3b
00000180: 9eab 2d3d 7fd1 8b3d 194e 5d3c 66db 173c
00000190: f62f a6bb e878 bc3d 1825 90bd 6f3d 803d
000001a0: 6637 f3bc fd5a 7abd 7ecc cf3d 10e8 26bd
000001b0: 3215 52bc 6e58 44bd 6001 9f3d ee17 b13d
000001c0: bec5 b83c 104a 283d b466 823d 07d2 273d
000001d0: 64e6 6a3d 3497 29bd d1bc 233c dffa 0c3d
000001e0: 342f a2bd dd61 c63d e466 4fbd c02f 10bd
000001f0: 907e f6bb 0599 9b3c 24ec 9d3c e932 81bd

layer3.weight f4 [9, 128]
0.06890579 -0.036288664 0.1003475 0.04574223 -0.07838494 -0.01686699 0.054619707 -0.0022344696
0.02619626 -0.004393163 -0.120193586 0.053643085 0.06451379 0.09897875 0.08259095 -0.016601065
0.0017972967 -0.02970814 -0.06983515 0.07935808 0.042958304 -0.05225391 0.080433354 -0.040662676
-0.05488188 -0.065259874 0.11171073 -0.024149789 -0.006147293 0.115511544 -0.019533249 0.037653
-0.046719518 -0.043093067 -0.064740635 0.05557763 0.10256765 -0.0020738652 -0.08113209 -0.050195407
-0.046733536 0.013505355 0.08615783 0.03277865 -0.076604284 0.11703416 -0.13587043 0.10617662
-0.03822256 0.0064067794 0.004936556 0.019373592 0.009208297 -0.16564412 0.10158573 -0.060973696
0.089638375 -0.07988709 -0.00019152758 0.053058762 0.026446832 0.071880825 -0.07744621 -0.03907253
0.02629314 0.005745748 -0.05154317 0.088358246 0.056692954 -0.057151057 0.040476914 -0.0361259
0.043598216 -0.012660125 0.048206173 -0.0186451 0.1280215 0.008363894 -0.01577149 -0.019117324
0.038290218 0.05359537 0.07781786 0.03362872 0.051619656 -0.027511638 -0.03289529 0.024326673
0.011184629 0.014207342 -0.086404964 -0.06450474 -0.04352303 -0.021841928 -0.06131959 -0.09345224
0.016743107 -0.025892828 -0.029845182 0.046817172 -0.10571088 0.011178431 -0.078936644 -0.04272474
0.0847541 -0.039770134 -0.040020477 -0.08808356 -0.017615419 0.13104497 0.016114144 0.04558532
-0.020706302 0.084986106 0.047438484 -0.08513773 0.04257104 0.06932163 0.08720488 -0.027526878
-0.072863184 -0.041975368 0.07481723 0.031788383 -0.017427485 -0.09615581 -0.05996733 -0.073084645
0.07969791 -0.07251318 0.018752782 -0.008419558 -0.012713356 -0.065220065 0.078977905 -0.049685314
0.006881934 -0.015474386 0.10232715 0.107508935 0.019260565 0.07781817 0.07695585 0.016741078
0.018077975 -0.046902966 0.013520557 0.00039351394 0.030119704 0.00926594 -0.076221794 -0.023432566
-0.061005328 -0.0106544085 -0.0015727446 0.038684316 0.039008405 0.08851819 -0.0127455015 0.0054571126
-0.002818314 -0.013625122 0.06097627 -0.023038795 0.045293394 -0.033290554 -0.021822583 0.004033416
0.06022138 0.05461107 -0.0005830091 -0.086162105 0.06808215 0.09022122 0.02862575 0.0666239
0.067837864 0.06574986 -0.027581837 -0.047495063 -0.08331875 -0.03768842 0.09756345 0.08007229
0.07890998 -0.06528257 0.08445886 -0.06964675 0.06597179 0.0594062 -0.016612103 0.064716764
-0.05298806 -0.034711607 -0.037167244 0.046408027 0.057793908 -0.078631155 -0.0349269 -0.0810574
-0.048936132 -0.007693361 0.10503505 0.054981254 -0.031299215 -0.009547738 -0.004313792 0.04351346
0.08435951 -0.025193945 0.06410909 0.028131636 -0.006544836 0.013152802 0.027554432 -0.0161303
0.045399226 0.009988541 0.08450793 -0.030443931 -0.06412629 -0.04956511 0.050372124 -0.052485343
-0.060635246 0.095810845 0.07911499 0.07776433 -0.12566675 0.0957027 -0.035794634 0.10352283
-0.029037576 -0.08028379 -0.01975454 0.022833265 0.049255747 -0.0454308 -0.01668649 0.0050537796
0.07673 -0.071380794 -0.0685245 -0.016370593 -0.036582466 0.034252074 0.08497437 0.009939895
-0.025069606 -0.0043061036 -0.05501188 -0.017665546 0.006431916 0.011906174 0.08030103 -0.066562206
00000000: 7b1e 8d3d 6ca3 14bd fd82 cd3d 345c 3b3d
00000010: 4988 a0bd a42c 8abc eab8 5f3d 2e70 12bb
00000020: 8a99 d63c 86f4 8fbb 0e28 f6bd dab8 5b3d
00000030: ce1f 843d 5fb5 ca3d 7225 a93d f5fe 87bc
00000040: 4593 eb3a 7c5e f3bc bb05 8fbd 7d86 a23d
00000050: 0cf5 2f3d 3208 56bd 3eba a43d e88d 26bd
00000060: d2cb 60bd f8a6 85bd 98c8 e43d c7d5 c5bc
00000070: 3b6f c9bb 5191 ec3d 3104 a0bc 083a 1a3d
00000080: f75c 3fbd 5b82 30bd bd96 84bd 5ea5 633d
00000090: fd0e d23d afe9 07bb 9528 a6bd b399 4dbd
000000a0: aa6b 3fbd 9145 5d3c 8473 b03d e842 063d
000000b0: b5e2 9cbd 9baf ef3d 9e21 0bbe 2173 d93d
000000c0: 428f 1cbd f6ef d13b d5c2 a13b 5eb5 9e3c
000000d0: 66de 163c 9d9e 29be 2e0c d03d 8ebf 79bd
000000e0: 5394 b73d d89b a3bd cbd4 48b9 2554 593d
000000f0: 07a7 d83c 4136 933d 1e9c 9ebd 840a 20bd
00000100: b664 d73c d446 bc3b ee1e 53bd 2bf5 b43d
00000110: df36 683d 3a17 6abd 1fcb 253d c0f8 13bd
00000120: 0b94 323d 6a6c 4fbc d673 453d 9cbd 98bc
00000130: 1118 033e b708 093c 3633 81bc ef9b 9cbc
00000140: 34d6 1c3d d286 5b3d f85e 9f3d 45be 093d
00000150: 226f 533d 1660 e1bc 36bd 06bd bb48 c73c
00000160: bc3f 373c e9c5 683c 16f5 b0bd 101b 84bd
00000170: 3445 32bd d8ed b2bc 402a 7bbd e363 bfbd
00000180: d728 893c 321d d4bc e27d f4bc 5dc3 3f3d
00000190: f27e d8bd bd25 373c 89a9 a1bd 2300 2fbd
000001a0: 8f93 ad3d 02e6 22bd 83ec 23bd 2765 b4bd
000001b0: 364e 90bc a730 063e cf01 843c acb7 3a3d
000001c0: 43a0 a9bc 320d ae3d db4e 423d b15c aebd
000001d0: f95e 2e3d 80f8 8d3d 7998 b23d 0c80 e1bc
000001e0: 4b39 95bd 5dee 2bbd c739 993d 8934 023d
000001f0: 16c4 8ebc 56ed c4bd 4ea0 75bd 67ad 95bd
00000200: a838 a33d ca81 94bd 6f9f 993c 30f2 09bc
00000210: ae4b 50bc 1992 85bd 2bbf a13d d482 4bbd
00000220: d981 e13b 4788 7dbc e690 d13d a52d dc3d
00000230: 55c8 9d3c 225f 9f3d 079b 9d3d 9624 893c
00000240: 4318 943c 531d 40bd 5485 5d3c 8c50 ce39
00000250: 99bd f63c 2bd0 173c 2c1a 9cbd a7f5 bfbc
00000260: b9e0 79bd d48f 2ebc 8d24 ceba 7273 1e3d
00000270: 47c7 1f3d 0649 b53d 82d2 50bc 94d1 b23b
00000280: 76b3 38bb e73b 5fbc 41c2 793d dbbb bcbc
00000290: 9185 393d ad5b 08bd 46c5 b2bc bf2a 843b
000002a0: b2aa 763d dbaf 5f3d 14d5 18ba c275 b0bd
000002b0: a76e 8b3d e7c5 b83d 8d80 ea3c 1c72 883d
000002c0: 94ee 8a3d dda7 863d 4ef3 e1bc 2f8a 42bd
000002d0: 05a3 aabd 2c5f 1abd 59cf c73d f1fc a33d
000002e0: 8e9b a13d deb2 85bd c4f8 ac3d f5a2 8ebd
000002f0: 381c 873d ea53 733d 1b16 88bc 398a 843d
00000300: 020a 59bd c22d 0ebd ae3c 18bd 5816 3e3d
00000310: 4eb9 6c3d 5f09 a1bd 820f 0fbd 6c01 a6bd
00000320: 4171 48bd 9718 fcbb 9e1c d73d 0634 613d
00000330: 9b33 00bd 1e6e 1cbc b65a 8dbb 2b3b 323d
00000340: aec4 ac3d 8863 cebc a04b 833d 5174 e63c
00000350: 1076 d6bb da7e 573c d5b9 e13c b123 84bc
00000360: 8af4 393d faa6 233c 7e12 ad3d 8d65 f9bc
00000370: a554 83bd c904 4bbd 0053 4e3d dffa 56bd
00000380: aa5c 78bd 7a38 c43d 0a07 a23d e842 9f3d
00000390: c9ae 00be c7ff c33d 659d 12bd c703 d43d
000003a0: 36e0 edbc d46b a4bd 46d4 a1bc d40c bb3c
000003b0: 65c0 493d a615 3abd 1bb2 88bc 2d9a a53b
000003c0: 9e24 9d3d 1830 92bd 9356 8cbd 9f1b 86bc
000003d0: 7fd7 15bd e74b 0c3d 0b07 ae3d f1da 223c
000003e0: c65e cdbc 371a 8dbb 2354 61bd 56b7 90bc
000003f0: d2c2 d23b 1d12 433c de74 a43d c451 88bd

layer3.bias f4 [9]
0.051938493 0.058514792 0.014005824 0.072263226 0.02470228 0.05550773 0.10206315 -0.077629045
-0.06617266
00000000: 75bd 543d 35ad 6f3d af78 653c befe 933d
00000010: 705c ca3c 135c 633d 7c06 d13d fafb 9ebd
00000020: 8885 87bd
