Assets/Models/stinky.model (torch, 76542 bytes, 6 tensors)

layer1.weight f4 [128, 6]
00000000: 24a0 a43d ff15 6e3e 17d7 68bd 5b5f 843d
00000010: d325 c33e b471 b4be 511d 1e3d df0e 9fbe
00000020: 7345 48be 687e 313e f166 2a3e 5b23 b2be
00000030: ad4e efbd 8964 083e ec70 9a3e b813 003c
00000040: 11cf 93be 419f e43d aef1 b63e f446 193e
00000050: d996 35be 08c5 7f3e 6433 b53d 2e3f a0be
00000060: 5783 113f 132e a2bd 156c ee3e 94c7 8ebe
00000070: b746 aabe d78a 91be c413 9bbe cc84 c03e
00000080: 6139 e03e bb46 ef3d 11a0 b53e db55 b1be
00000090: db08 603e d351 9e3e 84f0 b73e be19 703e
000000a0: 6c0f dc3d 8596 063e 8f6f 4e3c f015 9abd
000000b0: 7517 553e 791e 173e db16 d73e 7e45 d23e
000000c0: bca9 053e 428c c43e 877a aabb 751f 563d
000000d0: 9dc3 c03e 0f43 743d ee3b c9be 8841 ebbd
000000e0: 9c0b acbe 3a92 adbe c4a5 bebe 79ca 8abe
000000f0: 3bf9 50be 0742 8e3e 5486 35bc 9806 6d3d
00000100: 3ab5 163e f814 aebe fadc ed3e 2c0b 5e3d
00000110: a301 57be c401 223e 855b 833e e362 cd3d
00000120: a4ed 24be c3c7 ed3c d536 1ebc 75b5 c2be
00000130: 593d c13e c16c d93d a619 80be 5098 ebbd
00000140: f9b3 e8bd fd5a d63e 5b05 9f3e 6ec4 f93d
00000150: 874d d3be 0a0c 01be e8f0 d33e 07b7 ab3e
00000160: 7c41 c93a c964 933e 57f3 8c3e 78b1 7fbe
00000170: 06a5 cf3e ede4 7c3e 3ba3 8dbd 1168 ba3d
00000180: 1e8f d83c 6d45 8ebd 2d64 6abe 814e 71be
00000190: a14a 1ebe a800 993e 297c 3fbe bdf4 823d
000001a0: 8b4c 393e d4a2 9f3e ec65 973e e628 ba3e
000001b0: b0ac 8dbe ba13 8d3c 78a3 a33e 18ee b4be
000001c0: 849b d23e 088e 12be e36a b73e db42 93bd
000001d0: 0d8a 3ebe 6b54 c13e d03a b53e bfd0 c6be
000001e0: 1944 243e 2829 86be b78e a83e 111a 0dbe
000001f0: 386a eebd 31f6 e0bc 1f99 1bbf 20e1 62be
00000200: 8abb b1be a844 d43c 82bb 55be 1399 b83e
00000210: 1904 c5be 7117 40be cc98 e33e ab38 5d3e
00000220: 99b2 8fbd 0f4e d23d 8d99 23be 68b2 9e3e
00000230: 0688 5e3d 46f7 8c3e b93b ad3e 95fa 7dbe
00000240: 2264 683e 6ee2 9f3c b7c0 053e ed8d b93e
00000250: e276 a5be d60f 9d3e a09b ad3b 5207 37bc
00000260: 536e 0d3d d5b3 713d 925b c4be 1c91 94bb
00000270: 2726 9a3e d365 28be 0bad 93be e27e d13e
00000280: e48e 163e 1c69 c03e aaab cb3e fa37 963d
00000290: 9366 aebe 110e 3bbc 7325 afbe b72f 82bc
000002a0: 588f b3be 0df9 1abd 0b73 d73e 4f0d 983e
000002b0: 4da0 243e b1a5 993c 6172 17be 1962 91be
000002c0: b01f d73e 29b5 31be ffd6 9f3e 15ff 163d
000002d0: 21b1 bcbd f63f 343d b053 923e 5ba0 42be
000002e0: 009e c13e 6a23 c6be b890 1bbe 51be 00be
000002f0: 3773 c6be d824 f8bc d445 ae3e 0883 c9be
00000300: 5d7d 70be 37f8 7f3e c5db a93d 1843 243e
00000310: eac8 c13e 4bb9 9d3e cd04 bfbe f1e0 223e
00000320: 9233 b23e 4ee8 84be ae6f 993e f449 eb3d
00000330: 69fb bbbc 9f30 a0be 79ca 8e3d 72db 0ebe
00000340: 0e74 1fbe b1d1 80be 3c13 a4be 6121 24be
00000350: 0d2d b63e f4b3 dc3e a391 323e c96c 7fbe
00000360: 64dc 3ebe 730a b8bd 1e45 633c 3ad4 d13e
00000370: 39ee 483e 6adf b2be 1ead 8fbd f288 573e
00000380: b343 07be a722 81be ab2b 53be c318 95be
00000390: 9575 b53c 0a02 a33d c380 2a3e 92fb 533e
000003a0: 72b0 0a3e eae0 c9be 122d c4be 7163 d53e
000003b0: b9ab ad3e 3a86 713e e8ce 383d fcaa 173e
000003c0: cb29 1cbe 2fc4 26be 5bda af3e f80b 99be
000003d0: e32b d53e 7a03 c63e f9c0 f3bd aae4 babd
000003e0: 2b8c c23e e96c b43e 535a a9bc cef3 bbbd
000003f0: 8550 f13e d653 5a3e d9c5 243e 9cdb 183e
0.08038357 0.23250578 -0.05684575 0.064635 0.38114795 -0.35243 0.038602177 -0.31066033
-0.19557743 0.17333376 0.16640832 -0.347926 -0.11684928 0.13319601 0.30164278 0.007817201
-0.28868917 0.11163188 0.35731262 0.14968473 -0.17733325 0.24977505 0.088476926 -0.31298202
0.56841034 -0.07918944 0.46566835 -0.2788664 -0.33257076 -0.2842624 -0.30288517 0.37601316
0.43793777 0.11683413 0.35473683 -0.34635815 0.21878378 0.30921802 0.35925686 0.2344732
0.10745129 0.13143356 0.01259984 -0.075237155 0.2080973 0.14757718 0.42009625 0.41068643
0.1305303 0.38388258 -0.0052025947 0.052276094 0.3764924 0.059634265 -0.39303535 -0.114871085
-0.33602607 -0.33900625 -0.37235844 -0.271076 -0.20407574 0.2778475 -0.01107939 0.057867616
0.1471757 -0.34000373 0.46457654 0.054209873 -0.20996718 0.15820986 0.2565576 0.10028627
-0.16106278 0.029025918 -0.009656628 -0.38029066 0.37742117 0.10616446 -0.25019568 -0.11503661
-0.11362452 0.41866294 0.31058773 0.12195669 -0.41270086 -0.12602249 0.41394734 0.33538076
0.0015354599 0.2878783 0.27529404 -0.24970043 0.4055559 0.24696703 -0.06915899 0.0910188
0.026435431 -0.06946836 -0.22889777 -0.23565103 -0.15458156 0.29883313 -0.18699707 0.063943364
0.18095605 0.31178916 0.29569948 0.36359328 -0.27670813 0.01722132 0.31960654 -0.353379
0.41134274 -0.14311993 0.35823736 -0.07190486 -0.1860735 0.37759718 0.35396433 -0.38831136
0.16041602 -0.26203275 0.32921383 -0.13779475 -0.11641353 -0.027461143 -0.6078052 -0.22156191
-0.34713393 0.025911644 -0.2087231 0.36054286 -0.3847969 -0.18758942 0.44452512 0.21603648
-0.07016487 0.10268795 -0.15976544 0.30995488 0.05432894 0.27532405 0.33834627 -0.2480262
0.22694448 0.01951715 0.13061796 0.36241093 -0.32317263 0.30676144 0.005298093 -0.011171179
0.03452904 0.05900939 -0.38351113 -0.0045339 0.30107233 -0.16445093 -0.2884296 0.40917116
0.14702946 0.37580192 0.39779407 0.073348954 -0.34062633 -0.011416928 -0.3420826 -0.015891893
-0.350703 -0.03783517 0.42079958 0.29697654 0.16076775 0.018755766 -0.14789726 -0.28395155
0.42016363 -0.17354263 0.31218717 0.03686436 -0.09213472 0.04400631 0.28579473 -0.19006483
0.37815857 -0.38698894 -0.15191925 -0.125726 -0.38759777 -0.030291006 0.3403765 -0.3935778
-0.23485322 0.2499703 0.08293871 0.16041219 0.37848598 0.3080543 -0.3730835 0.15906121
0.3480497 -0.25958484 0.29968017 0.11488715 -0.02294703 -0.31287095 0.06972212 -0.13950899
-0.15571615 -0.25159982 -0.32045925 -0.16028358 0.35581246 0.43106043 0.17438368 -0.24943842
-0.1863876 -0.08986368 0.013871459 0.4098223 0.19622125 -0.34936076 -0.07015441 0.21048334
-0.13209419 -0.2522175 -0.20622127 -0.29120454 0.022150794 0.07959373 0.16650681 0.20701435
0.13543871 -0.39429408 -0.38315636 0.4167743 0.33920076 0.2358636 0.045119196 0.14811319
-0.15250318 -0.16285776 0.3434628 -0.29891944 0.41635045 0.38674527 -0.11902041 -0.091256455
0.37997565 0.35239342 -0.020672953 -0.091773614 0.47131744 0.21321043 0.16091098 0.14927524

layer1.bias f4 [128]
00000000: 52f1 d83d 70d1 ccbe 2fac 503e c85e c83c
00000010: 49c4 7e3e b57b 353e 3941 b5be 92d8 1cbe
00000020: 974d 6b3e e882 68be 8db8 bebe 014c 9b3e
00000030: 864b 49bd 1363 0abe 5ad9 853e 3a6c 6dbd
00000040: 04fb 7dbe e83c 003d b7d7 db3c 2652 2bbe
00000050: a818 a2be b9d0 b73e 540d 353e 62ab 4c3d
00000060: f52e 8abe 117b b63e 7d4e b8bd 21ed e2bd
00000070: 5a75 03be 55e9 0cbb 61d4 c53e 459c a8be
00000080: 3229 3ebe 6aa5 20be 1b6c b53e 33cd d63d
00000090: aa26 8f3e 0cda 79be 0132 953e 83ce 56be
000000a0: 248a d93e b289 373d 909c 4a3c cf26 86be
000000b0: cd97 3ebe b435 63bd 15b1 1e3e ca6f 2d3d
000000c0: 1315 99bc 2b56 1c3e afd1 80be f426 913e
000000d0: ae6f fe3b fea7 a8be 9b32 bfbe 38f9 2dbe
000000e0: 40bc 5f3e ac3b 93be 9649 83be 1e1d 983e
000000f0: 2da5 91bb 6642 d33e 91bf e63d 693d bbbe
00000100: 5ed7 933e 2b5b 9cbd fe3a 643e b2e1 3cbe
00000110: fc61 b03d 2ec4 9fbe 0489 8f3c cb59 ee3e
00000120: e22e e9bd f13e 77be f905 d53d 70cb 8f3e
00000130: 0edc 37be 538e 2f3e 2ecf a3bd 1d6a 423e
00000140: 4133 b43e 20b8 4f3e c159 593e 3dcc 1a3e
00000150: 993f af3e 49f1 83be 58ba 72be 2e18 983e
00000160: fd97 ac3e 87e1 85bc 435c cdbd 1f8e 573e
00000170: 825e a03e ef4e e03e 4918 1fbe 54c3 0f3e
00000180: 59a5 8cbe 9aaf 83be b8d2 c63e b82d c43e
00000190: dc1a 9ebe c962 f93d 30e5 373d ba1b c93e
000001a0: b740 56be 3a1f 2bbe f6b0 afbe 3e52 cebe
000001b0: 6359 0c3d a418 853e 995b b53c 50b1 bdbe
000001c0: e215 b03e 3f16 90be f74b 07bd 9d79 67be
000001d0: 1312 873e 713d 99be da4f 9f3e aff3 ddbd
000001e0: fe82 183d 02ff c53d 7fc3 773b 1ca8 453d
000001f0: 20ec f8bd 90af f1bc 7c19 953e b89d b5be
0.10592903 -0.40003538 0.20378183 0.024459258 0.24879564 0.17722972 -0.35401323 -0.1531699
0.22978817 -0.22706187 -0.37250176 0.30331424 -0.04914429 -0.13514356 0.2614239 -0.05796454
-0.24802786 0.031308085 0.02683626 -0.16730556 -0.31659436 0.3590143 0.17680866 0.04996813
-0.2698895 0.35640767 -0.089993455 -0.11080385 -0.12837735 -0.0021501381 0.38638595 -0.32931724
-0.18570402 -0.156881 0.3543404 0.104883574 0.27959186 -0.24399585 0.29139712 -0.20977215
0.42488205 0.04480905 0.012366429 -0.26201484 -0.18612595 -0.055471137 0.15497239 0.04234294
-0.018686807 0.15267245 -0.25159976 0.2835003 0.007764778 -0.32940668 -0.37343296 -0.169896
0.21849155 -0.28756464 -0.2564208 0.29709715 -0.0044447393 0.41261595 0.11267007 -0.3657029
0.2887525 -0.076345764 0.22288129 -0.18445471 0.08612439 -0.3120436 0.017521389 0.46552882
-0.11385895 -0.24145104 0.1040153 0.28084898 -0.17955038 0.17144136 -0.07998501 0.18985792
0.35195354 0.20285082 0.21225645 0.15116973 0.3422821 -0.25770023 -0.23703897 0.29705948
0.33709708 -0.016342891 -0.10027363 0.21050309 0.31322104 0.43810222 -0.15536608 0.14039356
-0.274699 -0.2571991 0.3883264 0.3831613 -0.30879867 0.12177045 0.044896305 0.39278966
-0.20923124 -0.1671113 -0.34314698 -0.4029712 0.034264933 0.25995362 0.022138404 -0.3704934
0.34391695 -0.28141972 -0.03303143 -0.22604986 0.26380977 -0.2992969 0.3111561 -0.108374946
0.0372343 0.096677795 0.0037805734 0.048256025 -0.12154412 -0.02950266 0.29121006 -0.35471892

layer2.weight f4 [128, 128]
00000000: 601d 30bd e1a3 453d 2ef8 c93d ee09 4c3d
00000010: 8a7d 37be eb3a dd3d 9aae 6ebd 225a e4bc
00000020: c8a6 4cbd 5add d6bc 8880 07bd 607e df3c
00000030: de35 433b 6f1e 9b3d 9975 c13c 284b f33c
00000040: 1a4a 71bd 928c b6bc 3147 0f3d 64b2 d43d
00000050: cf4b 7bbc c359 ad3e 982c 2b3c 7e72 edbb
00000060: 72e3 623d deb9 1d3d ed95 cf3d 5276 9c3c
00000070: 5a14 053e e8b5 80bc 4fc4 dfbc 3a4a 56bc
00000080: 7dcb 213d d6ae ac3d 506f 15bd 7d37 d73d
00000090: 2c3f 3e3c d5a4 213c 7323 86ba cabc f03d
000000a0: 1874 463d 8c11 1c3d 3525 473e c0f3 173d
000000b0: 58dc d4bc 2322 41bd 396a 9a3d 2203 b4ba
000000c0: 843b 2cbc a55a 773c 7720 053c 8d91 8c3c
000000d0: bafb 9f3d a5fa e7bd 2e79 5ebd 48f6 063e
000000e0: 35d0 83bd 4d85 013d 884a bc3c 96b2 8a3d
000000f0: a5ef 04be 0e6d 77bc 7150 cd3d 0a96 f5bc
00000100: e67d 713d e0a7 583d 0632 ce3d 7b4a 1abe
00000110: 491c ad3d ce2e 54bd c25a 883b 2f22 21be
00000120: ac05 5a3d 5d5f 20bd 8234 8bbc 230b c53d
00000130: 5014 283d 8888 57bd 71c3 c83d 1953 1f3d
00000140: a146 2cbd 09b0 cc3d 5759 2b3c 614d 91bc
00000150: 7e64 7e3d 0570 583d c5a0 28bd ee9a 813d
00000160: 7fca ba3d 0d87 1ebc d9d1 d13d c358 e7bb
00000170: 2ff6 dd3d 262d b8bc 9917 2bbe 9c94 06bd
00000180: 2c4b 1cbd 8ef4 6c3e e38c 633d c46a 26bd
00000190: 6141 a53d 244f 233d 9fea b13d 2622 d73c
000001a0: a6b8 013d b27a 24bd 2bfa 10be bff1 9dbd
000001b0: ef3c e53c ecb1 203d 4659 50be d3d8 f9bc
000001c0: a6ed 8dbd 7695 7d3e 1773 88bc d868 a03d
000001d0: 779d 183d 0663 bb3d 4cbe c53c 933e c53d
000001e0: fd97 5cbe cbe3 1f3d 9642 b73d d484 aebc
000001f0: fa4e 3c3d cc5c 50bd 2b14 ee3c 0e35 9a3c
00000200: ad63 a6bc ad83 6fbd 99dc 40bb fc05 a73c
00000210: 32b8 42be d33e 0a3e 20be f23c 45d7 8a3d
00000220: fa8b 123d f401 f4bc d940 ae3d b7dc 633d
00000230: 2c10 b4bd 51c8 793d ad7f 943c 4797 b83b
00000240: 4902 1d3d bda0 a13c 4e66 103e b060 cf3d
00000250: b94c 053d f7a6 b53e c750 f23d c749 6a3d
00000260: c1ab 623d f93a 3c3d c08a 3c3d 0c6e 393c
00000270: de1f 1e3d bb6a cd3c dc7f b53d 2a74 a33d
00000280: ca6a c83c 64a9 e03d 5eed b3bb ce00 43bc
00000290: c6bd 5e3c f184 933d adde fe3d 6702 113c
000002a0: 8cfe c03d 4ce9 163d 4469 673d c926 f63b
000002b0: bd14 a53c 5bf9 6e3d 094f 0ebd cf7d 52ba
000002c0: 72c0 ad3c 217f 73bc 342c b3bb f4d0 873d
000002d0: 6e4d 15bd 75e0 29be 7e44 52bd 0303 a83d
000002e0: 19da 593d 31db a53c fa50 a03d 5dee 3abc
000002f0: 9f32 e7bd 3dad d2bc 004d ab3d 21cb 8bbd
00000300: 0518 163e 9924 d43d dbf4 71bd 9c35 55be
00000310: 5072 87bc 70af 6c3a 28ed 4c3d ccac 08be
00000320: 3810 0e3d 4a81 d2bc aca6 003e 6366 893c
00000330: 8264 733d f5f6 1abd 8049 623d 10af 883d
00000340: 4b0e 8abd 32d2 973d 1923 963d 3c11 413d
00000350: 4d61 9a3d 4a35 573c d128 953d 63fe 81bc
00000360: b603 45bb a4f5 f33c 915a dd3d 2338 64bc
00000370: 8aae 06bc 66ea 053d d323 1bbe e0eb 8c3b
00000380: 184c 28bd 9a32 853d 8d56 8fbd 7ca5 3bbd
00000390: 878e 463e a03d 023c 17b3 9f3d 100b bf3d
000003a0: bd0a b03d 764e 12bd 8cf8 dfbd 31b3 1fbd
000003b0: 3e87 a8bc 5b83 c9bc f8d9 37be e111 053d
000003c0: ddb7 a3bd ea9a 4a3e 8383 a83d 9469 313b
000003d0: a783 92bd 411c ba3c 910a 7e3d 64e7 dabc
000003e0: f08f b1bd c268 ddbd c1d0 87bd 222e 413d
000003f0: c89d 1c3c 2b37 82bc 5aa2 b23d 6846 863d
-0.042996764 0.04825199 0.0986179 0.049814157 -0.17918983 0.10802253 -0.05827198 -0.02787501
-0.049963742 -0.026228596 -0.03308156 0.02728194 0.0029786746 0.07574164 0.023615645 0.029698923
-0.05890856 -0.022283826 0.034980003 0.10385588 -0.015337898 0.33857545 0.010447644 -0.0072463145
0.05539269 0.038507335 0.10136018 0.019099388 0.12996045 -0.01571174 -0.027315287 -0.01307922
0.039500702 0.08431785 -0.03648311 0.105086304 0.011611741 0.009865959 -0.0010233953 0.11754759
0.04845056 0.03810267 0.19447787 0.037097692 -0.025983974 -0.047151696 0.075397916 -0.0013733844
-0.0105122365 0.015097295 0.008125416 0.017159248 0.07811685 -0.113271035 -0.054314785 0.13179886
-0.06436197 0.031621266 0.022984758 0.06772344 -0.12982042 -0.015101684 0.100251086 -0.02997877
0.058957957 0.052894473 0.10068135 -0.15067475 0.084526606 -0.05180245 0.00416121 -0.15735696
0.053228065 -0.039153446 -0.016992811 0.09621265 0.041034997 -0.05262044 0.098029025 0.038897607
-0.042059544 0.099945135 0.010458312 -0.017737092 0.062107556 0.052841205 -0.041168947 0.063283786
0.09120654 -0.009675753 0.102451034 -0.007060142 0.108379714 -0.022482466 -0.1670822 -0.03285657
-0.038157627 0.23140165 0.055554282 -0.040629163 0.08069111 0.039870396 0.086873285 0.0262614
0.031670235 -0.040156074 -0.14157932 -0.07712125 0.027983157 0.03923218 -0.20346555 -0.030498898
-0.069300935 0.24764046 -0.016656442 0.07832497 0.037259545 0.091497466 0.024138592 0.09631076
-0.21542354 0.0390356 0.08948247 -0.021303572 0.045973755 -0.050869748 0.029062351 0.018824127
-0.020311201 -0.058475185 -0.0029428361 0.020388596 -0.19015577 0.13500528 0.029631674 0.06779341
0.035778023 -0.029786088 0.085084625 0.055630412 -0.08792147 0.060982052 0.018127287 0.005633268
0.038332257 0.019729966 0.14101526 0.101258636 0.03254387 0.35478947 0.11831813 0.057199266
0.05533958 0.04595468 0.04603076 0.011317741 0.03860461 0.025075307 0.08862278 0.07981141
0.024464983 0.10969809 -0.005490943 -0.011902047 0.01359505 0.07203091 0.12444816 0.00885067
0.09423551 0.036843583 0.056496873 0.007511948 0.02015149 0.058343273 -0.034743343 -0.0008029611
0.02120993 -0.014861853 -0.005467916 0.066316515 -0.036450796 -0.1658953 -0.05133485 0.082036994
0.05318651 0.02024612 0.07827945 -0.011409369 -0.11288952 -0.025717372 0.08364296 -0.06825853
0.146576 0.10358543 -0.059071403 -0.20821232 -0.016534 0.0009028828 0.050030857 -0.13347167
0.034683436 -0.025696415 0.1256358 0.016772455 0.059422024 -0.037833173 0.055245876 0.066740155
-0.067410074 0.074131384 0.07330913 0.047135577 0.0753809 0.013135264 0.07283176 -0.015868371
-0.0030062026 0.029780217 0.1080829 -0.0139294 -0.008220324 0.032694243 -0.15150385 0.0043005794
-0.041088194 0.06503792 -0.0699893 -0.045812115 0.19390307 0.007949263 0.077978306 0.09328282
0.08595798 -0.035719357 -0.109360784 -0.03898925 -0.020572301 -0.024598768 -0.17954242 0.032487754
-0.079940535 0.19785658 0.08228209 0.0027070986 -0.07154017 0.02271855 0.062021796 -0.026721664
-0.08670032 -0.108109966 -0.066316135 0.047163136 0.009559102 -0.015895447 0.08722372 0.06556398

layer2.bias f4 [128]
00000000: a33c dcbc 3e82 ab3d 789a 823c 6729 8dbc
00000010: 136b 853d 4c0d 94bd 1ace 733d ed2a ee3d
00000020: d210 ba3d 1eaa cb3c 796e c8bc 0658 84bc
00000030: 2c37 18bd 1650 4c3d cd99 0dbc 4335 7dbd
00000040: e6a6 d13c dfa7 a13d 8751 8f3d 2de5 853d
00000050: 7ff8 7a3d aa38 46bd 1eeb 14bc ee8d cbbc
00000060: a8c7 9bbd 94c5 163d 999c aa3c 939e 61bc
00000070: 7d03 4fbd da2e 54bd 59c4 2fbd 3e5f 453d
00000080: c84a ac3a 278f 9fbd 5882 7dbd 6b95 73bd
00000090: 7c97 16bd 9167 eebc 9d9e aabc 34c3 57bd
000000a0: 83c2 613c 30f1 82bd fd18 773c 2b07 3cbd
000000b0: 2c89 52bd 3ce2 ca3d 9d18 303d e1f5 a23d
000000c0: 77f1 17bd caf7 9a3d d33f e83d 958c 093d
000000d0: 03aa f83c 4383 bd3c 11bf 6c3d 1926 40bd
000000e0: 4b66 ad3d 0d1d 033b 9048 a73d 97b3 2abd
000000f0: 9578 83bb dabc 6abd 49e1 863d bba4 fd3c
00000100: 5743 e4bc 9099 bf3d 7fc5 383d 711f 0b3d
00000110: 5b2d b0bd 34d2 70bd 5da3 74bd ca7f 753d
00000120: 1e64 d23d 15d2 673d 3925 e2bb 5093 18bd
00000130: 1a2e 23bd ef20 6d3d 0dc0 8f3d ebc7 0e3c
00000140: 7c95 cdbd 26e2 90bc 6354 8ebd 63df 9abd
00000150: 0246 183d b458 c73b c232 89bd 8487 d33c
00000160: 82e8 1abd 7444 dbbd 8fa3 88bc c8ae 72bb
00000170: 0003 9bbb 09d0 22bb 9a48 a7bd d685 d63d
00000180: 63eb 083c 6c6a 86bc 96c5 a53d d61e 20bd
00000190: 0f3c 983d 6aca 0ebd adec 70bc 475d 1f3d
000001a0: 2ecb 3a3d 181b 08bc 6e57 69bd cdd6 a2bc
000001b0: 5569 b03d 6905 d73d 6de4 bebb 4f2c 80bd
000001c0: c53d e33c 6e85 523d f50e 723d 3081 ffbc
000001d0: 1101 60bd 43ff 45bb 6393 5d3d f3c3 543d
000001e0: 7f77 323c b6a2 1f3d df17 30bc 1a1c fdbc
000001f0: 2828 6a3d d1e3 143d 99dd 7f3c c68a 073c
-0.026884383 0.08374451 0.015942797 -0.017231656 0.065145634 -0.07229099 0.059522726 0.11629281
0.090852395 0.024861392 -0.02446674 -0.016155254 -0.03716199 0.049881063 -0.008642626 -0.061818372
0.025592279 0.07893347 0.06997972 0.065378524 0.06127214 -0.048393883 -0.009089259 -0.02484795
-0.07606441 0.03680952 0.020826625 -0.013770717 -0.050540436 -0.051802494 -0.04291186 0.048186533
0.0013144845 -0.07790976 -0.061891884 -0.059468668 -0.03676556 -0.029102119 -0.020827586 -0.052676395
0.013779285 -0.06393659 0.015081641 -0.045905273 -0.05140035 0.09906432 0.042992223 0.07957054
-0.037095513 0.07566793 0.113402985 0.033581335 0.030354505 0.02313388 0.057799403 -0.046911333
0.084667765 0.002000633 0.08168137 -0.041675176 -0.004012177 -0.05730901 0.065859385 0.030962339
-0.027864141 0.093554616 0.045110222 0.03396553 -0.08602401 -0.058794215 -0.059726108 0.059936322
0.10273002 0.056596834 -0.00690141 -0.037249863 -0.039838888 0.057892736 0.07019053 0.008714656
-0.100382775 -0.017685961 -0.06949689 -0.07562139 0.03717614 0.0060835723 -0.066991344 0.025821455
-0.037819393 -0.10706416 -0.016679553 -0.0037030447 -0.0047305822 -0.0024843237 -0.081681445 0.10474746
0.008356902 -0.016408168 0.08094327 -0.039091907 0.0743333 -0.034861006 -0.014704865 0.038907316
0.045603923 -0.008307241 -0.056968145 -0.019877816 0.086138405 0.10499079 -0.0058255703 -0.06258451
0.027739415 0.05139678 0.059096295 -0.031189531 -0.054688517 -0.0030211962 0.054095637 0.051944684
0.010892748 0.038973533 -0.010747879 -0.030897189 0.057167202 0.036350075 0.015616798 0.008272832

layer3.weight f4 [9, 128]
00000000: 6ed6 ba3d 8d98 de3d 025d a2bd f687 9d3d
00000010: d4e6 ae3d 6cf5 f43c cde5 cebd bf09 d93d
00000020: 45ee 583d c576 893d fa65 fe3d 9fc2 83bd
00000030: ff8f d8bd efa4 17bd e54d a53b e997 afbd
00000040: d186 7dbd cbc6 49bc b7a2 4bbd 898a 2abe
00000050: fbc7 ea3d 8767 9dbb 5794 7cbd efb3 07bc
00000060: 1813 723c 28f2 623d e697 783c 43a1 c6bc
00000070: ad55 01bd 8bdd ecbd 28d5 76bd a6b2 aabd
00000080: 8b3c 4fbd 307a e0bd af47 28bd 96c0 43bd
00000090: 6a26 b7bd 9632 853d f138 3cbc 82d1 1fbd
000000a0: 7547 e0bd 6556 bd3d b72e 143d 886a adbd
000000b0: a9dd 54bd 01cb 703d cb1e 063e 7b44 9cbd
000000c0: 35f7 023e 7830 6cbd 4373 843e 47be aa3d
000000d0: e588 d53d 3688 19bb ae4c adbd 4dd7 ea3d
000000e0: dd63 243c 220a 7f3d 5298 a5bd 9e7e c53d
000000f0: ea64 4f3d 0fd2 33bd b2cf b6bd 3ad5 c139
00000100: 563c 703d 79a9 12bd 38c7 d2bd c763 603d
00000110: 0e7a cd3c 91fa 7c3d d479 a33d 4bb1 a33d
00000120: 7149 f53d cbf1 febc 845e e63c 34de 58bd
00000130: ac2e 67bd ed21 b53c c270 a6bd 8c9b 0f3d
00000140: 565d 173d f18f 4bbd 3068 00be f66e 023d
00000150: 9eed 813c 0d7f 94bb 1c57 af3c 15d9 053d
00000160: e181 dbbb f27f 153e 6d5b 4a3c 38a4 2abd
00000170: 4982 d93d 66ff c73d 8042 513d 4410 9f3d
00000180: d310 81bd c379 80bc 4bb0 ae3d 328d 843c
00000190: a658 e3bd 66f2 31bd 0a51 b33b 6e4c 90bd
000001a0: 59f3 0c3d 5640 14bd cb1b 18bd 4a8d a73d
000001b0: 9ab9 b93d 1221 b4bc f185 583d fe52 183c
000001c0: 9e3e d73c a7cb 28b9 ab76 8b3d 2adb 03be
000001d0: c9f7 3f3d aa75 4d3c 4121 773d 1d54 d53d
000001e0: e178 193d a7e1 cfbd 55db 993b c515 59bd
000001f0: a4e3 6f3d 8dec c43d d5ab e0bd 40f3 e1bd
00000200: d682 933d 318c 98bc fa41 abbd a269 4d3c
00000210: 46f1 253d 07b7 5f3d d554 44bd 1270 fc3d
00000220: 18d3 543b 256a 863d dee9 2a3d af81 3fbc
00000230: e065 ee3b 87d5 dbbc 075e 5c3d 7651 57bd
00000240: f59a 7c3d daa0 db3c 27ba 5c3d e39e 883b
00000250: c9e1 ab3d 7cec 9f3d 7917 453d 44c7 99bd
00000260: 86c8 a93d d317 943d 7089 b23c 50d7 8d3d
00000270: 0ffb 6fbd f02f 04be c50c a43b 703f edbd
00000280: 260c 9e3d b763 febd b9bd 64bd 1011 573d
00000290: e690 d6bd 5796 643c 0408 87bd 6f26 07bc
000002a0: 8f1b fabd 777d 1a3d 8e86 943d 8fa3 0ebc
000002b0: 6f4e 07bc 0f40 623d 3cab 0c3e 915b a43c
000002c0: 59c1 153e a408 a9bd 706b 7a3e 9db2 d33d
000002d0: 0a48 6e3d 8622 6b3d ad33 80bd fbf2 af3d
000002e0: 0ae3 ac3d 666f 9c3c 46ee 24be 10a6 063e
000002f0: a61f 14bc 35e4 abbc 2024 30bc a1ec e53d
00000300: cc35 1dbd 8f5e 323d 0862 abbd 7d12 3d3d
00000310: 1d79 afbd ab87 443c 95cc 723c dce4 d53d
00000320: 97ff 4c3d 9cb1 3f3c 8177 ca3d 749f ba3b
00000330: 61a6 3c3d d47b 83bd 898e e6bc e34b 3c3d
00000340: 66a7 173e 329c 27be 4e60 d4bd 7f2a 723c
00000350: 1455 9cbd 4f0d e53c 617f 9a3d 79a8 36bc
00000360: 3fd6 1f3d ed35 30bd 3bf2 9ebd d91c 34bd
00000370: f8fe 2abd 9534 fe3d a633 2ebd 3cae c03c
00000380: f7d4 073d 9c23 7d3d 48c7 743c 1e5f b33d
00000390: 4e8d aabd 0e4f 863d 4ce0 9b3d fd1d fabd
000003a0: b972 713b 468d bdbc ef14 a8bd b682 363d
000003b0: 46f2 b83d c082 e43d 2ea7 bb3d 38fd b6bc
000003c0: 1d10 483d 59b3 2c3d 7d53 533d 431d bcbd
000003d0: c70d ad3d 459b a3bc f30d 0b3d ac5e 54bd
000003e0: 873b 38bd f373 83bd 3803 af3d 29e1 17bd
000003f0: 4b19 043e c62e 693b 0f56 7ebd 2700 efbd
0.091229305 0.108689405 -0.07927896 0.07691948 0.08540121 0.029902183 -0.10102425 0.10597562
0.052961607 0.067121066 0.12421794 -0.064336054 -0.1057434 -0.037022527 0.005044686 -0.085738964
-0.06189615 -0.012315462 -0.049715724 -0.1665441 0.114639245 -0.004803601 -0.061664905 -0.008282646
0.01477506 0.05540672 0.015172934 -0.024246817 -0.031575847 -0.115656935 -0.060261875 -0.08334856
-0.050594848 -0.109608054 -0.041083988 -0.047791086 -0.08942874 0.06503789 -0.011488185 -0.03901816
-0.10951129 0.09244994 0.036177363 -0.08467585 -0.051969204 0.05878735 0.13097684 -0.07630249
0.12789614 -0.05766341 0.25869188 0.08337074 0.10426501 -0.0023427135 -0.08461891 0.114668466
0.010033575 0.062265523 -0.080856934 0.09643291 0.05063335 -0.0439015 -0.089263335 0.00036970695
0.05865129 -0.035806153 -0.10291904 0.054782655 0.025082614 0.061762396 0.07982221 0.079928
0.119768985 -0.031121155 0.02812124 -0.052946284 -0.056440994 0.022110904 -0.081269756 0.03506045
0.036954246 -0.04969782 -0.12539744 0.0318441 0.015860375 -0.004531747 0.021403842 0.03267773
-0.0066988324 0.14599589 0.012350899 -0.041660517 0.10620553 0.0976551 0.05108881 0.07766774
-0.06302037 -0.01568306 0.08529719 0.016180608 -0.11100893 -0.04344406 0.005472307 -0.07045828
0.034411762 -0.036194168 -0.03713588 0.081812456 0.09068604 -0.021988425 0.05286211 0.009297131
0.026274975 -0.00016097595 0.068097435 -0.12876573 0.046867166 0.01254026 0.060334448 0.10416434
0.037468795 -0.10150462 0.004695336 -0.052999277 0.058566704 0.09615431 -0.10970274 -0.110327244
0.07202689 -0.018621536 -0.083621934 0.012537392 0.0405133 0.054617908 -0.047932465 0.12326063
0.0032474454 0.06563214 0.04172694 -0.011688634 0.007275328 -0.026835216 0.05380061 -0.05256792
0.061671216 0.026810098 0.053888466 0.0041693314 0.083926745 0.07808778 0.04811809 -0.0750871
0.082902 0.072311066 0.021794051 0.06925833 -0.058589038 -0.12908912 0.005006405 -0.11584365
0.07717161 -0.12421363 -0.055844996 0.052506506 -0.10476856 0.013951859 -0.06593326 -0.008248909
-0.12212288 0.03771731 0.07252227 -0.008705988 -0.008258446 0.055236872 0.13737196 0.020063194
0.14624538 -0.08253601 0.24455047 0.10336802 0.05817417 0.05740597 -0.062598564 0.08591267
0.08441742 0.019096088 -0.16106519 0.13149285 -0.009040749 -0.020982841 -0.0107508 0.11226774
-0.038381383 0.04354721 -0.08368307 0.04616021 -0.085680224 0.011995236 0.014819284 0.10444042
0.050048437 0.01170006 0.09886075 0.005695278 0.04605711 -0.06420103 -0.028144138 0.04597081
0.14809951 -0.16368178 -0.10369931 0.01478064 -0.07633415 0.027960448 0.07543827 -0.011148565
0.03902268 -0.043020178 -0.077610455 -0.043972824 -0.041747063 0.12412373 -0.042529725 0.023520581
0.033162083 0.061801538 0.0149400905 0.087583765 -0.08327733 0.06558047 0.076111406 -0.12212751
0.0036842062 -0.023138653 -0.08207118 0.04455825 0.09030585 0.11157751 0.09162746 -0.022337541
0.04884349 0.042163227 0.051593293 -0.09185269 0.084498934 -0.0199715 0.03394885 -0.0518481
-0.044978645 -0.064186 0.08545536 -0.037079964 0.12900274 0.0035580858 -0.06209379 -0.11669951

layer3.bias f4 [9]
00000000: c383 263d 486b 4a3c 462e f03c 1a4e 1f3b
00000010: a585 963d 5672 af3d 4be8 8cbd 6e5e 803c
00000020: 7585 963d
0.040653 0.012354679 0.02931894 0.0024308027 0.073497094 0.0856673 -0.06880244 0.015670028
0.07349674
