Assets/Models/stupidboy.model (torch, 76892 bytes, 6 tensors)

layer1.weight f4 [128, 6]
00000000: 7441 723e 3778 bbbd 9b72 89be 3404 91bd
00000010: 090f b4be d272 c43c b9b9 f23e 2697 4f3e
00000020: 0430 b23e a53e cbbd 7c2d 27be 41cb 173e
00000030: 8710 fabe c43a bbbe ee24 2c3e 015a a33e
00000040: 79a3 68be 8ca5 57be 0a93 c3be a044 9d3e
00000050: 5b45 7abe 52b2 6e3e c5b4 963e 26b6 c83e
00000060: 1c70 9a3e e7cd ec3e c0c2 0dbe a3b6 813e
00000070: dcac 8cbc 2377 39be 2c96 4d3e df8b 21be
00000080: 8a4b 93be 8028 b9be 1a09 493e 4b18 afbe
00000090: 2ccd 20bf c385 a53e 7b2b 9c3d f57c b33e
000000a0: 75f9 423d e041 69be bead 1b3e a87d c8bd
000000b0: 01c4 9dbe 5bc1 afbe dfb5 8fbe dcd2 223e
000000c0: de57 433e 925c 4dbe 48ca 393d 9c91 cb3e
000000d0: 7aa0 78bc d3fd 7fbe 34bc 6dbd 800a 923d
000000e0: 0c94 ff3c 110b c1be b8c6 773e b42d 2f3d
000000f0: edc6 ecbe 03e7 b1bb 7ed7 d23e cec9 b93e
00000100: a6cd 94bc 64fe abbd 4e71 9c3e fbba 7dbe
00000110: 889f d2bd 2a8f 8dbe 2b72 59be 7518 6bbe
00000120: b991 97be 773b aebd 0e08 a83e 1f1c 693e
00000130: 44e0 c63e 2912 3abe 4e15 11be b16a 6c3e
00000140: ec50 ac3d e852 cb3e b861 abbe ab12 e83d
00000150: d874 c5be b00c 9a3e 9415 af3e ed02 33bd
00000160: b89a 9d3e ca58 9abd 055c 57be 1636 dd3e
00000170: 68d9 4f3e f85a a53e cb99 acbe 4ee2 0d3e
00000180: 5ce3 2abe 760b 42be 2f36 ce3e bd5a 623b
00000190: c0b9 e9bd 1b5d 13bd 2bce 493d 5fff 393e
000001a0: 2771 553e 198f c93d 7ec6 7b3e 4809 55bd
000001b0: 882b 2abd 9065 fcbd b2f3 8cbe 0eb5 9bbe
000001c0: a40d e23e dbcc c03c 7e5b a13e 66d4 b83e
000001d0: 7b88 efbd e27b fe3c 85d5 2e3e 2d84 6bbc
000001e0: 59c4 8ebc 976f 2fbe ea2b 9d3d 6dac 683e
000001f0: 4eca a83e fbef 293e f272 9e3c 5f1a 253d
00000200: fc18 94be f359 d83e 84e2 c23d df76 ee3c
00000210: 6825 983e 6a11 80be 3f73 42be bd73 a0be
00000220: 766f 223e 2a08 c0be 6214 9f3e 412c a1be
00000230: 6661 673e 0983 90be 4467 de3e 4494 b53e
00000240: a623 a23d 8293 92be 311e a5be ab32 9d3e
00000250: 0c58 9dbe 2f1a 853e 76b6 883b c1c2 b03e
00000260: f35d a8be 88b7 573e 428b cb3e 08e1 623e
00000270: d2b4 d43e 2d76 b23e 9487 c6bd f7a0 c13e
00000280: 3b5c 21be db85 f3be 59d7 ff3c 51c9 acbe
00000290: 82a0 253e 0145 57be e648 95be 7085 ef3d
000002a0: caf6 853d bb3b 853d 0f6c b73e 4366 bcbd
000002b0: d7be a4be 65d9 5cbe 0c1e afbd 5cdf 743e
000002c0: 0e9b 19be 1d2c 75be 66ed 953e dc20 08be
000002d0: 3a87 af3e d9a7 86be 3321 96be 7a55 3c3e
000002e0: 8c7d e03e 1d1e c53e 04ff b93e 4330 2abe
000002f0: 34fa a73e a8ea ebbd 2a72 3f3d 4a12 60be
00000300: 1f92 0a3f 19b9 45be 02ae e53e 52fa c83e
00000310: 3b81 f7bb b179 8fbe a24b c9be f62d 0fbe
00000320: 8e56 fd3e 39f7 b33d 323c 8ebe 5033 933d
00000330: 7b75 c13e fa7c dbbd 5d73 453c 1a7a aa3e
00000340: 063c c33c e6a4 303d 96e5 1ebd 69fa a63d
00000350: 697b 12bd d96d a9be 5ed5 df3e 0721 a33e
00000360: f706 273e f4a1 773e 43e2 b13e 6a68 bf3c
00000370: ad93 763e 430f a6be d693 7fbe 8523 7d3e
00000380: c722 d8bc 46d7 93bd d80c f1bd bb50 d8be
00000390: f47b 093f 3d46 7dbe c214 f3bc 3c07 9cbe
000003a0: 4064 9d3e 6c25 92be 6407 9abe 6cd3 6bbe
000003b0: 281b 93bd 0a9b f9bd 5404 573d 3c9d b8bd
000003c0: 42f7 8dbe de53 c43d 1792 89bd cad7 3e3e
000003d0: 6420 c53e 8db3 8f3e a0be 01be f604 ddbd
000003e0: 4449 15bc debe 21bc df9c 6bbe 95ab bebe
000003f0: 7a2a 10be 3438 b7be 62e0 01be 8171 8ebe
0.23657781 -0.091537885 -0.2684525 -0.0708088 -0.3516772 0.023980532 0.4740732 0.20272502
0.34802258 -0.09924058 -0.16325945 0.14823629 -0.48840734 -0.36568272 0.16810963 0.31904605
-0.2271861 -0.21059245 -0.3819812 0.3071642 -0.2444052 0.23310211 0.2943479 0.39201468
0.30163658 0.4625084 -0.13843822 0.25334653 -0.01717227 -0.18111853 0.20076817 -0.15776013
-0.2876857 -0.36163712 0.19632378 -0.34198222 -0.6281307 0.32328615 0.07625481 0.35056272
0.047601182 -0.22779036 0.15202996 -0.09789592 -0.30813602 -0.34327206 -0.28068444 0.15900749
0.19076487 -0.20054844 0.045358926 0.3975953 -0.015174979 -0.2499917 -0.058040813 0.07130909
0.031198524 -0.37703755 0.24196899 0.042768195 -0.46245518 -0.00542915 0.41180032 0.36286777
-0.018164467 -0.083981305 0.30555195 -0.24778359 -0.102843344 -0.27648288 -0.21234958 -0.22958548
-0.29603365 -0.08507436 0.32818645 0.22764634 0.38842976 -0.1817099 -0.14168283 0.23087575
0.08413872 0.3971169 -0.3347299 0.11331686 -0.38565707 0.30087805 0.3419615 -0.043703962
0.30782104 -0.075364664 -0.21031196 0.43205327 0.20297778 0.32295966 -0.33711085 0.1385586
-0.16688293 -0.18949685 0.40275714 0.0034538948 -0.11412382 -0.035977464 0.049268883 0.18163823
0.20843945 0.09841747 0.24587438 -0.052010804 -0.04154542 -0.12324059 -0.27529675 -0.3041157
0.44151032 0.023535183 0.31515115 0.36099547 -0.116959535 0.031064931 0.17073639 -0.014374775
-0.01742761 -0.17132412 0.076743916 0.22722025 0.32966846 0.16595452 0.01934192 0.040308353
-0.28925312 0.42256126 0.09515861 0.029109417 0.2971604 -0.25013286 -0.18989275 -0.313383
0.15862831 -0.3750623 0.31070238 -0.31479076 0.22595748 -0.28224972 0.4343816 0.3546468
0.07916956 -0.28628165 -0.32249597 0.3070272 -0.30731237 0.2599654 0.0041721417 0.34523585
-0.32884178 0.21066105 0.39754683 0.22156155 0.41544205 0.34855786 -0.09693828 0.3781812
-0.1575784 -0.4756306 0.031230615 -0.33747342 0.1617451 -0.21022417 -0.2915718 0.11695373
0.06541212 0.06505533 0.3582463 -0.091991924 -0.3217685 -0.21567304 -0.08550653 0.2391333
-0.15000555 -0.23942609 0.29282683 -0.13293785 0.34282857 -0.26299933 -0.29322204 0.18391982
0.43845785 0.38499537 0.36327374 -0.16619973 0.32808077 -0.115193665 0.046739735 -0.21881977
0.54129213 -0.1930889 0.4485932 0.3925348 -0.0075532473 -0.2802253 -0.39315516 -0.13982376
0.49480098 0.08787388 -0.277803 0.071875215 0.37784943 -0.10717197 0.0120514305 0.3329628
0.023832332 0.04312601 -0.03879317 0.08153231 -0.035762224 -0.3309162 0.43717474 0.31861135
0.1631125 0.24182874 0.34742936 0.023365218 0.24079771 -0.3243352 -0.24958739 0.24720581
-0.02638377 -0.072187945 -0.11770028 -0.42249092 0.5370476 -0.24733825 -0.029672984 -0.3047427
0.30740547 -0.28544176 -0.30083764 -0.2302987 -0.07182914 -0.121877745 0.052494362 -0.09014365
-0.27727705 0.09586309 -0.067173176 0.18637004 0.38501275 0.28066674 -0.12670374 -0.10791962
-0.009111706 -0.009872166 -0.2300906 -0.37240282 -0.14078704 -0.35785067 -0.12683252 -0.27820972

layer1.bias f4 [128]
00000000: 78ce 73bd b571 87be 4e85 903e 2cdc 9a3e
00000010: 7f87 1b3e 6b46 34be 612e 29be b576 a53e
00000020: 90e8 adbe 294b 9f3d 5347 d03e 0d58 aebe
00000030: 1433 353c ed0c cf3e 7e78 8abc 24c7 893e
00000040: f6d1 b53e 5d56 7a3e c87d 683e e98d 163c
00000050: d9ba 2d3d 8a3c 3b3e 76f1 abbe 131f cc3e
00000060: 5cf0 b43e f49e 4e3d 855c 213e 7e43 a93b
00000070: 125e 31be 3298 69be f3bf c9bd 59ea bdbe
00000080: 4fc3 b9be efa7 e03e 737a 973e 64c8 9f3e
00000090: 146c 913e d41b bcbc 1643 2a3e 8c16 b43d
000000a0: c63e 9a3d 1f2a 77bd 009f 91bd dc78 453d
000000b0: 6607 80bd 93ad bc3e 3d93 333e 3e95 b2bd
000000c0: 04b4 a73e bc4e d1bd 993d 193e abdc 013e
000000d0: 0064 8bbe 7b19 68be 8d6a 56be 96d4 443e
000000e0: 6db2 9b3e 646c 773e 9946 d53d 5283 e43c
000000f0: e0ee 71be e367 3bbd c36f 9abe 60c7 9b3e
00000100: 7621 c63e f849 d63e 6efd cb3c 8294 c03e
00000110: ba5b 6f3e d83c 413e f8a9 eebc 164c 8ebe
00000120: 0e99 93be e9da b03d 36d2 923e a411 b03e
00000130: 4c64 38be 7170 9dbe 292a 643c 712d 1f3e
00000140: 1024 ad3d b0e8 d43e 2244 e3bd 152c 013c
00000150: 83f2 bc3e bb08 c2bd 114e a5be e248 5dbd
00000160: 9ce1 a13e a70f ba3e 98ea d3bd 9455 ae3e
00000170: dab0 ba3e 33ce 89bd ec09 9bbd 4fc8 95be
00000180: a19a ab3e 367c 873d b8ec 0fbe c86a b3be
00000190: 6d80 233e 4b18 96be a9a1 cebe 936a 62bd
000001a0: 2ce8 31be 764b 843e 7f03 cbbe 1da1 7bbe
000001b0: 9550 b3be c562 aebd 31ff b2be d51f 2dbe
000001c0: 9966 42bd 8b21 35be 0849 99be 4e83 113e
000001d0: f78e 36be 2666 12bc cba7 43be 24d4 a13e
000001e0: dac1 32bd 48cf b7bd b178 2a3e d6d2 bdbe
000001f0: 14e0 de3d 90d8 9a3d dc09 823c 2e10 aa3e
-0.059523076 -0.2645394 0.28226703 0.30246103 0.15188406 -0.17604987 -0.16521598 0.3231713
-0.33966494 0.077780075 0.40679416 -0.34051552 0.011059541 0.4043955 -0.016903158 0.26909745
0.3551175 0.24447007 0.22704232 0.009189107 0.04241452 0.18284813 -0.33582658 0.39867458
0.3533963 0.05044456 0.1575795 0.0051655164 -0.17321041 -0.22811964 -0.098510645 -0.37092856
-0.3628182 0.43878123 0.2958561 0.31207573 0.2840277 -0.022962488 0.16627154 0.08793363
0.07531504 -0.060342904 -0.07110405 0.048210964 -0.06251411 0.36851177 0.17536636 -0.08719872
0.3275453 -0.102200955 0.14964904 0.12681834 -0.2722473 -0.2266597 -0.20939083 0.1922172
0.30409566 0.24162441 0.10413856 0.02789465 -0.2362628 -0.04575337 -0.30163392 0.3042555
0.38697404 0.4185331 0.024901118 0.37613302 0.23374835 0.18870866 -0.029133782 -0.27792424
-0.2882771 0.08635504 0.28676003 0.3438846 -0.1800701 -0.30749848 0.013926067 0.15544678
0.08454144 0.41583776 -0.1109698 0.007884045 0.36903772 -0.094743215 -0.32286122 -0.054024585
0.3161744 0.36340067 -0.103474796 0.34049666 0.36463052 -0.067287825 -0.07570252 -0.29254386
0.3351641 0.06615488 -0.14055145 -0.35042405 0.1596696 -0.2931541 -0.40357712 -0.05527742
-0.17373723 0.25838822 -0.39651105 -0.24573179 -0.35022417 -0.085149325 -0.3496032 -0.16906674
-0.047461126 -0.17688577 -0.2993853 0.14210245 -0.17827974 -0.008935487 -0.19106977 0.31607163
-0.043641903 -0.08975083 0.16647603 -0.37074918 0.10882583 0.07560837 0.015873842 0.3321547

layer2.weight f4 [128, 128]
00000000: 1aaa 323d 92e4 2c3e 8bcb b5bd d6df 8bbc
00000010: 364c adbc fea5 9abd 5cad 37be e5d5 ca3c
00000020: 7e9f 863c 6306 1c3c 161e 0abd 9b96 17bd
00000030: a2a4 c43d 4733 0abd 9b6e b23d ec0a 7d3c
00000040: 70e8 a93d a0c8 39bd aae3 d6bd 0157 963d
00000050: 45eb bd3d 1ee5 3a3d 9aa6 da3c e0dd a63d
00000060: ef9a 46bc 8670 273d f07b d83d 8275 c83c
00000070: 9d8f c5bd ca2b 04bc 8633 963d 4aaa f83c
00000080: ddbf 4f3d efa8 b23d c781 24bd c9bc 8c3d
00000090: 61c1 7d3d 809a 7fbd cd8c acbd 227f 91bd
000000a0: 2a0c 823d 7e95 2e3d 9f25 8abd 1e03 6e3d
000000b0: 3e3f e63c c4dd bf3d 0ba7 2ebd 2bd5 7cbd
000000c0: b207 cb3c 2199 863d 7269 44bd 4014 763d
000000d0: 6426 2a3d 865e af3c 9574 32bc 2f95 e03c
000000e0: f413 80bd 5a50 e4bc 94b6 e6bc 427b bebd
000000f0: ec71 4cbd 0afc 8b3d 2510 983d 27e0 893c
00000100: c12d bfbd 7765 8dbd 3a91 d1bc 8eff 133c
00000110: 454a babd cb67 6abe 6b9e a5bc efa4 a93d
00000120: 8af8 f8bd c689 89bd b1c8 043d f0a0 d4bc
00000130: 78cd 0cbe 3e58 fabd bd7d 9fbd 7a1b 34be
00000140: e27f 8dbd 89f8 f3ba 1714 66bd db89 39bd
00000150: f112 c33d dbe8 eebc 5ee5 563d 7c41 813b
00000160: 9dc7 8f3d 5a09 a43d 77b9 11bd 14b5 d43d
00000170: 15ae a03c 9493 e1bc d6f9 a3bd 685e 793d
00000180: bfe1 e03c b8d0 cebc 3ed7 fbbc 6976 5a3c
00000190: 3e07 943d 3f0c a33d 5210 493b 2ffc 3c3d
000001a0: aae4 763d 0bc4 b3bd de11 6e3d 961f 023e
000001b0: d26e d83d 87c5 803d b911 49bc 6df7 9abc
000001c0: 3e15 ebbd 6f2d 973b 3e08 acbb 2422 443d
000001d0: e4fb c4bc 34a0 9cbd e65f 31bd 78a6 1e3d
000001e0: 7125 82bd 545d 433d a872 66bd 6265 bd3b
000001f0: cbea 5cbd 8005 2fbd f585 283d e74f ab3d
00000200: 9725 24bd ec1c a8bc 6a79 c23d 04a3 1e3d
00000210: f957 9b3d 282a 97bd 368a 9a3d 6701 7a3d
00000220: 2037 45bd 82a8 933d 5550 9d3d a1cb 8ebb
00000230: b317 933a 818b 953d 3841 36bc 7811 10bc
00000240: 7c68 cc3d aff5 3fbd adff 8a3c 50ba dcbb
00000250: 3548 9bbc 8907 88bd 2f9a a93d 6b87 943c
00000260: 51fd aebd fc3e 8ebd 5dda a13d 9810 0b3d
00000270: 08cc fbbc 720c 0a3d 4846 8dbd bc22 203d
00000280: adfa c2bd 4ba5 1cbc 2b87 91bd 4c0e 7c3c
00000290: da11 7a3d 62c4 843c 6a2c d63c 4ef4 9abd
000002a0: 3a9e 56bd 8b15 46bd 9689 0e3d 7238 0ebd
000002b0: e89c 4fbd 0de7 b0bc 501b c2bd ef98 11bc
000002c0: fa94 ef3d 3f98 903d 5b7f 89bb a131 1cbd
000002d0: 6837 10bd e862 5a3d c367 bbbd 1315 6fbc
000002e0: 3cf1 dbbc 5c1e 2c3e 0d9e 693d e0ce 103e
000002f0: 7ed1 053d 5cae 0ebe dce2 e3bc 6e9a 7e3d
00000300: 7c7c 043e 8244 733d 19f5 b9bc 71a1 803c
00000310: baf9 023e 67c9 fa3d e29a f4bc 2511 abbd
00000320: be1d 0bbe 252b 1c3d 1c62 393c 9946 24bd
00000330: 7275 d5bc 6554 5f3d 6255 ae3d da76 89ba
00000340: 8701 c0bc db18 b43d 6be8 52bd fa9f c73d
00000350: dc38 83bc 6687 30bd c5cc debd 32c1 96bd
00000360: b046 aa3d 2d41 a03a f41e 66bd 83eb 7a3d
00000370: cb4b ebbc e88d 943d 5273 57bd 9f05 ab3d
00000380: fb51 4fbd 00bc f5bb 03d6 933d d45a 4c3c
00000390: 504d dfbd 8d59 853d 1e6d 80bc 4fed 073e
000003a0: ab3f bebd b06d a3bd 1517 953d 409e 083d
000003b0: 2e97 c5bd 5ee5 0dbc 0e93 ed3d 8b5b 86bd
000003c0: f546 8c3d 3eaf e63c 4229 c43b 36b8 dbbd
000003d0: 9691 133c 5cdb 0bbd 0089 653d 82b3 813c
000003e0: 3f8e bb3d b4f2 f0bd c76f 913d 35b6 883d
000003f0: 8cb2 6fbd b637 a6bc 8b0c 98bc 488a 0b3d
0.043619253 0.16884068 -0.08876713 -0.017074507 -0.021154504 -0.07551192 -0.17937225 0.024760196
0.016433474 0.009523007 -0.0337201 -0.037008863 0.09601714 -0.033740308 0.087125026 0.0154444985
0.08296287 -0.045357347 -0.10492642 0.073408134 0.0927339 0.04562866 0.02669077 0.08147788
-0.0121219 0.040878795 0.10570514 0.024470095 -0.09646533 -0.008067081 0.07334046 0.030354638
0.050720084 0.08723628 -0.040162828 0.068719454 0.061952 -0.062403202 -0.08425293 -0.07104327
0.06349976 0.042623036 -0.06745457 0.05810844 0.028106328 0.0936847 -0.042639773 -0.06172673
0.024783943 0.06572176 -0.047952123 0.060077906 0.04154052 0.021407377 -0.010892053 0.027414886
-0.06253806 -0.027870346 -0.028163232 -0.09300853 -0.049913332 0.06835182 0.07424954 0.016830517
-0.09334899 -0.069041185 -0.025581945 0.009033097 -0.09096197 -0.22891156 -0.020217141 0.08283412
-0.1215678 -0.06715731 0.032417957 -0.025955647 -0.13750255 -0.12223862 -0.077876545 -0.17588606
-0.06909157 -0.0018613498 -0.056171503 -0.045297485 0.09525097 -0.029163769 0.052464835 0.003944574
0.07020495 0.08009596 -0.035577264 0.103861004 0.019614259 -0.027536191 -0.08006637 0.06088105
0.027451394 -0.02524601 -0.030742284 0.013333895 0.07227944 0.0796132 0.0030679894 0.04613894
0.060276665 -0.087776266 0.05812251 0.12707362 0.10568012 0.06287675 -0.012272292 -0.01891681
-0.11478661 0.0046135704 -0.005250006 0.04788412 -0.024045892 -0.07647744 -0.043304347 0.038732976
-0.06354798 0.047696427 -0.05626169 0.005779908 -0.053934854 -0.042729855 0.041143376 0.083648495
-0.04007491 -0.020521604 0.09495814 0.038729683 0.07585139 -0.073810875 0.07545893 0.061036494
-0.048148274 0.07209875 0.07681338 -0.0043577706 0.0011222273 0.07301999 -0.011123948 -0.008793227
0.09980866 -0.04686516 0.016967619 -0.0067360774 -0.01895533 -0.06642062 0.08281361 0.018130979
-0.0854441 -0.06945607 0.079029776 0.033951372 -0.030736938 0.033703275 -0.06898171 0.039095625
-0.09520469 -0.009560893 -0.07105859 0.015384268 0.06105218 0.016206924 0.026144225 -0.07566129
-0.05239699 -0.04836039 0.03479918 -0.0347218 -0.050686747 -0.021594549 -0.09477866 -0.00888656
0.11698337 0.07060289 -0.00419609 -0.038133267 -0.03520909 0.05331698 -0.0915065 -0.014592427
-0.026848428 0.16808456 0.057035495 0.14141417 0.03267049 -0.139337 -0.027818136 0.062158994
0.12938112 0.059391506 -0.02269988 0.015701981 0.12790576 0.12245446 -0.02985901 -0.083528794
-0.13585564 0.038127083 0.011314895 -0.04010639 -0.026056979 0.054523844 0.08512379 -0.0010487691
-0.023438228 0.08793803 -0.051491182 0.0974731 -0.016018324 -0.043097876 -0.108789004 -0.07361068
0.08314264 0.0012226455 -0.056181863 0.061259758 -0.028722664 0.07253629 -0.052600212 0.083506815
-0.050615292 -0.007499218 0.07218554 0.012472827 -0.10903418 0.06511221 -0.015677031 0.1327412
-0.092894875 -0.079799056 0.07279793 0.033354044 -0.09647976 -0.008660642 0.11600314 -0.06560429
0.068494715 0.028159734 0.0059863636 -0.10728495 0.009006878 -0.034144744 0.056038857 0.015832666
0.09157991 -0.11765042 0.07101398 0.06675378 -0.058519885 -0.020290237 -0.018560668 0.034067422

layer2.bias f4 [128]
00000000: 8bd1 ec3b e235 17bc 22e5 bb3d e00e 293d
00000010: 4c1e eebb a365 a1bd f7aa 72bd f58c bcbd
00000020: 7482 3e3d d484 4cbc f533 33bd a652 40bc
00000030: 4515 7f3d a539 993d b642 63bc becb a1bd
00000040: 4e50 4bbd 61f2 cb3d ab1a b13c d8b8 d53c
00000050: f4e5 9cbd 50c9 503d 7c7c 9f3d a2c0 b73d
00000060: 8631 29bb 2f5c a93d 40b2 6b3d afcb 48bd
00000070: 0cae 113c 5ce2 acbc a039 41bc 0ac9 b53d
00000080: c220 9f3c f0b8 49bd c39a 8ebd 0cad 463d
00000090: 6e62 0e3c 9303 e63c ebf5 61bd 8ccd 493d
000000a0: 51aa 28bd 13d2 963d a8d6 c0bc d1af cd3d
000000b0: 858d 1a3d 8738 543d c26a 713d 18ec 603d
000000c0: 23f4 61bd da59 193d 0a57 86bb 03e2 593d
000000d0: 3685 d13d 5478 a6bb a86a 4cbd f36f 6b3d
000000e0: db9f e13b 6ace 34bd c60e 51bd 9f81 61bd
000000f0: 2874 5c3c 238b d43d e96d d23d c123 393d
00000100: 3fb7 bc3c c83e 54bd ef6c 6fbd 3cf4 643d
00000110: a933 25bd ced6 c1bc 127e 313d 4c5d 883d
00000120: a1cd ae3d 8335 6d3d e190 8b3d d5b7 a93d
00000130: c9f6 67bd e84e 783d 3e33 ce3c 82df a6bd
00000140: 92a4 c1bb 56f6 a43d 3cbb 9cbd f4b0 c73c
00000150: 15b9 943d cdb9 c5bc 119f 8c3d 7d3e 0cbd
00000160: 202a 76ba 0445 8cbd 68b6 b7bb a0e3 80bd
00000170: 932b 6f3d 41f3 6ebd 9f0e fe3c 727d 5abd
00000180: 335d cd3c 731e 753d b1cf 993d 92af d53c
00000190: aae1 7bbc cb20 54bd 6ade 353d 194c f63c
000001a0: 7eb4 9d3c 20a5 4b3c 0091 8b3d bf04 a43d
000001b0: 51fd 863d 3d54 2e3d ac35 8dbd e173 8e3d
000001c0: c019 36bd 7dd4 a13d 656c dc3d 2140 d1bc
000001d0: 35ba 2c3d 4542 f7bc 9821 dfbc f0d8 763d
000001e0: eb1c 86bd a0cd 91bc f5a9 0abd 3cb1 ddba
000001f0: 2539 823d 11c4 1d3d c481 1cbd 823f 183d
0.007227128 -0.009229155 0.09174563 0.04127395 -0.0072667953 -0.07880714 -0.059245076 -0.09206573
0.04651113 -0.012482841 -0.043750722 -0.011738455 0.062276144 0.07481698 -0.013870886 -0.07900189
-0.04963713 0.099583395 0.021619162 0.026089117 -0.076610476 0.050973237 0.077874154 0.08972289
-0.0025816872 0.08269536 0.05754304 -0.049022373 0.008891594 -0.02110403 -0.011793524 0.08876236
0.0194248 -0.049248636 -0.06963112 0.048504874 0.00869046 0.028077876 -0.055166166 0.04926829
-0.04117805 0.07364287 -0.023539856 0.100433 0.03773262 0.05181172 0.058939703 0.054912657
-0.055164468 0.037439205 -0.0040997313 0.053194057 0.10230486 -0.005080262 -0.049906403 0.05747981
0.0068855113 -0.044142164 -0.05103948 -0.055055257 0.013455428 0.10378101 0.1027487 0.045200113
0.023036597 -0.051817685 -0.058453497 0.055896983 -0.04033247 -0.023661997 0.04333312 0.0665842
0.08535314 0.05791236 0.06814743 0.08287016 -0.056631837 0.060622126 0.025170919 -0.081480995
-0.005909511 0.08054797 -0.076528996 0.02437637 0.07261864 -0.024136448 0.06866277 -0.03423928
-0.00093904324 -0.06849101 -0.0056064613 -0.06293416 0.058391165 -0.058337454 0.031012831 -0.05334229
0.025068855 0.05984349 0.07510317 0.026084695 -0.015373627 -0.051789086 0.044401564 0.030065583
0.019251104 0.012429506 0.06814766 0.08008718 0.06591285 0.042560805 -0.06895003 0.06955696
-0.04445815 0.07901857 0.10762862 -0.025543274 0.04216977 -0.030182967 -0.027237698 0.06026548
-0.065484844 -0.017798245 -0.03385349 -0.0016913782 0.06358556 0.03851706 -0.03820969 0.03716994

layer3.weight f4 [9, 128]
00000000: 80c2 2e3d 3e49 cabd 8cc7 083e 6a09 0abe
00000010: 5a0d 893c b4df 413d 327e 883d 662e 3abc
00000020: 216e a83d fc5b d6bb 4c25 013e b5e2 0d3d
00000030: a930 c23c 7e1f dcbc 5bf2 af3d 876d e9bc
00000040: 50d5 10bd ddc2 cfbc 22e6 b93d dbc8 eb3d
00000050: b71a 8fbd c08a c43d 56df a1bc 7a67 9fbc
00000060: a0e7 f13d d080 8bbd 96ae 35be 27ae 57bd
00000070: 1ded a5bd 1900 9bbd eb71 49bc bf18 243d
00000080: 58f5 6bbc 2fba 3c3d 9827 ee3d 4fc5 c33d
00000090: b190 33be acb6 2e3d 03e1 fa3c 1a90 a3bb
000000a0: 5319 6e3d 2696 c63d 9c3d 63bd 9e4a 1c3d
000000b0: 5178 93bd 7490 963b 926b c0bc 0392 6fbd
000000c0: 71ba 1d3e 1271 8dba 223b 92bd 945c 89bc
000000d0: 29e4 a13d 4602 f63d 0733 9bbd 690f 50bd
000000e0: d2a7 18bd 758b 933d 7c29 ae3c eaa0 a1bc
000000f0: a85c a8bd bdc9 fc3d f082 e13c 256e 32bb
00000100: d2f2 0ebd aafc a63c 2970 b93c 7fe0 8fbd
00000110: 087d acbd de3c c63d 6c8c f33d 5b07 ca3d
00000120: 25c1 9bbc 8fe0 b43d ecf8 433d c6e0 133d
00000130: 6968 473d 6430 2a3d 80ae efbd f04a fabc
00000140: 44b9 d33c 0122 d13d a08b 5f3d a58a 2ebd
00000150: 1cc8 8ebc b9b6 b33c 7cb8 513c 71ee 9f3d
00000160: a8d2 b1bc d041 a2bc 3434 db39 a7af 8f3d
00000170: 0d60 24bd 5610 f9bc 0a0a 7abd 2603 22bd
00000180: f0c7 e3bd 6b2e 8c3c 07b8 ea3d cd01 b33b
00000190: f5cf 87bd 5e0e aa3c 7877 b2bb c689 f43d
000001a0: 4c58 66bd 1d5f aa3d 1633 90bd de15 023e
000001b0: fcde bebc c1b0 9e3c 072f b03d 0f01 cebd
000001c0: 8a46 07bc c7f4 af3d c4a8 02be 8581 323d
000001d0: f8f4 2bbd b3dd 65bd 86b9 a4bc 045b cd3d
000001e0: 7250 dc3c 255c 7f3b a41c bd3d 5c05 843d
000001f0: 20dd 70bc 469c 62bb ec97 02bd 9c91 313d
00000200: 6e4c b93d de7b e4bd bda4 dc3d 313f e7bd
00000210: 80c1 bf3d 56e2 db3b eba8 843c a6db 623c
00000220: 442f f9bc 685f adbc d669 8bbb 7eaa 15bd
00000230: cb88 383c da67 773d 096a ad3d b5eb 213c
00000240: e204 e43c 9e9b df3d ab4a 183c 7c29 0c3e
00000250: 7969 4d3d 1ccf 6a3c 4af6 933c 8256 f6bc
00000260: 0d0b 6d3c 7ca6 213d 70eb f0bd 390a 043d
00000270: caea 503d d578 93bd abcc cdbc c8c8 cb3c
00000280: 0ec2 343d d06e ca38 a157 6bbd 6321 32bd
00000290: 3623 df3c 33b0 f23d baf4 6b3d b17d 803d
000002a0: d450 cd3a 3737 a93c 8cef 06be e56b e23d
000002b0: e6f5 34bd 9dcc 593d caa2 bebc 7b52 f9bd
000002c0: 9e6d 903e eeb4 9e3d 2865 043d 98ad 78bd
000002d0: 6041 e33d 5293 033d 844c 94bd 2c50 4a3a
000002e0: 17d0 a53a d575 bcbb 0657 d3bc aa61 2c3d
000002f0: 8299 f7bd 16dd eb3d 8a46 143e 9800 003e
00000300: 0afe c4bc 864a 6c3d aca4 1d3d 7ae0 bdbc
00000310: dc41 cebc 581e 6e3d cea3 6fbd 6a7a b13d
00000320: e639 c23d b6d3 a43d a9e6 963d 14c9 3f3d
00000330: 4001 3f3d 293b 9f3d 1e1b 71bd abb5 9dbd
00000340: f026 39bd 63fe 843d 4277 c3bc 5961 763c
00000350: 99f5 a0bd 8d5f 40bd 664e afbd 0f13 46bd
00000360: 0a2a 443c 033f ba3c 495c bebd 7e0a c3bc
00000370: 4f39 36bd 372e 9b3d 7155 323d d05a 973c
00000380: 60cb cfbd cfe0 933d 54c6 febc a061 e43d
00000390: d4d1 d43c d9d0 9c3d a138 a73d 8f44 efbc
000003a0: be81 97bd 617a bcbb 6109 c03c 512d d73d
000003b0: 71f7 0c3d 8fd5 69bd f571 1dba a7fd 7f3d
000003c0: 4e21 a93b b014 d43c e49b 0ebe 9e6a 873d
000003d0: 2cec c03d e42d 7b3d c65a 103d a122 093e
000003e0: 452d 80bd c254 4abd b0f1 403d c74d 813d
000003f0: 4099 cf3c 4c43 5abd 0c22 433d e54b cfbc
0.04266596 -0.09877251 0.13357371 -0.13480154 0.01673 0.04733248 0.06664695 -0.011363601
0.082241304 -0.006541727 0.12611884 0.034640033 0.023704844 -0.026870485 0.085911475 -0.02849461
-0.03535968 -0.025361473 0.090770975 0.115129195 -0.06987517 0.09596777 -0.019759815 -0.019458521
0.11811757 -0.068116784 -0.1774238 -0.05265632 -0.081018664 -0.07568378 -0.012295227 0.040062662
-0.014401756 0.046075996 0.11628646 0.09559118 -0.17535664 0.04265468 0.030624872 -0.0049915435
0.05812962 0.09696607 -0.055478677 0.038157098 -0.07200683 0.004594857 -0.023488794 -0.058488857
0.15403153 -0.0010791144 -0.07140185 -0.016767778 0.07904846 0.120121524 -0.07578092 -0.050795946
-0.03726942 0.07204334 0.021260016 -0.01973005 -0.08220798 0.12343166 0.027528256 -0.0027226296
-0.03489954 0.020384151 0.02263649 -0.07025241 -0.08422285 0.09679578 0.11892018 0.09864684
-0.019012997 0.08831894 0.047844812 0.036103033 0.048683558 0.041550055 -0.11703205 -0.030553311
0.025845177 0.10211564 0.054576516 -0.04261269 -0.017429404 0.021937715 0.012800332 0.07809151
-0.021706894 -0.019806772 0.0004180983 0.07015925 -0.040130664 -0.030403297 -0.06104473 -0.039553784
-0.111221194 0.017111978 0.11460882 0.005462861 -0.066314615 0.020758804 -0.0054463707 0.11940341
-0.05623655 0.08318923 -0.07040994 0.12703654 -0.023299687 0.019371392 0.0860272 -0.10058796
-0.008256564 0.085916094 -0.12759691 0.04358055 -0.041981667 -0.056119632 -0.020107996 0.100271255
0.026893828 0.0038964835 0.092339784 0.06446335 -0.014701158 -0.003457801 -0.031883165 0.043351755
0.09047781 -0.11156438 0.10773609 -0.1129135 0.09363079 0.006710331 0.016193828 0.013846314
-0.030418046 -0.021163657 -0.00425456 -0.036539547 0.011263083 0.060401775 0.0846749 0.009882857
0.02783436 0.109183535 0.009295146 0.136877 0.050149415 0.014331605 0.018061776 -0.030070547
0.014467967 0.039465412 -0.11763656 0.03223631 0.051005162 -0.07200781 -0.025122007 0.024876013
0.044130377 9.652751e-05 -0.057456616 -0.04348887 0.02723847 0.118500136 0.057606436 0.06273974
0.0015664347 0.020656211 -0.13177317 0.110557355 -0.04417982 0.05317365 -0.023270983 -0.12173935
0.2820863 0.07749353 0.032323033 -0.060712427 0.11096454 0.032122917 -0.07241157 0.0007717635
0.0012650517 -0.0057513514 -0.025798332 0.042085327 -0.12089826 0.11516778 0.14480034 0.12500226
-0.024046917 0.05768826 0.03848712 -0.023178328 -0.025177889 0.058134407 -0.058505826 0.08665927
0.094836995 0.08048193 0.07368214 0.046822622 0.04663205 0.07774956 -0.05886375 -0.07700666
-0.04520315 0.06493833 -0.023860577 0.015037858 -0.07859344 -0.046966124 -0.08559875 -0.04835802
0.0119729135 0.022735124 -0.09294946 -0.023808714 -0.044488247 0.07577174 0.043538515 0.01847592
-0.101462126 0.07220613 -0.03110043 0.11151433 0.02597896 0.07657022 0.08165098 -0.029207496
-0.07397793 -0.0057518934 0.023441972 0.1050669 0.034415666 -0.05708843 -0.00060060556 0.06249776
0.005161441 0.02588877 -0.13926655 0.066121325 0.09420046 0.06132306 0.03524282 0.13392116
-0.062586345 -0.049397238 0.04710549 0.06313663 0.02534163 -0.053286836 0.04763989 -0.025304744

layer3.bias f4 [9]
00000000: e7f3 af3d cafb 52bc c499 3dbd b550 13bd
00000010: b819 f2b7 a54f 05bd 672a c23d bc18 38bd
00000020: ddf7 a4bd
0.085914426 -0.012877414 -0.04628922 -0.03596564 -2.8860624e-05 -0.032546658 0.09480744 -0.044945464
-0.08055089
