Assets/Models/test.model (torch, 76512 bytes, 6 tensors)

layer1.weight f4 [128, 6]
00000000: c385 bfbd 31bb a93d 1998 80be 61f8 283a
00000010: 9bee 9dbe 3b55 71be 9c3a a4be 64b0 ae3d
00000020: c5ea 63bd 0b23 bdbe 05ec 26be a661 b5be
00000030: 3950 ec3e 9956 9abd 17a7 9cbd b4c8 2cbe
00000040: 0f85 433e f7b5 b33e 8a26 bb3c cb36 febd
00000050: 5cdd c23d 3f76 6e3d d42c 963e 0f70 b43e
00000060: 5404 333e 9bac 2d3e 9f82 c5be 1c41 863e
00000070: b318 98be 166d f43d a1d0 aabe 60ba cfbe
00000080: 5a9e 10be 9e9e 943b 2abe 70be 81d5 dbbd
00000090: 2315 fcbd 0d09 d6be 5bb1 fa3d 7882 a53d
000000a0: 2c3d 5ebe 523b bb3e c621 883e 25f2 c8be
000000b0: 56dd cbbe f13c edbd b1ea c93e 5197 ae3e
000000c0: 594e c33e 4a05 803c cea7 29be b813 a73e
000000d0: a701 5d3e 5c10 073d 9485 8dbe 44e6 613e
000000e0: 0384 833e 2c33 ca3e 12ab f8bd bf0b babe
000000f0: 55f1 a6be aad7 a63e 6339 bbbe 2241 713e
00000100: 830d 003e 0a2f eeb6 df47 f93e 3ace 4f3e
00000110: d99d 1c3e 6bb8 513e 5382 273e 0744 55be
00000120: 97e6 b43c d8e5 a3bd 7755 d63e d3f6 353e
00000130: c800 a2be 13a6 763e 300e eb3e 5f2f 85bb
00000140: d901 d03e adee b23e 170a 983e 717b 09be
00000150: 6bda 893e 6ba2 60be d3a5 c1bd 9654 35be
00000160: dc23 32be 32a7 913e 1a8d 843d 76c9 ecbd
00000170: 4867 d1be 4ee3 4b3d d6f2 953d d30f 3a3e
00000180: cdc6 843d 6f88 393e 25a4 273e e375 183e
00000190: d314 cf3e 068a afbd b006 0b3e c2b3 2f3e
000001a0: 49be bd3d 0a37 44be ba71 b33e 04f9 9e3e
000001b0: 6396 a5be 2552 9e3e d6c0 bdbe 7be2 86be
000001c0: 0d48 85bd ecfb f93d 6b6a 7abe 9def aebe
000001d0: 91fc 163e 6643 cf3e 7449 ce3e bf2e 91be
000001e0: 80a4 cf3d e24a 28be ba5d 5dbd e4cd 9abe
000001f0: 17f0 2fbe 7b06 8f3e cbc4 06be 0b85 8abc
00000200: e7c7 99be 6ab7 b0be 4857 6b3d 9ac3 6bbe
00000210: 41fc 24be c94b 63be 7d94 6bbe e3f9 c43e
00000220: 38f9 93be 0d53 663c 2605 193e 977a b43e
00000230: c892 b53e ee94 afbe d1d3 423e 11ca a8be
00000240: 3369 4a3e 982f 7b3e b40d c5bd 16fe 833e
00000250: e265 083e 0fc2 c23e 4371 643e e389 a13e
00000260: 0008 a63e b037 c33e a7d9 773e 14b4 da3c
00000270: 3fa0 b43e d5e8 b63e be27 ab3e 0452 863e
00000280: a973 073c 86b1 79be 184a 8abe 8462 543d
00000290: 03dc aebe d9ee b83e d4a6 c53e 39a1 38bd
000002a0: 98bc d33e 270c 98be 0038 b33d 1dc1 833c
000002b0: 02ae a13d f687 65be debe a13e 74a2 a9be
000002c0: 64ed 4d3e 9694 02be 81aa e13e b952 a93e
000002d0: 70ae 2e3e 7db4 c03e 032b 863e cbc9 bfbe
000002e0: 8b45 a4be c05f 4fbe 4fab b43d 5558 3abe
000002f0: 1aa8 cebe c387 ab3e ed76 ce3d 660a b83e
00000300: 55df 82bd f893 a43e 3315 33bd 3630 493d
00000310: 7ad8 cf3e 7ead 87be a593 9c3e cf6c b93e
00000320: bb54 89bb a6d8 ce3e 75ad 44be 0c8d 513e
00000330: 2435 0f3d f786 9ebe d436 c33e a460 03be
00000340: d201 533e 363e 603e 237e 0fbe 6210 d33e
00000350: 75e3 013e 0ad3 68be 1235 51be d102 dd3d
00000360: 43f8 b33e 82c4 3cbd 6493 92bc 3e78 063c
00000370: 632a d93d ca4d 6dbe 0705 a73d 317a b5be
00000380: 9ea4 953e a152 4fbd dd3f d93e 2a00 80be
00000390: 7103 9b3e dc49 663e 44c1 c0be 8834 693e
000003a0: feaa 55bc 458e cbbe 7499 b9be 6d8b 88be
000003b0: 7c07 0fbe b54f f73c 0e9c 613e d5ff a13e
000003c0: f2ab 44be 4a30 a7bd f8ba c03e 3fb4 023e
000003d0: fb77 b73e c7e9 573e 2d4c 5e3e f1be 9ebe
000003e0: 346b a4be db7d d0be f033 adbe 82d7 4bbe
000003f0: 9ba4 22be df53 4cbe 49d6 073c 2c0e 9a3d
-0.09351685 0.08287657 -0.2511604 0.0006445703 -0.30846104 -0.23567669 -0.32075965 0.085297376
-0.055643816 -0.36940798 -0.16300972 -0.35426062 0.46154955 -0.075360484 -0.07649057 -0.16873437
0.19093727 0.35099766 0.022845525 -0.12412795 0.09514877 0.058218237 0.29331076 0.35241744
0.1748212 0.16960375 -0.38576218 0.2622155 -0.29706344 0.11934869 -0.33362296 -0.4057188
-0.14122906 0.00453551 -0.23510042 -0.10734082 -0.12308719 -0.4180378 0.12240859 0.080815256
-0.21703023 0.36568695 0.26588267 -0.39247242 -0.39817303 -0.11583889 0.39436868 0.3409982
0.38145712 0.015627522 -0.16567919 0.32632232 0.21582662 0.032974586 -0.27640975 0.22060496
0.25686654 0.39492166 -0.12142004 -0.36337087 -0.32605997 0.32586414 -0.3656722 0.23560002
0.12505154 -7.098429e-06 0.48687646 0.20293513 0.15294589 0.20480506 0.16358308 -0.20826732
0.02208261 -0.080028236 0.4186208 0.17769937 -0.3164122 0.2408679 0.45909262 -0.004064485
0.4062641 0.3494772 0.29695198 -0.13425995 0.26924452 -0.21936958 -0.094554566 -0.17708048
-0.17396492 0.28447872 0.064722255 -0.11561863 -0.4089911 0.04977732 0.07321708 0.18170099
0.06483231 0.18118452 0.1637121 0.1488872 0.40445575 -0.08571248 0.1357677 0.17158416
0.0926481 -0.1916162 0.35047704 0.3104936 -0.32341298 0.30922046 -0.37061185 -0.26344666
-0.06507883 0.122062534 -0.24454658 -0.34167185 0.14744784 0.40481108 0.40290415 -0.28355977
0.10138798 -0.16434816 -0.054044463 -0.30235207 -0.17181431 0.27934632 -0.13161008 -0.016909143
-0.30035326 -0.34514934 0.057456285 -0.23023835 -0.16111852 -0.22196878 -0.23005863 0.38471898
-0.28901076 0.014057887 0.1494337 0.3524978 0.35463548 -0.34293312 0.19026114 -0.32966664
0.19766693 0.24529874 -0.09621754 0.2577979 0.13320115 0.3803868 0.22308831 0.31550512
0.3242798 0.38128424 0.24204122 0.026697196 0.35278508 0.35724512 0.33428758 0.26234448
0.008267322 -0.24384126 -0.27009654 0.051851764 -0.3415223 0.36119726 0.38603842 -0.04507563
0.41354823 -0.29696772 0.087509155 0.016083295 0.078945175 -0.22415146 0.31590933 -0.33131754
0.20110089 -0.12751994 0.44075397 0.33070925 0.1705873 0.37637702 0.2620469 -0.37458643
-0.32084307 -0.2025137 0.08821737 -0.18197758 -0.40362626 0.33502015 0.10081277 0.35945433
-0.063902535 0.3214414 -0.04372139 0.049118243 0.40594846 -0.26499552 0.30581394 0.36215827
-0.004191009 0.40399665 -0.19206794 0.20463961 0.03496279 -0.30962345 0.38127768 -0.12829834
0.20606163 0.21898732 -0.14012961 0.41223437 0.12684424 -0.22736755 -0.20430401 0.10791553
0.35150346 -0.046085842 -0.017892547 0.008207379 0.10603788 -0.23174205 0.08155256 -0.35444787
0.29227155 -0.05061591 0.42431536 -0.25000125 0.30276063 0.22489113 -0.3764745 0.22773945
-0.013041256 -0.3975698 -0.36249888 -0.26668873 -0.13967699 0.030189374 0.22032186 0.31640497
-0.19206217 -0.08163507 0.37642646 0.12764071 0.35833725 0.21085273 0.21708746 -0.31005052
-0.3211304 -0.4072102 -0.33828688 -0.19906428 -0.15883105 -0.1995387 0.008290836 0.07522234

layer1.bias f4 [128]
00000000: bbc2 b0be f06b 89be d405 be3e bd45 78be
00000010: 7e7b 0a3e 5077 6fbe ddf4 b53e a321 03be
00000020: 1c1b a93e 59f8 93be d313 15be 68b3 01be
00000030: 9cfc 41be dba0 c93e 8320 89be 858e 773e
00000040: 8484 503e ec9a d1bc 4e8a 663e 59aa 02be
00000050: 4900 8a3e 67a4 c33c ff38 86be df3a 7f3c
00000060: a4b4 89be e540 473d 994e 01bd 3676 03be
00000070: a0fe bc3e f7e5 373d 7c5c 703e 365f 22bd
00000080: 2816 2b3d dc44 72be b7eb 0d3e 2581 b03e
00000090: a1c3 be3e c426 a43e f41b ce3e 291e 653e
000000a0: 6ba1 d43e 627f 583e 9d6e 833e 3096 efbd
000000b0: dd88 d2bd 2f18 ed3d ff00 54be 185e 9bbe
000000c0: 723e 66be e492 aa3d 0026 4ebe 17fe d2bd
000000d0: a916 8ebe 75e9 40be f6d2 ccbd 0973 9a3e
000000e0: 4b76 813e 4fd2 70be 67ed b93e e77e c23a
000000f0: 65d9 64bd 43a9 d13e 3461 743e 3190 0abe
00000100: 4a43 a0be af51 c33e 08f2 d53e 974c 153e
00000110: 7660 9bbe 9c83 cc3e 4989 b1be d1bb bc3e
00000120: d843 a2be a98c 68be cbf9 aebd 0742 d63d
00000130: b108 8f3e 4ccd 4dbd edbf 3dbe a31b b13e
00000140: 5520 b23d afec 9dbd d528 82be 55bc c23e
00000150: 85db 62be 490f d5bd f3d9 013e 656e aebe
00000160: 979c 46bd c1d5 b3be 1c3c 15bd 42ae 38be
00000170: eaef 573e 1ce4 aabe 5eee d23e 3c32 713d
00000180: f9ef a53e 39ca 3cbe 7ca5 37bd 4a06 59be
00000190: 8f67 e93d 38bf cfbe 960f 33bd aeb3 6a3e
000001a0: da0c 463d 905e f03d 381c 2abd e4ad df3d
000001b0: 617f 393d 6eb3 aa3e efa0 8ebe 8b1d c53e
000001c0: 663e 4d3e f5cd ce3e cdee b33e fbd5 9bbe
000001d0: 45c8 ca3e 3a37 d5bc 5b74 423d 298b 97be
000001e0: 20bd ae3e 1593 9e3d 4a83 d43d 347d cebe
000001f0: 128b a9be ad38 ebbd c734 f9bd e67c ce3e
-0.34523568 -0.26840162 0.37113822 -0.24245353 0.13523671 -0.23385358 0.35538378 -0.128058
0.33028495 -0.28900412 -0.14558344 -0.12666094 -0.18944019 0.39380535 -0.26782617 0.2417546
0.2036305 -0.025586568 0.22513697 -0.12760295 0.26953343 0.023882104 -0.2621536 0.015578001
-0.2689563 0.048645873 -0.031569097 -0.12838063 0.36913013 0.044897046 0.2347278 -0.03964158
0.041769177 -0.2365908 0.1385945 0.3447353 0.37258628 0.32060826 0.40255702 0.22374786
0.41529402 0.21142343 0.2567033 -0.11698568 -0.10280011 0.11576878 -0.20703505 -0.30345225
-0.22484758 0.083287984 -0.20131683 -0.1030237 -0.27751663 -0.18839057 -0.10001175 0.3016589
0.25285563 -0.23517726 0.36313936 0.0014838845 -0.055871386 0.4094945 0.23865205 -0.13531567
-0.31301337 0.38148257 0.41786218 0.14579998 -0.3034703 0.3994416 -0.34675053 0.36862043
-0.31692386 -0.22709908 -0.08543738 0.104618125 0.2793632 -0.050244614 -0.18530245 0.34591398
0.08697573 -0.077111594 -0.25421777 0.3803431 -0.22154053 -0.10403306 0.12680797 -0.340686
-0.04848918 -0.3512402 -0.036434278 -0.18035224 0.21087614 -0.3337716 0.41197485 0.058885798
0.32409647 -0.18436517 -0.044835553 -0.21193805 0.11396705 -0.40575576 -0.043716036 0.22920105
0.0483521 0.11736786 -0.041530818 0.10921839 0.045287494 0.3334002 -0.27857158 0.38499102
0.20043334 0.40391508 0.35143128 -0.30436692 0.3960592 -0.02602731 0.047474246 -0.29598358
0.34128666 0.077428974 0.10376604 -0.40329897 -0.33113915 -0.114854194 -0.121682696 0.40329665

layer2.weight f4 [128, 128]
00000000: c771 a7bd 7110 af3d 7935 14bc 4a6f 4d3d
00000010: ccb2 cfbc ed47 da3c 7a3d 22bd df75 0e3c
00000020: ecb1 533d 5293 a63d 939b aabd 911d 91bd
00000030: 01f8 9cbd 19f7 c53c 2157 433d 857a 823d
00000040: 8594 02bd ea9f 8cbc 56b0 b83d ab44 27bc
00000050: 420d 67bb 5c16 aebc 623d cfbc 82eb 873d
00000060: c6d3 803d a22e 82bc 20e4 93bd 2b35 c0bd
00000070: 5e6c bb3c 6aa0 b0bc ad03 a5bc 545c ae3d
00000080: 9ee0 52bb 077f 453d 6532 96bd 88c6 8a3d
00000090: 8a3f 423c aa06 1e3d 3710 443a af94 a2bd
000000a0: a2fe 463d 5bc5 01bd 4683 143d ead0 a7bc
000000b0: 473e 78bd dbc0 9dbd 69e1 3e3d 2e8b 6b3d
000000c0: 4213 53bd 1c90 86bd f5c2 99bd d8b6 333b
000000d0: 7ae6 cdbc 210a 883d 4265 1abd 2720 8238
000000e0: 1924 04bd 38ec 543d 1932 96bd 02a0 943c
000000f0: a724 963d 9637 44bd a745 0b3d c848 13bd
00000100: 970b 203d 44a5 993d 4ec5 3b3d 4ff5 0e3d
00000110: b44a 96bd 0491 0ebd 0655 63bd 3d18 66bc
00000120: 2558 aebd b8ab 903d c10f a53d 663c 6dbc
00000130: 9d4a 3dbc cdd1 6f3d 6ebf 1fbd c664 a13c
00000140: 4234 92bd 2970 c63d 6847 6dbc 07fb 6e3d
00000150: 33ec 69bc 9628 3b3d d4f6 4dbd 03bf 08bc
00000160: 64c9 bb3a 47eb 37bc 97c3 cf3c baf8 a3bd
00000170: 43e2 b43c 7ff1 8c3c d899 823d 1ebb e2bc
00000180: 931f 8cbd fc90 3abc 0dc1 97bd 5af6 04bd
00000190: 3e0e 05bd a8f3 1a3d 161e ec3b 85ec 58bd
000001a0: 00a3 983d 40af f53b 7d21 0a3d 8b39 843c
000001b0: f088 593d 76aa b93c 30e4 74b9 c772 63bb
000001c0: a512 39bd d8b1 76bc 0b29 b63a a27c a03d
000001d0: ee01 983c 7271 26bd 4074 c53b 13bb 7a3d
000001e0: 45d5 adbd 70a8 a53d 3591 093d f689 cc3c
000001f0: c4d3 9f3d 79dc b2bd f34f 243d 0d91 9e3d
00000200: cad1 d9bb 2b8d 7c3c a9b5 8a3d 99c7 a8bd
00000210: c535 053d 572c 2a3d 37f5 b43d e161 f8bc
00000220: d981 ff3b 3ee8 723d 4917 3ebc 1105 b13c
00000230: 793b b63d 6317 243d a8fd 23bd 141f 0ebd
00000240: 864a 533d a999 173d 7de1 a5bd 12b3 adbd
00000250: 708e 0bbd 8dc8 493d 9736 ae3d d5ff f73c
00000260: 09ab 4cbd 61ce 003c c42b 9dbd be18 b13d
00000270: 7658 613d 26c5 b73b 8bfb 5a3d 2c08 89bd
00000280: d93f 483d 3bb6 b1bd 7fb0 37bd 1e8b b83c
00000290: 5184 ccbd 7f59 d53c 158e b3bd 814b 10bc
000002a0: 1f61 703c 7a8e 0cbd ef0b 9cbd 06e3 643c
000002b0: a2a4 3cbd d51f 91bc 591d 3ebd 26c5 89bd
000002c0: 249f 30bc c00a 9e3d b6ca 2bbd ba12 5ebd
000002d0: 1ec6 9f3d ea17 d13c aae4 033d c394 873d
000002e0: 0cc2 8f3d 53ee 933d e091 b2bd 9ed8 703d
000002f0: 38da 4c3d a298 9f3c 541e 8bbd 5f4c 1a3c
00000300: 139c 0c3c 1ceb 9b3d 9700 b43c 8338 8ebd
00000310: 75b3 ac3c 662f 903d c078 b1bd a762 c6bb
00000320: deea 12bc 1199 853c 9933 863d 9488 adbc
00000330: 0d22 6f3c 9e08 973d 0113 6ebd 2a05 91bd
00000340: 9044 103d a7bb aebd 339c adbd bc1d 043b
00000350: 7c4b 93bd ad64 ab3d 82dc 9d3d ac95 9dbd
00000360: 1d7f 96bd 65db 923d 402b 633d d9d2 863d
00000370: 348a 8b3d 0e21 a43d bde2 873d 48c0 a9bd
00000380: 55c1 303d 208a f03c 205a edbc 7527 afbd
00000390: a2ae 853d 3a64 393d 2fbd c53c 8f1a 4f3d
000003a0: 6b53 153d edbb 663a f6bc 413d 65a2 99bd
000003b0: e796 e13b e548 0e3d 4616 91bd 37b4 983a
000003c0: f644 80bd eced 9abd 992e 7e3d d9c1 803d
000003d0: 5166 a6bd 7fef c63c 35b5 e13c 4794 743d
000003e0: 9a57 9abd 4a10 9ebd c1d6 c83c c1a5 9b3d
000003f0: 67cd 28bd 6a6f 78bd 6787 0e3d ce32 2cbd
-0.08175998 0.08548058 -0.009045952 0.05015496 -0.025353812 0.026645625 -0.03960941 0.008695095
0.05168335 0.08133568 -0.08330455 -0.070857175 -0.076644905 0.024165677 0.047690514 0.06371025
-0.03187992 -0.017166097 0.090180084 -0.010209243 -0.0035255705 -0.021250896 -0.025297824 0.066367164
0.062903926 -0.015891377 -0.07221246 -0.09385141 0.022878822 -0.021560866 -0.020143354 0.08513704
-0.003217734 0.048216846 -0.07333831 0.06776148 0.011855969 0.038580574 0.0007479223 -0.079385154
0.04858268 -0.031682353 0.036258005 -0.02048536 -0.060606267 -0.077028 0.046601687 0.05750578
-0.051532038 -0.065704554 -0.07507888 0.0027422216 -0.025134314 0.06642557 -0.037694223 6.204872e-05
-0.032260988 0.05198309 -0.07333774 0.018142704 0.0733121 -0.047904573 0.034001973 -0.03595808
0.039073553 0.07502225 0.04584246 0.034901913 -0.07338467 -0.034806266 -0.055501007 -0.014043865
-0.08512906 0.07064003 0.080596454 -0.014479732 -0.011553434 0.05854969 -0.03900092 0.019701373
-0.07138874 0.096893616 -0.014482357 0.058344867 -0.014277506 0.045693003 -0.05028422 -0.008346322
0.0014326987 -0.011225528 0.02536182 -0.08006425 0.022080546 0.017204998 0.063769996 -0.027677115
-0.0684196 -0.011387106 -0.074098684 -0.0324615 -0.032484286 0.037830025 0.007205735 -0.052959938
0.07452965 0.007497698 0.033723343 0.01614072 0.05310911 0.02266429 -0.0002335466 -0.0034705864
-0.045183796 -0.01505705 0.001389773 0.07836272 0.018555608 -0.040635534 0.006025821 0.061213564
-0.084879436 0.080887675 0.033585746 0.024968129 0.07804063 -0.08733458 0.040115308 0.0774251
-0.0066473233 0.015414516 0.0677293 -0.08241195 0.03252198 0.041546192 0.088358335 -0.03032011
0.0077974615 0.059303515 -0.011602231 0.021608861 0.08898062 0.040061366 -0.040036827 -0.034697607
0.051584743 0.037011776 -0.08099649 -0.084814206 -0.034071386 0.049263526 0.08506506 0.030273357
-0.0499678 0.007861705 -0.07674363 0.08647297 0.055016004 0.0056082187 0.053462546 -0.06691012
0.048889015 -0.08677336 -0.044846054 0.022527274 -0.09986175 0.026043652 -0.08767334 -0.008807064
0.014671593 -0.034315564 -0.07619464 0.013970142 -0.046055444 -0.017715374 -0.046414707 -0.06727056
-0.01078013 0.07716894 -0.041941367 -0.054217078 0.0780146 0.025524098 0.032200493 0.06620171
0.070194334 0.07223191 -0.0871923 0.058800332 0.050012797 0.01948196 -0.06792894 0.009417622
0.008582133 0.07613203 0.021972938 -0.069443725 0.021081666 0.070402905 -0.08665609 -0.0060542407
-0.0089671295 0.01630834 0.0655281 -0.02118329 0.014595521 0.073746905 -0.058123592 -0.07081063
0.035221636 -0.085318856 -0.08477058 0.0020159325 -0.07192132 0.08368812 0.07708074 -0.07694563
-0.07348464 0.071707524 0.05546117 0.06583185 0.068134695 0.08014117 0.06635044 -0.08288628
0.043153126 0.029362738 -0.028973639 -0.08552448 0.06527449 0.0452616 0.024138061 0.050562438
0.036456507 0.0008801807 0.047299348 -0.075016774 0.006884444 0.034737486 -0.070843264 0.0011650388
-0.06263153 -0.07564911 0.062056158 0.062869735 -0.08124984 0.024284123 0.027552227 0.05971172
-0.0753624 -0.07717951 0.024516465 0.075999744 -0.041211512 -0.060653128 0.0347971 -0.04204064

layer2.bias f4 [128]
00000000: 7ee6 b3ba 6137 3fbd 4826 3fbd a724 29bd
00000010: 6df6 233d bf7c 7bbd e8f4 b03c aecf 733d
00000020: 3293 ad3d 145f 783d f173 8fbb 5a93 d53c
00000030: f2c9 edbc 6392 953d 45e3 8f3d 09ca 42bd
00000040: 2609 2ebd 59cd 62bb 6e0b 503d 40ba b93b
00000050: c200 e73c 1f01 6dbd eedd ac3d ab9f 9abd
00000060: e1a6 083d e5f8 9c3d 59df 833d 4c4e 58bd
00000070: cc47 b7bc fe21 31bd cd51 d9bc b361 97bd
00000080: 3f28 9cbd b415 56bd 856d 48bd 38de 0b3d
00000090: e402 35bd f9b9 2bbb fdbf 62bd c753 04bd
000000a0: 2082 f2bc 5674 6dbd 9726 853d 1db2 ac3c
000000b0: db7e dfbc d8d3 07bd 5627 a13d 2a06 b9bb
000000c0: 002d 91bd 0254 043d d479 32bd 0d67 993d
000000d0: d7c6 813d 2b6f a0bd 9aba 74bd 22b6 88bd
000000e0: fb1b 77bd 3d94 7abd ed55 97bd c48e 85bc
000000f0: 14c8 49bd 4030 c6bc 184c e33c 55e7 a33d
00000100: 3c69 37bd b512 8c3d 03a0 44bd 940a b0bb
00000110: 5c15 b0bc 470b e7bc 7f2c fe3c c1e4 55bd
00000120: 4e14 83bd ee46 803d 3f65 82bc ac2e 8abd
00000130: 3be5 b0bd 231e dabc 832f fd3c 3cb4 a7bd
00000140: d851 983d 3b50 15bd 83e9 ce3c f89b 2ebc
00000150: 8dea e03c 57db 5d3d 662f 29bc b932 8e3d
00000160: d033 2bbc 1f77 31bd 2713 6f3d 6990 beba
00000170: 0635 86bd d399 0c3d 5db1 913d 81f8 c13d
00000180: 9fa3 78bd 7efd 3c3d 1c7f 94bd 0cfa 94bd
00000190: dd18 03bd 92b6 f73c bad5 373d 53fe 2b3d
000001a0: 792e 3fbd b044 69bd 4c5d 6f3d 0d17 84bd
000001b0: 1dee 6f3d 4c83 a73d 2e9b 333c 66e4 9abc
000001c0: b558 18bd 28b6 a2bc 443c da3c ff57 8d3c
000001d0: ffae 633d dbf2 8b3c 4d02 5fbd feab 68bd
000001e0: 1e00 aa3d 4c77 a43d 2ba8 8bbd 31b5 18bd
000001f0: 20fe 71bb bf68 6cbd 2d56 8a3c 96ce 91bc
-0.0013725308 -0.046683673 -0.046667367 -0.04129472 0.04002993 -0.061398264 0.021601155 0.05952423
0.08475341 0.06063755 -0.004377835 0.02607124 -0.02902696 0.07303312 0.0702577 -0.047555957
-0.042489193 -0.003460726 0.05079215 0.0056679547 0.028198604 -0.057862397 0.08440767 -0.075499855
0.033362273 0.0766466 0.064390846 -0.052809045 -0.022373103 -0.043245308 -0.026528263 -0.073916815
-0.07624864 -0.05226679 -0.04893257 0.03414747 -0.04419221 -0.0026203378 -0.055358876 -0.03230646
-0.029603064 -0.057972275 0.06501501 0.021081025 -0.02728217 -0.033161014 0.07868831 -0.0056464868
-0.07088661 0.03230668 -0.043573216 0.074903585 0.06336754 -0.078337036 -0.05974827 -0.06675364
-0.06032942 -0.061176527 -0.07389436 -0.016303428 -0.049263075 -0.02419293 0.027746245 0.080031075
-0.044778094 0.068395056 -0.04800416 -0.0053723548 -0.02149456 -0.02820362 0.031027077 -0.05222011
-0.06400357 0.06263529 -0.015917419 -0.06747183 -0.08637472 -0.026625698 0.030906444 -0.08188674
0.074374855 -0.036453467 0.025257831 -0.010657303 0.027455593 0.054164257 -0.010326242 0.06943268
-0.010449365 -0.043326493 0.058367874 -0.0014538887 -0.06553082 0.034326386 0.071139075 0.094712265
-0.060702916 0.046140186 -0.07250807 -0.07274255 -0.032006133 0.030238423 0.04488156 0.04199059
-0.04667518 -0.05695027 0.058438584 -0.06449709 0.058576692 0.0817934 0.010962291 -0.018907737
-0.037193973 -0.01986225 0.026640065 0.017253874 0.05558681 0.017083576 -0.054445554 -0.05680465
0.083008036 0.080305666 -0.06819185 -0.037282173 -0.0036925152 -0.05771708 0.016886795 -0.017798703

layer3.weight f4 [9, 128]
00000000: b00f 83bc 714f 71bd a2b1 b03d 63d7 8fbd
00000010: 930e 57bd dabc 793d 896a 2b3d fd69 673c
00000020: fb30 07bc 45a5 b0bc af95 d7bc f3a5 083d
00000030: 2164 cd3c 0a39 793c 6ae8 5cbc 1818 5abc
00000040: fdd3 683c a91a 153d af5c db3d cc48 bc3c
00000050: 6c70 84ba ab69 9d3d 4575 60bc 96cd 86bd
00000060: 11a9 b03d 9e42 c5bc ab7f 14be 037e 213c
00000070: 9305 a2bd b39a 1c3c 60da cc3d 3f4f 213d
00000080: 73b5 c5bc 0b12 7ebd 8b06 963d cc32 20bd
00000090: 8c0b 6abd 213c e33d d5a1 50bd 1a97 d13c
000000a0: 06d4 52bc b384 9b3d 8b8d e33d 307e 94bc
000000b0: 6e62 2c3c 2008 513d 5703 603d dd15 8ebd
000000c0: 723b 60ba e90d bf3d 909a f73c 76ac 2cbb
000000d0: 48ab 35bd d35c 44bd 9a7c 0d3d d4dd 2cbc
000000e0: f6f8 603d b5ef 023d d2f8 8f3c 3b93 073c
000000f0: 0e9f 6dbd 4507 873d 7139 b63d e4fc 8abd
00000100: 373c bf3b 776e a83d 21a4 1abd 7b07 c9bc
00000110: adaf e83c 5e9b dbbc c8c3 a93d 878f d33c
00000120: e0ef b33d 778f 8e3d dd88 e2bb b119 86bd
00000130: 0a4c 673d bdad 843d d2df 4dbd 3230 693d
00000140: 95e3 33bd e771 193c d6ee f63c bd8b f13d
00000150: bcae 1c3d ed6e 7c3d 0a91 e9bd 0345 063c
00000160: e698 b03c 038e e63d efee 873d d532 54bd
00000170: 358a 83bd 1226 d8bc 44ca d13d 7c46 d33c
00000180: 8f29 c8bc 75de 553d 635a c93c cb70 063c
00000190: c7d7 82bb a19b c73c 6722 16bd 1f1f 6c3c
000001a0: 38df 34bc 2496 84bd fe48 2e3d 619d 9fbd
000001b0: 27f5 213b a836 4e3d 7971 2b3c fe07 cc3c
000001c0: 43fe 5d3d df6f aa3c 2080 9bbc 17d7 423c
000001d0: ec22 e8ba 6eb5 ea3d 931b 99bd e178 79bd
000001e0: e471 b3bb 85c6 acbd 55f7 72bd b95d 8abd
000001f0: d910 b23b 1810 e13d bcf0 afbc 96fb 383d
00000200: 3c37 97bd 312a ae3d 37a0 a03d 2786 6a3d
00000210: e825 cbbc dc32 eb3d a57f e73d 3e35 aebd
00000220: 64d7 a93d 02cc 0bbd a703 483d 4800 7fbd
00000230: 124b efbd 2ea4 94bd 94bf 703d f25d 713d
00000240: 2793 8bbc 09d2 803c 6cc9 1b3d ef3e d8ba
00000250: 57fb b0bd 1c8f 873d bd17 29bd e413 40bd
00000260: 48f1 5dbd 12c1 e13c 1eed 0dbd e9e0 9e3d
00000270: d714 c13b 5b63 033d 791e c0bc 513e a8bb
00000280: 4219 30bd f78f 64bd b59f a73c 4cb8 973b
00000290: aa36 51b9 6936 76bd c6b3 6d3d aa76 d0bc
000002a0: 0394 283d 95c6 9bbd 543c 003e e274 723c
000002b0: 7b82 8f3c af32 1f3d 3301 41bd 3dda 01bd
000002c0: 50d0 333d 9e22 8c3d 833b 593c 5edc 1fbd
000002d0: 8fce ad3d a210 803d 5daa 47bd 17f0 eebb
000002e0: 4a47 0abd 1e31 2abd 7d05 ae3d 97c9 5d3d
000002f0: ae25 5e3b 311d dd3d e596 af3d e938 dbbb
00000300: 6e74 3b3d d0bb d23d d7c2 adbd a4cd a73d
00000310: 233f 7d3c 30e8 87bd 0d7e 5b3c 05b1 8c3d
00000320: 1b65 0c3d 1f1a 633c cb06 acbd f70d 913d
00000330: 5ffe 8abd b064 e63c e2c9 6f3d 6bcf 003d
00000340: b98a bf3d 75f3 0fbc 43c3 003d 5bc3 e63b
00000350: 16d1 aa3d 0928 b03c 2585 93bd 9158 7fbd
00000360: a633 883d 5c71 c03c b222 843d be45 d43d
00000370: a688 843d e74d 42bc 8bfa 44bb eaec 4bbd
00000380: 5a25 8b3d fd40 90bd 9347 fc3b 80e1 893d
00000390: 2c3a 4abc d8eb 983d a244 ba3d 6790 fc3d
000003a0: 0945 033e 1b19 76bd 8385 31bb 6f85 c43c
000003b0: 0802 203d d9d7 55bd ce32 073c 249f 2d39
000003c0: ff2f d93a 2589 243d 6c4c 01bd dea3 54bd
000003d0: b9c9 f53c b453 d33d 1ed5 d5bc 01f0 febc
000003e0: cc33 a53d c3c0 c53c b5f0 de3c a4ed 5abd
000003f0: f720 253c 28e7 c53b de77 303d 5d80 a43d
-0.015998691 -0.05891365 0.08627631 -0.07023504 -0.052504133 0.06097112 0.041849647 0.014124391
-0.008251424 -0.021563182 -0.026316492 0.033361387 0.02507216 0.015211353 -0.013483146 -0.013311408
0.014210698 0.03640238 0.10711037 0.022983931 -0.0010104305 0.0768617 -0.013699834 -0.06582181
0.08625997 -0.024079617 -0.14501826 0.009856704 -0.079112194 0.009558368 0.10002589 0.039382216
-0.024134373 -0.062028926 0.07325467 -0.039110944 -0.05713992 0.11095453 -0.050935585 0.025584746
-0.012867933 0.0759367 0.111109816 -0.018126577 0.010521514 0.05103314 0.054690685 -0.06937764
-0.000855378 0.09328825 0.030225068 -0.0026347912 -0.0443528 -0.047940087 0.034542657 -0.010550935
0.054924928 0.031966884 0.017574701 0.008274849 -0.058013014 0.065931834 0.08897675 -0.06786516
0.0058360356 0.082241945 -0.03775418 -0.0245397 0.028404081 -0.026807483 0.082892954 0.025825275
0.08785987 0.069609575 -0.006913288 -0.06547869 0.056469 0.064784504 -0.05026228 0.05693073
-0.04391821 0.009365535 0.030143183 0.11794231 0.038252577 0.061629225 -0.11404617 0.008195165
0.021557283 0.11257555 0.0663737 -0.05180629 -0.06422845 -0.02638534 0.10243657 0.025790446
-0.02443388 0.052214105 0.024579233 0.008205603 -0.003993008 0.024366202 -0.036653902 0.014411717
-0.011039548 -0.064739496 0.04255008 -0.077936895 0.0024712773 0.050345093 0.010464066 0.024906155
0.05419756 0.020805297 -0.018981993 0.011892102 -0.0017710603 0.11460386 -0.074759625 -0.060906295
-0.0054762233 -0.08436302 -0.059317905 -0.067561574 0.0054341373 0.10989398 -0.021477096 0.045161806
-0.07383582 0.08504141 0.078430586 0.057256844 -0.024798349 0.1148431 0.11303643 -0.08506249
0.082930356 -0.034130104 0.04883161 -0.062256128 -0.116842404 -0.07257877 0.058776453 0.058927484
-0.017037941 0.015725153 0.038033888 -0.0016498248 -0.08641689 0.06619093 -0.041282404 -0.04689397
-0.05418518 0.027557883 -0.03464996 0.07757742 0.005892377 0.032077175 -0.02345203 -0.005134382
-0.042992838 -0.055801358 0.020461896 0.004630124 -0.00019952157 -0.060110483 0.058032773 -0.025447208
0.04115678 -0.07606236 0.12523013 0.014798375 0.017518273 0.038866695 -0.047120284 -0.03170227
0.043899834 0.0684254 0.013258818 -0.039028518 0.084866636 0.062531725 -0.048746455 -0.0072918045
-0.033759393 -0.041550748 0.084971406 0.05414733 0.003389697 0.107965834 0.08573703 -0.006690134
0.045765333 0.10289729 -0.084844284 0.0819352 0.0154569475 -0.06636083 0.013396752 0.06869701
0.03427611 0.013861208 -0.08399733 0.07082742 -0.06786799 0.028124183 0.05854214 0.03144781
0.09352631 -0.008786072 0.031436216 0.007042331 0.08340661 0.021503465 -0.0720313 -0.062340323
0.06650476 0.023491554 0.0645193 0.10364865 0.06471376 -0.011859394 -0.0030056562 -0.049786486
0.067942336 -0.070436455 0.007698962 0.06732464 -0.012342971 0.074668586 0.09095122 0.1233223
0.12819304 -0.060082536 -0.0027087636 0.023989407 0.039064437 -0.0522078 0.008251859 0.0001655785
0.001657009 0.040169854 -0.031567022 -0.05191409 0.030003415 0.103186995 -0.026102599 -0.031120302
0.0806652 0.024139768 0.027214387 -0.053449288 0.01007866 0.006039519 0.043083064 0.08032296

layer3.bias f4 [9]
00000000: ef90 853d 521c 13bd f87d ac3c 6b2a 82bd
00000010: 1a1e e93c 216f 853d 4c2e 5abd 7092 60bd
00000020: 58d9 e6bc
0.065217845 -0.03591568 0.02105616 -0.06355747 0.028456736 0.06515337 -0.05326681 -0.054827154
-0.02817981
