Assets/Models/test.model (torch, 76522 bytes, 6 tensors)

layer1.weight f4 [128, 6]
00000000: 301b 153e 2962 abbe 94ac aa3e d754 ccbe
00000010: d81f 1fbe 5e64 87be 103c 593d 0cc1 c6bd
00000020: 1de4 acbe 58e9 65bd 74ec 97be eafc c43e
00000030: d1ae ee3e 70fa a83e 3641 eebd 21cd d2be
00000040: b140 a5be 45b4 fc3e 6cc6 453e 23d4 d3bd
00000050: 4ff2 8d3e 174f edbd e35d ac3e 214e b63e
00000060: 783b 223e ebcd 9ebe dca6 2e3e 4706 bc3d
00000070: 8000 12be 0056 37bd b8ba a6be ac58 eabd
00000080: 001b 353b 28fb 72bd fc25 ffbd 3cfe 12be
00000090: 47ac c03b cf7b 59be cbce 38be 34d9 873e
000000a0: 8b8e 073e dc7a b13e d72e 9a3d 41bb 7c3e
000000b0: 8b44 d2bd 4979 bebe 0f3c 6cbe 3bcf ad3e
000000c0: 03e0 8e3e cdfb 163e 2a38 0c3f 5e92 9e3d
000000d0: 4d85 14bb 2754 79be 0978 cd3d 2521 afbd
000000e0: ae16 5bbc bfd9 d23e a166 f13e 5a13 ad3e
000000f0: 4b5e 61be 545e f03e fa48 b33e 65e7 99be
00000100: 4a96 1e3c 1e9d 753c 80c4 e83e ee68 833e
00000110: 5c6f 843e 0b0b 293e fc80 db3d 868d 823e
00000120: c0c9 fcbd 6065 f13d 6084 18be 24c0 3f3e
00000130: b45a 543e f0d7 78be a888 553d 8477 853e
00000140: 712a 153f f1f0 f03e 75f5 c6bd f67d 6cbd
00000150: 8150 a03d c036 5dbe b83a ef3e 39e0 f73c
00000160: dbd9 ee3e 83bf eb3d 4cf1 833e e834 f3bd
00000170: 78a3 71be 8db1 c5be dcaf 7ebe e7ed 67be
00000180: 15d6 9b3e 0763 e73d 44e5 933e 4a88 893e
00000190: d8b8 cd3c 405b b53c d049 b63d 80a6 123e
000001a0: 09c7 c5be 5cc1 833d a1be afbe 3cef 01be
000001b0: 178b 5c3e cb0f 413d 8909 dabe 65f1 23be
000001c0: d252 663e 69c3 a03e 1524 96be 0a2b 92be
000001d0: d889 0fbd 3727 41be 40a3 f93d fc93 b7be
000001e0: de05 2f3e 4cee 703d 1081 953e 9382 25be
000001f0: 9d8d af3e 7e30 d93e ec9d b13e d3d9 4f3e
00000200: 9fc9 3ebe caf8 0f3f 5e74 c33e 4476 42be
00000210: b1f6 e8bd 91e9 e63d 90a1 af3c 933d a63e
00000220: 45b8 4fbe d09f da3e 2945 953d 3002 133e
00000230: ae48 ba3e c319 253e 3703 e63d 93b6 203d
00000240: 7f71 a03e f137 a73e 1191 2ebd 413a 173e
00000250: 965f 983e d370 e43e 342b 80be f886 5abd
00000260: fb18 b5be 00c5 8a3c 4094 1c3e a80f c0bd
00000270: a58b b63e baea 053e 05dd 8a3e 7840 743e
00000280: 16fa c6be adea 48be 5a80 92be 342c cbbc
00000290: ec46 793e d8da 2fbe 7b60 9ebe cc2f 2cbe
000002a0: e901 83be 93fd 0d3f ef1e b13e 58a4 3fbe
000002b0: a9eb 87be 947d 07bc c081 72be 6de7 29be
000002c0: 131e adbe 83b5 b0be ac3c afbe 4447 8ebd
000002d0: 9877 2fbe 1319 083f dd22 3b3d 2d07 c0be
000002e0: 1a51 1fbe 1b3e 0d3f a2fb 8dbe 6887 94bd
000002f0: 8482 983e e05d 923e ae74 a8be 0262 a7be
00000300: cdff 08be b921 333c 1b0f 9a3c 692c 4abd
00000310: 63f1 0a3f 267f d03e 79a6 78be 8cf5 cf3e
00000320: 152b 60be 9847 de3d 5b82 9fbe 60d7 bfbd
00000330: eba3 ac3e 6372 543e d99a e83c 46c0 0d3d
00000340: 5bb6 093f 30fb 313e fcba 4ebe ccb6 ed3d
00000350: d614 ac3c b000 6dbe a2e2 c23d 4bea ba3e
00000360: acb7 7c3e 50ed 39be d407 0b3f f7dd 103f
00000370: 5dfe 903e af6f b5be 7415 d53d e47f 5dbe
00000380: 5896 043e d10b fe3e 14ae 9f3d 0b12 563e
00000390: 569b ca3e fa69 853d 6bcc a13e 3748 d33e
000003a0: b2c1 813e 6d59 e53e 781d dcbd 1b8c d7be
000003b0: e5ea 453e 7fd4 663e 7e0c c53e b002 bfbd
000003c0: 715c 9f3c e521 4d3e d635 1d3f a3a0 cabd
000003d0: e54f aa3e 463c 9c3d 59b7 c23e 8387 533d
000003e0: 1df2 78be 2dc1 86be 88d9 a2bd f54e 743e
000003f0: 5507 f73e 3d15 043f 8228 e5bc 08bc b1bc
0.14561152 -0.33473328 0.33334792 -0.39908478 -0.15539491 -0.26443762 0.053035796 -0.097047895
-0.33767787 -0.056130737 -0.29672587 0.38474208 0.4661775 0.3300357 -0.11633532 -0.41172126
-0.32275918 0.49356285 0.19313973 -0.10343196 0.2772393 -0.11587351 0.3366538 0.35606483
0.15842998 -0.31016478 0.1705584 0.09180885 -0.14258003 -0.04475975 -0.3256433 -0.11442694
0.0027634501 -0.059321553 -0.12458417 -0.14354795 0.005879912 -0.21238635 -0.18047635 0.265329
0.1323797 0.34664047 0.07528465 0.24680807 -0.1026698 -0.37201908 -0.23069786 0.33947167
0.27905282 0.14744492 0.547732 0.07742761 -0.0022662461 -0.24348508 0.100326605 -0.08551244
-0.0133721065 0.41181752 0.47148612 0.33803827 -0.22008626 0.46946967 0.35016614 -0.30059353
0.009679386 0.014991073 0.45462418 0.25665992 0.2586621 0.16508119 0.10717961 0.254986
-0.12343168 0.11786914 -0.14894247 0.1872564 0.20737725 -0.24301124 0.05213228 0.26067746
0.58267885 0.47058824 -0.09714786 -0.057737313 0.07827855 -0.21602917 0.46724486 0.030258285
0.46650586 0.11511137 0.25770032 -0.118753254 -0.23597515 -0.38612023 -0.24871773 -0.22649346
0.3043677 0.11298185 0.28885853 0.26861793 0.025112554 0.022138238 0.08900797 0.14321327
-0.38628414 0.06433365 -0.34325126 -0.12688917 0.21537434 0.047134202 -0.425854 -0.16010053
0.22492531 0.31399086 -0.29324403 -0.2854846 -0.035043567 -0.18862616 0.121893406 -0.3585509
0.17092082 0.058821008 0.2920003 -0.16163091 0.3428773 0.4241981 0.34690797 0.20297937
-0.186316 0.56238997 0.3817472 -0.18990427 -0.11375178 0.11275018 0.021439344 0.32468852
-0.20285137 0.42700052 0.07288582 0.14356303 0.36383575 0.16123109 0.11231082 0.039236616
0.3133659 0.32659867 -0.042618815 0.14768316 0.29760426 0.44617328 -0.2503296 -0.053351372
-0.3537062 0.01693964 0.15290928 -0.09377986 0.35653415 0.13077822 0.2712175 0.23852718
-0.38862675 -0.19620772 -0.2861355 -0.024801351 0.24343461 -0.17173326 -0.30932984 -0.16815108
-0.25587395 0.5546505 0.34593913 -0.18715036 -0.26546982 -0.008269686 -0.23682308 -0.16592188
-0.33812007 -0.34513482 -0.34225976 -0.069471866 -0.17135465 0.5316326 0.045687545 -0.37505475
-0.15558282 0.5517289 -0.27731043 -0.07252389 0.29787076 0.28587246 -0.3290152 -0.32691962
-0.1337883 0.010933333 0.018806031 -0.04935876 0.54274577 0.40722007 -0.24282254 0.40617025
-0.21891434 0.10853499 -0.3115414 -0.093672514 0.3371881 0.2074676 0.02839415 0.034607194
0.5379388 0.17380977 -0.20188516 0.11607131 0.02100603 -0.23144794 0.09515883 0.36506876
0.2467944 -0.18156934 0.5430882 0.5658869 0.28319064 -0.3543677 0.104044825 -0.21630818
0.12947977 0.4961839 0.07796875 0.2090532 0.39571637 0.06514354 0.3160127 0.41266033
0.2534309 0.4479479 -0.10747808 -0.4209908 0.19327886 0.22541998 0.38486093 -0.093266845
0.01945326 0.20032461 0.6141027 -0.0989392 0.3326408 0.07628684 0.38030508 0.051642906
-0.24311109 -0.26319256 -0.07951647 0.23858245 0.4824778 0.5159491 -0.027973417 -0.021696106

layer1.bias f4 [128]
00000000: 7243 67be e394 c3be fc4f 443e ff0c 86be
00000010: eac3 bbbe ec1c a7bd 7b18 063f 4c0f 8cbe
00000020: 3727 833e 7f2e b73e baef efbd b27a bb3e
00000030: 5eb6 9bbe 4e5e a3bd 9c9a 42bd bbfb 95be
00000040: 4204 c03e 763b 81be 489b 083d a7cd a8be
00000050: 2604 95be 685d 04be b6f0 213e 1bec 4c3e
00000060: d28f fa3e 1b61 a5be b283 51be 82f8 1bbe
00000070: d741 4c3d 7b6d b0be 220f cbbd 3cd3 85be
00000080: 56b8 763e b65f bdbe 67ec 583c ed11 7c3e
00000090: 3d14 123e 4ada b93e 9756 393e 671e 31bd
000000a0: a68b 813e a4b0 683e e3bd e3bd d98e abbd
000000b0: 60ec 6ebe a013 a4be 1cc5 6d3e d0ce 053f
000000c0: a2f4 c03b 6c12 7bbd 46fb 223d 2830 a6be
000000d0: be24 f13e 50d9 873e 70fa da3e 3b3c 11bd
000000e0: 35b5 3f3e 8e1f c63e 8bdc 70be 5c8e af3e
000000f0: 61dc 553e c0b6 a23e 43b1 913e 80ca 9d3e
00000100: d0ec 33be e7dd 123e 39f0 f23e 0a2a 94be
00000110: ca6b 913e 0f5f c9bd cf98 c43e b702 3fbe
00000120: 4dba a7be 2b29 493e e2e2 f63e c6f9 113e
00000130: dcd7 aabe a055 d83e a5ab cf3e 72a5 9e3e
00000140: f923 d83e d497 21be c80c 88be b528 c2bd
00000150: ebef 8ebc 1cef 49be 87dd bf3e 8021 bdbd
00000160: e823 7f3d d129 5ebe 5922 4ebe c4a2 c53e
00000170: 92b3 283e b743 8ebe fe6a a63e fa88 a4bd
00000180: 8e62 eb3e 1a2c be3e 3c8d 9d3e 3bd0 323e
00000190: 6752 e93e b114 d63e 43c5 76be 2453 f23d
000001a0: 7faa 163e 150d be3d 24fd c23d aaf2 ed3d
000001b0: 09ad b4be 9791 963e 1dba d63e ee30 94be
000001c0: e859 60be 9f0d b83e d688 a4bd fe84 40be
000001d0: 45ad d93e 2df7 093e 018d 62be cd08 5b3e
000001e0: a34e 833e 6e7e 40be 28ad 2a3e 7278 eb3c
000001f0: 273d 51bd 3c63 a0bd ee4a 803e 20bc c33d
-0.22584322 -0.3819953 0.19171137 -0.2618179 -0.36672908 -0.08159813 0.52381104 -0.2735542
0.25615856 0.3577766 -0.11715646 0.36617047 -0.30412573 -0.079769716 -0.04751073 -0.29293618
0.37503248 -0.25240678 0.033351213 -0.329694 -0.29104728 -0.12926257 0.1581448 0.20011942
0.4893785 -0.32300648 -0.20460394 -0.15231517 0.049867477 -0.34458527 -0.09914996 -0.26137722
0.24093756 -0.36987084 0.013239956 0.24616213 0.14265533 0.36299354 0.18099438 -0.043241885
0.25301856 0.22723633 -0.111202024 -0.083768554 -0.23332357 -0.32046223 0.23219723 0.52268696
0.0058885375 -0.061296865 0.039790414 -0.32458615 0.47098345 0.26532984 0.42769194 -0.03545783
0.18721469 0.3869595 -0.2352163 0.342883 0.20884849 0.31780052 0.28455552 0.30818558
-0.17570806 0.14342462 0.474489 -0.28938323 0.2840255 -0.09832584 0.38397834 -0.1865338
-0.32759324 0.1964461 0.48219973 0.14255437 -0.33367813 0.42252827 0.40560642 0.309856
0.42214945 -0.15780574 -0.2657225 -0.094804205 -0.017448386 -0.19720119 0.374737 -0.09234905
0.062290102 -0.21695639 -0.2013029 0.38600743 0.1647475 -0.27786037 0.32503504 -0.08033939
0.4597363 0.37143022 0.30771816 0.17462246 0.4557068 0.4181266 -0.24098687 0.11832264
0.14713477 0.09279839 0.09520939 0.1161855 -0.35288265 0.2940795 0.41938868 -0.2894358
-0.21909297 0.35947892 -0.08033912 -0.18800732 0.42515007 0.13473196 -0.22124101 0.21390076
0.25645933 -0.18798229 0.16667616 0.028743956 -0.05108371 -0.078314275 0.25057167 0.09557366

layer2.weight f4 [128, 128]
00000000: ac9b c73c 42d1 bbbc 6e8e 62bd 1e91 753d
00000010: 5a27 3bbd cf39 85bd 4eff 133d f0a1 223c
00000020: 86d9 543d 9b06 a33d 0e78 273d 85f1 97bd
00000030: 0ead 5cbd 6d47 a3bd a537 54bd 505f ebbb
00000040: 2c35 c7bc 3847 30bc 1481 afbd 8e2c 04bd
00000050: 4c18 913c e762 8d3d 0055 13bc 3878 38bc
00000060: ec53 a3bc bcdb 8fbd 0da6 8f3d 4f2d 8dbd
00000070: 1891 ba3c 8ed4 7c3d 5578 78bd f253 723d
00000080: 008c df3a 3c1b 983c 7b83 a33d cb4a 54bd
00000090: dbc7 683d c2b9 7a3d 883a 2bbc 90df 01bc
000000a0: f0e8 bb3b 0c1f f03c b04b debb d013 32bc
000000b0: d076 ac3b a3de 883d 640c aabd d891 d5bc
000000c0: cc8d ebbc e422 2ebd d856 7d3c 1472 d3bc
000000d0: 8a45 19bd 2445 f13c b93b aa3d 3eab 72bd
000000e0: b049 5abb 7ed1 583d c8c8 4a3d c0ca dcba
000000f0: 5874 3c3c 7d0e 2fbd 3ef8 493d 8539 8c3d
00000100: 4ed0 7d3d 1c3d b33c 6d65 a93d ca87 9bbd
00000110: a36c 4bbd f55c 3cbd 708d a73b 8c53 6cbd
00000120: 602c c03c 20e6 8b3b 7674 06bd 7b81 b13d
00000130: 0723 8b3d 973b 04bd 18e6 91bd f4f2 803c
00000140: d85a 9bbc 55fa 52bd ca0d 5b3d 7413 aabd
00000150: 30bc 1e3c 8468 e03c d06f a8bd e694 25bd
00000160: d0e6 a6bc 7baa 41bd be45 81bd 3af6 17bd
00000170: 40fc 6d3b 0f3a a83d f372 8e3d cfdf a13d
00000180: 001e 7e3a 8a29 603d a566 a13d d728 873d
00000190: cc28 e8bc e0e1 52bb 2887 033c 3098 92bb
000001a0: 3053 77bc c09d d23a 100d 08bc 508c ed3b
000001b0: fe50 193d 5fbd 8ebd c89f 8fbc c67f 61bd
000001c0: e8fb 8cbc 539b 9e3d 9c2e 9d3c 90a8 58bd
000001d0: 72b3 5a3d 7454 5abd 1f6a 1ebd 2866 57bc
000001e0: 10d6 8abc ee7b 98bd 08e7 4e3c b2bd 0ebd
000001f0: 7230 08bd 3192 9e3d 9b8c 82bd 627c 76bd
00000200: 8af7 783d 2ca0 863c f765 883d 40fe 8fba
00000210: 28eb 5fbc d1b3 9b3d 9e53 7a3d 3c5b a4bc
00000220: c080 d63c c555 34bd 1ee4 673d 337e 69bd
00000230: 686d 293c 3bec 8ebd 98aa 953c 5427 a7bc
00000240: c0a4 c33c b079 c73c 6c3d cabc 7a5a 20bd
00000250: 38af 9abd 6a03 473d 20f0 81bb 406d 88bc
00000260: b162 a13d d871 bb3c 9fd8 ad3d fc30 0c3d
00000270: 8d23 a4bd fa14 7f3d ead3 513d 942f aabd
00000280: a6a6 84bd 7f19 913d 072b a43d 6942 8f3d
00000290: 4e2a 9bbd 8b23 adbd 9f4f 96bd dace 03bd
000002a0: 486f b9bc 5196 24bd e1ef 45bd d767 b43d
000002b0: 2b27 aa3d cab0 4e3d 44f5 90bd c0d0 96bc
000002c0: cbcf b3bd 9808 f03c 68bc b93c 9afc ac3b
000002d0: c68f 323d 883a b8bc e8a0 883c 85b7 803d
000002e0: 1717 27bd 402d 54bd b76f 0bbd aeeb aabd
000002f0: 8520 ab3d 00cc e2ba 20c9 803b 9dc1 38bd
00000300: a09e 613c 1097 303c 7070 85bc 16ae 4c3d
00000310: e76f 52bd beef 353d 4072 a53c e85e 9bbd
00000320: b903 20bd 4940 7f3d f833 3a3c 6893 3f3c
00000330: 36cb 35bd 641b 96bd 172e a73d b434 b2bc
00000340: e1ea 9b3d d821 5bbc 0dec 96bd e19d 98bd
00000350: ec83 86bc 4053 803b 586f 5cbc 4c15 a8bd
00000360: 2c0f 143d 2f03 9bbd ab47 56bd 047d be3c
00000370: cb7d 853d 9900 8a3d b0c6 83bd e895 2f3c
00000380: c0dd f93c 7ded 7f3d 519b 8fbd eaa2 633d
00000390: f452 e0bc 20f1 a9bd 4068 4bbd 014a 953d
000003a0: 58a4 d73c 259e 97bd 1856 073c c12e 58bd
000003b0: a005 94bb c430 ed3c 10ce 563c 0a07 753d
000003c0: 0e64 713d 21d7 803d 6ccf a7bd 006d af39
000003d0: fe7e 8cbd f1af 893d f29c 34bd 5fcc a73d
000003e0: 0532 aabd c9eb 1dbd 1a53 403d 604e 8b3c
000003f0: fe47 2d3d 0ba6 a13d 501f a93c 00ef 763b
0.024366222 -0.02292693 -0.055311613 0.059952848 -0.045691825 -0.06505167 0.03613215 0.009926304
0.05196526 0.07960244 0.040885977 -0.07419113 -0.053875975 -0.07972608 -0.05181088 -0.007182993
-0.024317347 -0.010759167 -0.085695416 -0.032269053 0.017711781 0.0690363 -0.008992434 -0.011259131
-0.019937478 -0.07024333 0.070140935 -0.068934076 0.022774264 0.061726145 -0.060661633 0.059162088
0.0017055273 0.018567674 0.07984062 -0.05182914 0.056831222 0.06121231 -0.010450967 -0.007926837
0.0057345554 0.02931168 -0.006783925 -0.0108689815 0.005263187 0.066830896 -0.083031446 -0.02607052
-0.028754137 -0.042513743 0.0154626 -0.025811233 -0.037419833 0.029451914 0.083121724 -0.05924534
-0.0033308081 0.052934162 0.049507886 -0.0016845092 0.011502348 -0.042738426 0.049309008 0.068469085
0.061966233 0.021879725 0.082712986 -0.07594259 -0.04966415 -0.04598709 0.005113296 -0.057696864
0.02345866 0.0042693764 -0.03282591 0.086672746 0.0679379 -0.03228339 -0.07123965 0.01574085
-0.018964216 -0.051508266 0.053479947 -0.08304492 0.009688422 0.027393587 -0.082244515 -0.040425204
-0.020373732 -0.047281723 -0.063121304 -0.037100054 0.0036313683 0.08214199 0.069555186 0.07904016
0.00096938014 0.054727115 0.07880906 0.065995865 -0.028339766 -0.003217809 0.008027829 -0.0044737086
-0.015095517 0.0016068742 -0.008303896 0.0072493926 0.037430756 -0.069697134 -0.017532244 -0.055053495
-0.017209962 0.077444695 0.019187264 -0.05289513 0.05339379 -0.053303197 -0.038675424 -0.013146915
-0.016947776 -0.07445513 0.012628324 -0.034848876 -0.033249326 0.077427275 -0.063744746 -0.060177214
0.060782947 0.016433798 0.06660073 -0.0010985807 -0.013666905 0.07602657 0.0611149 -0.020063035
0.02618444 -0.04402711 0.056614034 -0.05700512 0.010341026 -0.06978651 0.018269822 -0.020404495
0.02388227 0.024350017 -0.024687491 -0.039148785 -0.075529516 0.04858724 -0.0039653927 -0.016653657
0.07880152 0.022881433 0.08488583 0.034226403 -0.08014593 0.062275864 0.051227488 -0.08309856
-0.06477098 0.07084941 0.08016019 0.069950886 -0.07576428 -0.08454045 -0.07339405 -0.03217969
-0.02263607 -0.040182415 -0.04832447 0.088088684 0.08308252 0.050461568 -0.07078031 -0.018410087
-0.08779868 0.029300973 0.022672847 0.005279136 0.043594144 -0.022488847 0.016678289 0.062850036
-0.040793505 -0.051800966 -0.034042086 -0.083457336 0.08355812 -0.0017303228 0.003930226 -0.04510652
0.013770729 0.010778204 -0.016288966 0.04997071 -0.05137625 0.04441809 0.02019608 -0.07586461
-0.03906605 0.062317166 0.011364929 0.011692859 -0.04438325 -0.07329443 0.08163088 -0.021753646
0.07613159 -0.013374768 -0.07369242 -0.07451988 -0.016420327 0.003916174 -0.013454281 -0.08207187
0.03614728 -0.075689666 -0.05231444 0.023252971 0.06518134 0.06738395 -0.06434381 0.010716893
0.030501246 0.062482346 -0.07012046 0.05557529 -0.027383305 -0.08297944 -0.049659967 0.07289506
0.026323482 -0.074032106 0.008260272 -0.052778963 -0.004517272 0.028953917 0.013110653 0.059821166
0.05893331 0.062910326 -0.081938595 0.00033459812 -0.06860159 0.06723011 -0.044094987 0.081932776
-0.08310322 -0.03855494 0.04695425 0.017005146 0.042304985 0.07892998 0.020644814 0.0037679076

layer2.bias f4 [128]
00000000: 7bd4 acbd 66a8 73bd 1c3a 023d 737b 9f3d
00000010: 11ac 903d 6f66 91bd 7ff4 973d 83be a9bd
00000020: 6ce0 afbd da46 ad3d d809 103d e668 b83d
00000030: b2e4 db3d f4dc b83d 6293 083e b0fd 5ebd
00000040: fb27 593d 7e2d d73d bfe9 153c d366 15bd
00000050: 26ab fe3c 88ba 7b3c eb09 803d 43db 863d
00000060: 981c b2bd e46d 42bd 589c a4bd d178 66bc
00000070: 7887 8b3b d962 a13d 30be cd3c add7 b43d
00000080: 8cd3 f7bc 992d 5ebd 633d 273d 0524 173c
00000090: 4c8e e23c 4e12 77bd b8c4 9fbd c8c8 a1bd
000000a0: a58f 96bd 6749 b03d cc38 b1bd b5be aa3d
000000b0: 1975 e6bc 2a00 003e 4d07 f13d 04ad f83d
000000c0: 0ee4 7d3c a671 233e 7cd6 1abd 3054 a03b
000000d0: 77e4 a03d 8f21 463d 460c 463d dda3 893d
000000e0: 58d3 dc3d 2b72 973d fdfd ad3d f689 8ebc
000000f0: 30b4 913d af82 88bd 37b4 0e3c 1554 4f3d
00000100: 17a9 81bc b363 b5bd 2dbd 173d d0c2 473c
00000110: 6dc5 a43c 5170 c83d d018 ab3d 13d9 9f3d
00000120: e2c7 2a3d 2dee b43d fe24 90bc b0ae 233d
00000130: 179b 033e 020d 7c3d 0925 123e 4964 e83d
00000140: b2bf 9c3d a976 8cbd ec1f 283d 7fb7 9bbd
00000150: 2d93 8d3d 98b3 dabc 8030 f73c 465e 063e
00000160: 4781 2d3d 769a afbc ab07 373d 6e5b 3dbb
00000170: 7f8a 343d 4164 81bd 69ec a03c 14e1 0abd
00000180: e309 b83d 10b8 8ebd 8e7c 56bd 7ae5 adbd
00000190: 99f6 ac3d 98a6 f93d c196 093c ad58 993d
000001a0: 1dd7 b33d d60a 0dbd 1188 8e3d 47eb 223d
000001b0: eb05 ea3d 0157 8e3d 0eaf afbc 3d20 023b
000001c0: 73ff ddbc 3bae b3bd 5d6e 223e 002d 0b3c
000001d0: 5003 723c 124d 99bd b8bb 143d 4eea 153e
000001e0: 106f 5b3c aac0 393d 6f49 90bd 95c5 ad3b
000001f0: ae31 573d a8e6 c53c 6841 54bd 5ff8 583d
-0.08438965 -0.05948677 0.0317937 0.07787218 0.07064069 -0.07099616 0.07419681 -0.0828829
-0.08587727 0.084607795 0.035165638 0.09004383 0.107369795 0.090265185 0.13337472 -0.054441154
0.053016644 0.10506724 0.009149968 -0.036475014 0.03108747 0.015364297 0.06251892 0.065847896
-0.0869686 -0.04746808 -0.08037633 -0.014066891 0.0042580925 0.07880182 0.025115103 0.088301994
-0.03025224 -0.054242704 0.040830027 0.009224896 0.027655743 -0.06032019 -0.07801193 -0.07899624
-0.07351617 0.086077504 -0.08653411 0.08337156 -0.028132008 0.12500063 0.11768971 0.12142375
0.015496267 0.15961322 -0.037802204 0.0048928484 0.07856076 0.048371848 0.04835155 0.067207076
0.10782498 0.07394823 0.0849571 -0.01739977 0.07114446 -0.06665551 0.008709959 0.050617296
-0.015827699 -0.08856907 0.037045646 0.012192443 0.020113671 0.09787048 0.08354342 0.078050755
0.04169453 0.08834491 -0.017595764 0.039961517 0.12852131 0.061535843 0.1427194 0.11347253
0.076537505 -0.0685857 0.041046068 -0.076033585 0.06912837 -0.026696965 0.030174494 0.131219
0.042359617 -0.021435957 0.044685047 -0.0028893608 0.044077393 -0.0631795 0.01964398 -0.033906057
0.08986261 -0.06968701 -0.05236488 -0.08491035 0.08445472 0.12189978 0.008397759 0.07487617
0.08781264 -0.034434162 0.06959546 0.03977516 0.1142691 0.069501884 -0.021445777 0.0019855641
-0.027099347 -0.08773466 0.15862413 0.008494616 0.014771298 -0.07485403 0.036311835 0.14640161
0.013393179 0.045349754 -0.07045256 0.0053030946 0.052537613 0.024157837 -0.05182019 0.05297124

layer3.weight f4 [9, 128]
00000000: 3706 943d de43 abbd c06b ccbb 47c5 8c3d
00000010: a5f7 bc3d 69c5 823d f67f 86bd ecdb a0bd
00000020: 78c1 d2bc 08a1 483e dda8 903d f566 f93d
00000030: a167 f73d fdad 76bd 5967 e33d d560 883d
00000040: f03d ab3d ccbf 1dbe 6bad 8e3d 479a 023d
00000050: 6c69 513d 788e 74bd 15e0 023e 9e57 613d
00000060: 6046 a8bc 75ea 97bd cc6d 3b3e 0c0d 7d3d
00000070: 781a d23c 0adf 2fbd 045a 8ebd c8ce a93d
00000080: 0873 04bd 56e7 633d 68bc 0cbd ced5 3c3e
00000090: 0277 2b3d b047 933b f3d3 5dbd e0d8 6e3b
000000a0: 6d79 d73c 40fe 483c a053 233c e2a3 443e
000000b0: 71a0 8b3d 168c dd3d 30e8 66be 75d0 083e
000000c0: 4b01 77bd 041d 50be 2ab5 433e ada6 5fbd
000000d0: fa1a 42be 2705 a73d e05b 2ebd cd64 303e
000000e0: fdf5 a53b 8ffe d83d 59ee f13c 1f1d 3f3d
000000f0: e16e 0d3d de85 93bd acca 94bd 586a a1bd
00000100: 32c1 6bbd 35b5 35bd c4fc 933d 120c adbd
00000110: c89e 0a3e d040 283e bf50 393e cd30 c7bd
00000120: e051 febc 0d41 1b3e 97cc 863d da50 193e
00000130: 0fb3 93bd 1318 343e 526b 2a3d 9200 34be
00000140: 34bc 5d3d 2af1 333d e4d8 5abd 9334 953d
00000150: 42ea 03be bcbd ed3c 9a56 01be 7cd3 953d
00000160: 87bf a43d 24d7 413e c39d 203e 8183 d33d
00000170: 139c 0b3e 8e2d 8fbd 8e82 7a3d 210f 6fbc
00000180: a127 263e a935 993d 1d97 a23d f45a aebd
00000190: 5f57 2fbe 9ad9 cd3c f835 013e 2cde 0c3e
000001a0: 0a1f 463e 4032 c43d 2aef f9bc 4fd4 493e
000001b0: 1a55 d9bd 9ab1 fb3d 0d0d a93c f07f d33c
000001c0: 2376 b2bc 52cc 403d 1bbc e8bd 82a9 183d
000001d0: 4296 2a3d 8800 433c 2544 2bbd f7db f2bd
000001e0: 6b2a aa3d 9307 85bd 288e 523d a4be 143d
000001f0: d86b d7bc 14db e63c 7911 f43c 3da0 3dbe
00000200: 0fe9 62bd a040 7cbc 40e1 b6bb 16f2 693d
00000210: 3215 793d 5a40 3d3d 14db 21be 3881 92bd
00000220: 7025 63bc 179c 3d3e 280d 32bd f0cf 453e
00000230: 94d8 5d3d 34c5 acbd 5b79 353e a0fa 8d3b
00000240: 3ebf 413e 6a14 fcbd a041 2b3e 04a8 b23d
00000250: b777 923d a054 3f3b cd3e 0d3d 2869 9fbc
00000260: 1ed9 6b3d bbc6 e93c 1a55 493d bf4d fd3d
00000270: 5cd1 3ebd 6ce3 d13c 951f 69bd 8220 a83d
00000280: 5105 43bd fd76 85bd 1956 75bd 065e c33d
00000290: 3d7f a9bd 0029 fbb9 650c b1bd 0777 38bd
000002a0: ee1f 653c 6fb4 a2bd 8016 3b3b b8b1 423e
000002b0: ca61 a9bd 2066 363e b156 1bbd bdb8 2f3e
000002c0: 67b9 bebd 23dc 0dbd 0b16 9d3d abd2 b2bd
000002d0: 1b3f 53be 7784 293e d0c1 fcbc 016c ea3c
000002e0: 6ae9 02be b9e3 cb3d 83a1 a73d 2aee d83d
000002f0: d9f1 d43d 6de9 853d 0013 b3bc 6014 90bd
00000300: 48e1 543c 3286 29bc a6d0 b53d 92f4 063d
00000310: b8d3 ff3d 21df fa3d c1a5 213e ffb6 6ebe
00000320: 5a8e 5e3d 5fd7 353e 8975 9fbd 934b c03d
00000330: 3204 edbc 52dd de3d 78d8 113e 98a8 9ebb
00000340: 03aa 003e 5a40 363d 9fc4 2abd 508f 84bc
00000350: bf39 3cbe c888 dcbc 7e5a b8bd 5d93 863d
00000360: 27e1 1b3e f164 403e a300 fa3c 68c8 2d3e
00000370: e8cd 253d b211 383d 53fe cabc 1a74 a8bd
00000380: 0b4e fa3d b892 71bd 2e5f fabc 405c e13b
00000390: eafd 27bd 2c68 ee3c 200d 783d 694e 233e
000003a0: a02b e03c 8594 7f3d e63e 95bd dced a73d
000003b0: a91c a8bd abab 383e 73a7 be3d ab2c d53d
000003c0: 4b4a 273d 729f adbd f050 06bc be94 683d
000003d0: 2822 a2bc cab4 1f3d f859 c33c 8bc4 15be
000003e0: 589f 723c 6f8e 58bd 7765 85bd b283 9d3d
000003f0: dbde ac3d 18ef 86bc 2659 acbc 41de 50be
0.07227748 -0.08362554 -0.0062384307 0.06873565 0.09226922 0.06385309 -0.06567375 -0.07854447
-0.025727019 0.19592679 0.07063458 0.121778406 0.120803125 -0.060224522 0.111036964 0.06659094
0.08361423 -0.15405196 0.069666706 0.03188541 0.05112593 -0.05970618 0.12780793 0.0550152
-0.02054137 -0.07417766 0.18303603 0.06178002 0.025647387 -0.042937316 -0.06950763 0.082913935
-0.032336265 0.05564054 -0.034359366 0.18440935 0.04186154 0.00449463 -0.05415721 0.0036445186
0.026303018 0.012267649 0.009968668 0.19203141 0.06817711 0.10817735 -0.2254951 0.1336077
-0.060303967 -0.20323569 0.19112077 -0.054602314 -0.18955603 0.081552796 -0.042568088 0.17225952
0.0050647245 0.10595428 0.029532598 0.04665863 0.03452957 -0.072032675 -0.07265219 -0.078816116
-0.057557292 -0.044362266 0.072259456 -0.08449568 0.13537133 0.16430974 0.18097208 -0.09726105
-0.0310449 0.15161534 0.06581991 0.14972249 -0.07211887 0.17587309 0.041606255 -0.17578343
0.054134563 0.043931164 -0.0534295 0.07285418 -0.12882331 0.029021136 -0.12630692 0.07315728
0.080443434 0.18929726 0.15685181 0.10327817 0.13633756 -0.06991111 0.061159663 -0.014591009
0.16226055 0.07480938 0.07938979 -0.08513442 -0.17123173 0.025128175 0.12618244 0.13756627
0.19347778 0.09579897 -0.03050955 0.19709896 -0.10611935 0.12289734 0.020636106 0.025817841
-0.021784848 0.047069855 -0.11364003 0.03727103 0.041647203 0.011901982 -0.041813035 -0.11858361
0.08308872 -0.06495585 0.051405102 0.03631462 -0.026296541 0.028180636 0.029793488 -0.18518157
-0.055398043 -0.015396267 -0.005581051 0.057115637 0.06081123 0.04620395 -0.15806228 -0.07153553
-0.013863906 0.18516575 -0.043469578 0.19317603 0.054161623 -0.08436051 0.17722075 0.0043328553
0.1892061 -0.12308581 0.16724253 0.08723453 0.0715174 0.0029194728 0.03448372 -0.019459322
0.057580106 0.028537145 0.049153425 0.123683445 -0.04658638 0.025621139 -0.056914885 0.082093254
-0.047612492 -0.06516836 -0.059896562 0.09539418 -0.08276222 -0.00047904998 -0.08644942 -0.04503539
0.013984663 -0.07944571 0.0028547347 0.19013107 -0.08270605 0.17812395 -0.037924472 0.17160316
-0.093127064 -0.034633767 0.0767022 -0.08731588 -0.20629542 0.16554438 -0.030854136 0.028615953
-0.12784353 0.09955544 0.08185103 0.10592301 0.10397691 0.06538663 -0.021859646 -0.07035136
0.012993164 -0.010346936 0.08877687 0.032948084 0.12491554 0.1224959 0.15785886 -0.23311995
0.054334976 0.17757939 -0.0778609 0.09389415 -0.028932665 0.10882057 0.14242733 -0.0048418753
0.12564854 0.044494964 -0.04169142 -0.016181618 -0.18381403 -0.026920691 -0.09001635 0.06571076
0.15222608 0.18788506 0.030517882 0.1697098 0.04047957 0.04493875 -0.024779474 -0.082252696
0.12221917 -0.058977813 -0.030562963 0.006877452 -0.041013636 0.029102407 0.060559392 0.1594788
0.027364552 0.0623975 -0.072873875 0.08199665 -0.082085915 0.18034236 0.09309282 0.1040891
0.040842336 -0.084776774 -0.008198008 0.056782477 -0.019791678 0.038990773 0.023846611 -0.14625756
0.014808498 -0.05287021 -0.065134935 0.076911345 0.08440944 -0.01647143 -0.021038603 -0.20397283

layer3.bias f4 [9]
00000000: 8bb8 d4bc 0df7 de3c 0244 09bd 3d9c e03d
00000010: b477 913b 848f f43d 62c4 f6bc 34b2 3bbd
00000020: 3759 eabc
-0.025966903 0.027217412 -0.033512123 0.109673 0.0044393186 0.11941436 -0.03012294 -0.045824245
-0.028606994
